models/aisf/void_20230520_110446.pth (torch, 655075 bytes, 10 tensors)

conv1.0.weight f4 [16, 1, 3, 3]
00000000: 0002 323e 49ad 703d 6516 a4be 4f46 633e
00000010: c5fa 89be 62ba 833e cdc4 8abe 8767 5cbd
00000020: 697f 8f3e ad42 f1bd 43c2 893d 9a32 b5bc
00000030: 9214 1ebe 212a 8abe b939 363e 7b5a 69be
00000040: fc84 8ebe 7822 1e3e a943 63be 7184 47be
00000050: 7f09 9fbe e751 0dbe dd94 66be caa5 833e
00000060: 64c3 fdbc a4fc c53d 9792 c33d 345e b9bd
00000070: eb58 59bc 2e0d 5dbe 5df0 723e 2072 06be
00000080: f6e5 82be faf9 603e fdf0 fcbd 629c 243b
00000090: 3d66 b6bc 61d8 96be 724f 3dbe ea7e 253e
000000a0: 22d9 a63e 3a14 233e 9ab1 873d fba0 5f3e
000000b0: 1b90 9bbe 3994 a9be 00d2 aebd 9365 3cbe
000000c0: e6a0 f33c f46a 85bc c0ed 293e 8ce9 a6be
000000d0: e0d1 253e 3b7a 12bd 227d 72be 8265 833e
000000e0: 6968 023d e811 83be 4ef4 29bd 876b 303e
000000f0: a7b3 b5bc 2ef4 48be 0f33 96be 9041 1e3e
00000100: 270b 873e 9dcc 213e 6bff 7fbe c558 833e
00000110: 2cde 23be d3a2 94be fc3f a13e be0d 933e
00000120: a408 52be 1bc5 48bd 6f74 383e f929 7b3c
00000130: 8a55 653d ceb6 7fba 4e4d 10be 4adc aa3d
00000140: 4864 603e bf47 84bc 21aa 8f3e e917 a43e
00000150: 178f 7bbe 1a9f 6d3e c73b 42bc 3ab0 de3d
00000160: 0624 fd3d 4fc6 2a3e 6b2f cbbd 4a2b d0bc
00000170: 72c1 4b3e 0e67 debc 63ca 4e3e 648f ca3c
00000180: 69cb 4b3d 3f60 9bbe 486f 183d f3e5 4e3e
00000190: e630 05be caef 86be bc02 b5bb ff5c de3c
000001a0: 8dbb 1a3e 4452 063e 7cbf 80be 1fa1 49be
000001b0: 11e7 46be df3d 14bd c95e db3d b826 74be
000001c0: 8c1c 363e 9c24 eb3c f425 503e 4751 35be
000001d0: 5f0c 803e f1b6 843d 42c4 fcbd edc2 e3bd
000001e0: e74c 9cbe d535 8fbe 72b5 0fbe 94de 913e
000001f0: 3ebf c63d 28cb 853e 653b 64be 4d7a 8cbe
00000200: ff11 2abd 1a24 53be f6c8 97bc d560 803e
00000210: bf8e 7abe 1d36 16be 647b 4abe ec97 7a3c
00000220: 8e32 7d3e 8dec 8f3e b9b9 4fbe 6e2c 52be
00000230: dfec 1abd 9cfd 823d 7a18 debc 8335 db3d
0.17383575 0.058759008 -0.32048336 0.2219479 -0.26949134 0.25728136 -0.27103272 -0.05380967
0.28026894 -0.117802955 0.067265056 -0.022118855 -0.15437534 -0.26985267 0.17795457 -0.22788422
-0.27835834 0.15442836 -0.22193779 -0.19484116 -0.31061932 -0.13800775 -0.22517724 0.25712425
-0.030976959 0.09667328 0.09549444 -0.09051171 -0.013265829 -0.21587059 0.23724504 -0.13129473
-0.2556607 0.21970358 -0.12350652 0.0025117625 -0.022265548 -0.2946196 -0.18487337 0.16161695
0.32587534 0.15925685 0.06625672 0.21838753 -0.3038338 -0.33120897 -0.08536148 -0.18398122
0.029739808 -0.01628635 0.165946 -0.32600057 0.16193342 -0.0357611 -0.23680547 0.25663382
0.031837855 -0.255996 -0.041492753 0.17228518 -0.022180391 -0.19624397 -0.2933583 0.15454698
0.26375696 0.1580071 -0.24999778 0.25653663 -0.1600272 -0.29030475 0.3149413 0.28721422
-0.20511109 -0.0490161 0.18013166 0.015329831 0.05598978 -0.0009754718 -0.1409199 0.08342798
0.21913254 -0.016147492 0.28059486 0.32049492 -0.24566303 0.23205224 -0.011855072 0.10873456
0.123603866 0.16677211 -0.09921154 -0.025411267 0.19898012 -0.02714875 0.20194392 0.024726577
0.049754534 -0.30346867 0.0372155 0.20204906 -0.13006935 -0.2635482 -0.0055240076 0.027143953
0.15110607 0.1311732 -0.2514609 -0.19690369 -0.19424082 -0.036191817 0.10711438 -0.23842895
0.17784327 0.02870398 0.20326978 -0.17706786 0.25009438 0.06480206 -0.12342121 -0.111211635
-0.30527422 -0.27970758 -0.1403406 0.28490126 0.09704445 0.26131558 -0.22288282 -0.27437058
-0.04152107 -0.2061924 -0.018528443 0.25073877 -0.24468516 -0.1466908 -0.19773632 0.01529501
0.24726316 0.2811016 -0.20285691 -0.20524761 -0.037823554 0.063960284 -0.02711128 0.10703566

conv1.0.bias f4 [16]
00000000: 8bf8 97be 4921 8dbd cf1e 0ebe 1281 6ebe
00000010: 0338 8a3d 1f27 e93d 4be1 52be 0cb6 583e
00000020: 3700 8a3e a45d 853e 1d13 ea3b 0763 423e
00000030: 7953 093e fe6e 1d3d 72b2 6bbe 6a06 a5be
-0.2968181 -0.06891114 -0.1387894 -0.23291424 0.06748965 0.11384415 -0.20593755 0.21163195
0.2695329 0.26048005 0.0071433918 0.18983088 0.13410749 0.03843593 -0.2301729 -0.32231456

conv2.0.weight f4 [32, 16, 3, 3]
00000000: bcde 043d 3e0e 893d 5071 81bd a0ab 3cbb
00000010: 083b 9ebd a502 293d 5df9 64bb 5913 803d
00000020: 0759 19bd 5012 5fbd 13e4 02bd 1e66 873d
00000030: 29f3 a83d 55b2 793d 90bb 733d a6cc 803d
00000040: 6a5d 833d e2e1 51bd b8b1 3a3d 10f9 7ebd
00000050: 08ec 8c3c bb10 28bd fdc0 8fbc 9d9e 84bd
00000060: e321 0f3d 6c5c 05bd eba8 023d a048 f2bb
00000070: 2a61 85bd a276 e0bc d822 02bd 529f 663a
00000080: c0d2 493d b0fe 853d 5ff0 643d f2b6 ad3c
00000090: 5453 8fbd 9bcb c23c 2083 973d 9dbe 8a3b
000000a0: fd8c 19bc 0a6f c3bc ba73 263d b039 2bbd
000000b0: e3db 89bd 49fa 623d bc09 28bc d491 9abd
000000c0: e32c 9dbd 9a6f 06bd 6740 a2bd 6a13 543d
000000d0: e7bd 423d edf6 1dbd a280 37bd bd15 2e3c
000000e0: 5edb 6abd 1889 b5ba 28e9 613d 3df9 6d3c
000000f0: 016d 9bbd d9f5 603d 532f a93d d5f0 e8bc
00000100: e7fe 9d3d 37ba 913d 21e7 d53c 1772 2abd
00000110: 3afe 963d 1351 11bd c500 a43d a810 30bd
00000120: 82cf a5bd e285 303d 6524 d5bc c4f9 883d
00000130: f15c 49bd a8f4 103c 242e 91bd 93b8 3fbd
00000140: 90cd baba 8505 223b 9989 68bd c57c 62bd
00000150: 7d9f a53d 13c2 7a3d d8c9 e3bc 5e5e adbb
00000160: a684 6dbc 19b8 15bc bc29 ae3c 22b4 a9bd
00000170: e700 923d fa9c 7dbd f37e 2c3d 7ae9 3ebd
00000180: 1f9d 663d 9796 a1bd 6531 673d 950a 9fbd
00000190: 0ac1 373d 7bda 803d 086e 96bc 82d9 85bd
000001a0: c01b 98bd eab4 6abd c8fa 07bd f8d6 6b3d
000001b0: 5a0f 8dbd 1cc2 5b3d ec56 7cbd 08ee 0ebc
000001c0: 0fb0 10bd 8627 973d 7bd6 133d 52bc dabc
000001d0: 002f 133c c8b0 903d 5920 e73c 42e7 58bd
000001e0: 3356 38bd cedb 9d3d 6396 a33c 9924 ffbc
000001f0: 0548 87bd 8c93 00bc 6cd7 56bc 4fe1 543d
00000200: f5f1 073c 349b 49bd 9b54 06bc e396 063d
00000210: 5799 fbba 1f08 dd3c ed2c 053d bb5e 3ebd
00000220: 9dba 15bd e4e4 26bc 8430 f13a 55fe f3bc
00000230: 4a4b 6d3d daf0 1dbd c9a6 5ebd f1d4 7abc
00000240: 9d8c e3bb 2516 033d 07aa 19bd f4f4 273b
00000250: 29e3 9c3d e454 753d 58d4 5bbd daa4 1fbd
00000260: 0814 963d cde1 913d 1330 59bc c98a a7bc
00000270: 776e 07bb f6cf 883d 8822 94bd 5e59 59bd
00000280: d4fa 0a3c e94a f83b a99b 863d 19a6 08bd
00000290: ae59 97bd c50d 9f3c 579f 8f3c b4f3 863d
000002a0: 9105 603d 2fb4 ec3c 7ed3 153d 3311 dfbc
000002b0: aefd 0a3d 6a55 093c 2772 a33d f799 43bd
000002c0: deeb d73c 2007 923d 2c7f b8bb 4386 8cbd
000002d0: ef32 06bb 17b0 8a3c 8654 f8bc a0f8 093d
000002e0: ce5e a4bd bb2d 493d 1ea9 ebbc f9d9 eabc
000002f0: 45fd 03bd c2b7 febc 408a 493d 8099 cb3a
00000300: bdf3 903d ff06 a73d b035 963d a9e7 4dbd
00000310: 6c33 5bbd 2630 003d f7a7 503d efec 8e3d
00000320: f8f0 33bd c137 353d 5e2b aabd bcd2 64bd
00000330: 5566 c53c a57f 823d 4a5c 193a 6bad 503c
00000340: a36c c6bc e737 b2bc 6689 92bc b641 35bc
00000350: 4a83 113d 95fc c93c 675e 0e3c 1e6d ffbb
00000360: 3df0 ed3c 201d c8bc 6792 cd3c 8bdd 993d
00000370: 1c91 ab3d 77f5 88bd 2eaf 1cbd 43f5 c4bc
00000380: 6944 cebc ae5c 54bd b4e8 8e3c 3c1a 113d
00000390: 1209 a83d d1bf 3eba f746 18bd 9844 973d
000003a0: 1af3 b03c 3c12 efbc 8361 08bd 32c2 07bd
000003b0: 496d 653d f305 82bc 625d 1e3d 9624 d23c
000003c0: 1e96 383d 66fb 7b3c d352 4e3c 9e88 3dbd
000003d0: 9eac 953d 5b83 623d a30e 543b 26d7 433c
000003e0: 514d 56bd 0407 a63d c201 843d dfe5 94bd
000003f0: e67d 6cbd b403 123c 2965 89bd 9198 8dbc
0.03243898 0.066921696 -0.06320441 -0.002878882 -0.07726103 0.041262288 -0.003493867 0.0625369
-0.03743842 -0.054460824 -0.03195579 0.06611274 0.08249504 0.060961086 0.059505045 0.062890336
0.06414302 -0.05124081 0.045579642 -0.062249243 0.017202392 -0.04103158 -0.017548079 -0.064755656
0.034944426 -0.032558843 0.031899374 -0.0073939115 -0.06512673 -0.027400319 -0.03177151 0.0008797544
0.049273252 0.065427184 0.0558933 0.0212054 -0.069983155 0.023778727 0.07398057 0.0042341487
-0.009371993 -0.023856658 0.04063771 -0.041803062 -0.06731393 0.05541447 -0.010256227 -0.07547346
-0.07674577 -0.032821275 -0.0792244 0.051776327 0.047544386 -0.038565565 -0.04480041 0.0106253
-0.05733811 -0.0013850061 0.055153996 0.014524755 -0.0758915 0.05492196 0.082609795 -0.02843515
0.077146344 0.07115596 0.026111187 -0.04161271 0.073727086 -0.03547771 0.08007959 -0.042984635
-0.080962196 0.04309643 -0.02601833 0.06688264 -0.0491609 0.008847393 -0.07088879 -0.046806883
-0.0014251936 0.0024722528 -0.05677185 -0.05529477 0.080870606 0.06122024 -0.027806208 -0.0052907905
-0.014496958 -0.009138131 0.021260135 -0.08286311 0.07129078 -0.061917283 0.042113256 -0.04660938
0.056302186 -0.07890051 0.05644359 -0.0776569 0.04486183 0.06291672 -0.018363014 -0.06535627
-0.07427168 -0.05730144 -0.033198148 0.057578057 -0.06887694 0.053651914 -0.061606333 -0.008723743
-0.035324153 0.07380585 0.036093216 -0.026701126 0.008983374 0.07064968 0.028213667 -0.05295492
-0.04500408 0.0770794 0.01996917 -0.03114538 -0.066055335 -0.007847678 -0.013112884 0.051972684
0.008297433 -0.04922028 -0.008198882 0.03285874 -0.0019195479 0.026981412 0.032513548 -0.04647706
-0.03655492 -0.010186408 0.00184013 -0.02978436 0.05793313 -0.038559772 -0.054358277 -0.015309558
-0.0069442526 0.03200354 -0.037515666 0.0025628181 0.07660515 0.05989541 -0.053669304 -0.038975574
0.073280394 0.07123146 -0.013256091 -0.02045192 -0.0020665207 0.066802904 -0.07233149 -0.053063743
0.008482654 0.0075772894 0.065726586 -0.033361528 -0.07390152 0.019415746 0.017532034 0.065894514
0.05469281 0.028894512 0.036578648 -0.02722988 0.033933334 0.008382181 0.07980757 -0.047754254
0.026357587 0.07130265 -0.0056303944 -0.06861546 -0.0020477136 0.01692967 -0.030313741 0.033684373
-0.08025895 0.049115878 -0.028767165 -0.02866839 -0.03222396 -0.031093482 0.04920411 0.0015533417
0.070777394 0.08155631 0.07334459 -0.050269756 -0.053515837 0.031295918 0.050941434 0.06978785
-0.043930978 0.044242624 -0.08309053 -0.055865034 0.024096647 0.063720025 0.0005850239 0.012736659
-0.024221724 -0.021755172 -0.017887782 -0.01106303 0.035525598 0.024656573 0.008689499 -0.00779499
0.029045219 -0.02442795 0.025094224 0.07512959 0.08377287 -0.06687444 -0.038253002 -0.024042731
-0.025179105 -0.0518462 0.017444946 0.03542541 0.08204855 -0.00072765077 -0.037177052 0.0738613
0.021600295 -0.0291835 -0.03329612 -0.033144183 0.056012426 -0.015871977 0.038663276 0.025652211
0.045065038 0.015379762 0.012592989 -0.046272866 0.07308315 0.05530105 0.0032357357 0.011953151
-0.05231983 0.08106807 0.06445648 -0.07270407 -0.057737254 0.008912016 -0.06708748 -0.017284663

conv2.0.bias f4 [32]
00000000: 1d06 243d d630 843d 4dc6 34ba 8363 3f3d
00000010: a364 023d 70d0 7abd 82b8 b0ba 4b02 91bd
00000020: c869 9d3d 2a58 023c 408e e8bb 1902 463d
00000030: e402 95bc 328c a8bd ef89 acbc 1d19 093d
00000040: 327d be3b 8c42 8fbb 3bd9 79bd 59ec 42bd
00000050: fb28 76bc 3e50 503d fba7 a73d 29f7 b23c
00000060: 0b54 0abc d66c 5a3d 9928 72bd 787c da37
00000070: 6593 983c 8803 0e3d 0afe 833c 16f3 793b
0.040044893 0.06454627 -0.0006896004 0.04672576 0.031834256 -0.061233938 -0.0013482722 -0.070805155
0.07686192 0.00795559 -0.0070970356 0.048341844 -0.018189855 -0.08229865 -0.021061866 0.033471216
0.0058132643 -0.0043719467 -0.060998183 -0.04758868 -0.015024419 0.050857775 0.081863366 0.02184637
-0.008442889 0.05332645 -0.05912075 2.6045585e-05 0.01862497 0.034671336 0.016112346 0.0038139275

conv3.0.weight f4 [64, 32, 3, 3]
00000000: ce6e 463d a002 5c3d 7e02 813c 93a5 423c
00000010: ff12 27bd 86bd adbc 1363 bd3c cb61 dd3c
00000020: 48bd 203d 9e19 5fbd 8841 093d 9de4 d5bc
00000030: 689c 093d b512 5dbd c428 703d 4094 d6bc
00000040: 3cce 85bc 7282 3fbd d0f4 c8bc 1678 61bd
00000050: 0326 f6bb b938 1fbd 4837 3bbd 3f6f 1ebd
00000060: fc65 cc3c 2565 5dbd 220f 1c3d 67b4 04bd
00000070: 3450 cd3c a9fe 4c3c c31b 97bc d20c 15bd
00000080: 45f8 383d 20f4 663c 4c4a 8fbc 8c00 41bd
00000090: 5b50 093d 8ccc 03bd e1da debc 75ab abbc
000000a0: 1e08 5abd 4e30 df3c 3407 64bd 29d2 47bc
000000b0: 289b bb3b 0f6a bb3c 53ea 473d 1f8d 163d
000000c0: 8760 07bd ef69 eebc b866 5bbd b7f1 14bd
000000d0: 1d43 0b3d 1085 7e3a 4d11 7dbb 568b 023d
000000e0: 1e0c f23b 95ee 45bd ead3 48bd 5d2e 3cbd
000000f0: dfc0 da3c 0ba3 823c d0ca 343d 7b8f 0a3d
00000100: 29fb 533c 8396 1c3d 6e40 19bd 10a1 703d
00000110: 42b1 ebbb 08dd ce3c e668 113d 9674 073d
00000120: 0ba6 e8bc 8c94 6c3d 1f57 41bc a431 3b3d
00000130: 452d 0ebd efef 183c 5347 3bbc abc5 a0bb
00000140: 37d4 2a3d c0bb 0fbd d56d 0fbd e960 fd3b
00000150: 2a7a 64bd 62e1 fe3b dfec 43bd a4b2 8ebc
00000160: c8db 473d e398 333d f0ab 69bd 4c99 2b3d
00000170: 7aa8 013d cc85 12bc 913f 31bd bb4e 413d
00000180: ce9f 3abc 4817 26bb fd05 293b fad9 603b
00000190: d85b 3ebd 9d0a 20bc c56d 333c 344d a3bc
000001a0: 91b8 24bc a4de 263d d091 1bbb ad6f 80bc
000001b0: 3dd0 83bc d244 02bc 5149 543d 11ce 4f3d
000001c0: 78da 78bc b33b 7bbb daca f13b 31e8 cabc
000001d0: 4219 ccbc f5e3 003d 9588 4f3c 7b84 453d
000001e0: 37e4 a1bb 213d d93c fef3 66bd efd0 1a3d
000001f0: a028 e03c e558 dabb 1cd0 e1bc 8014 dfbc
00000200: 2387 383d 8f4d bc3c d81c 383d f4dd f6bc
00000210: 4f3b 543d 9590 49bd 0857 00bd 9b77 67bd
00000220: c188 0e3c a0bc e33c 6b3a 58bd 0ce0 103d
00000230: 2a29 5b3d 9611 c7bc 4d72 60bd eac6 1d3d
00000240: 331e e13b 48f2 7ebc 88e2 d93c 9975 89bc
00000250: eb68 1bbd 7c3d 5a3d 143b febc 04f5 a43c
00000260: ae99 1f3c 4455 08bd e27a 1d3d d233 f63b
00000270: 1c12 33bd fdf2 59ba 7b34 5dbd 992d 53bd
00000280: ff3d 98bc a8f8 313d 8527 60ba 425a 2abd
00000290: aa0b 6b3c 66df 2e3d 4e9a babb 75b5 22bd
000002a0: 5e80 183d 9dd1 463c 1c4f c7bc 4fb9 2c3b
000002b0: 142a cc3c 0ef2 d13c 2e64 10bc 5703 27bd
000002c0: 4de8 863c ca89 c63c a5a7 97bc 6837 02bd
000002d0: b379 c3bc 180c 633d 0e00 403c 9982 543d
000002e0: 889b 043d 2a2e 533d 5b36 2ebc 5826 923c
000002f0: afbd 5ebd 1703 dbbc 47ab dbbb 4bf2 373d
00000300: 269a 1e3d bf07 613d 53d6 883b 2fdf dcbc
00000310: 4cd2 f4bc ac97 41bc 037a 39bb 2838 6fbc
00000320: bdc7 043d 5919 0ebc cbb2 943c d7e7 d73c
00000330: 3e3a 5fbd 3469 4f3d c075 46bd d101 13bd
00000340: d28e 71bb 150b 07bd f2a4 213d 9b71 9a3b
00000350: e227 01bd 460d 5bbc 7c87 0c3d 614d 393d
00000360: c267 073d 39f2 1f3d ffc7 10bd c36b adbb
00000370: 3641 3e3d 9ee4 3b3d d015 2e3d 8442 19bc
00000380: 867a 51bd 77ae 563d 90a0 09bd a012 66bd
00000390: 9a21 38bd e2ce 233c b22c 213d 6fa1 f03c
000003a0: cacc 67bd 77a9 1f3d 3113 f9bc 12fe b7bc
000003b0: f8f5 af3c b6cc 5f3c d084 e03c 9bcb fa3c
000003c0: c425 8f3a f40b 8f3c 3854 823a 080f 913c
000003d0: 2e9c 2dbd 605f c4bc c4ea be3c d040 be3b
000003e0: bb28 3a3d b85c ff3b 8969 c33c ea5a 613d
000003f0: 578d c43c f66e 09bc a24f 3f3d 0c27 643d
0.048445515 0.05371344 0.015748259 0.011880296 -0.0407896 -0.021208536 0.023118531 0.02702417
0.039243013 -0.05446779 0.03350976 -0.026109988 0.033596426 -0.05397292 0.058632627 -0.026193738
-0.016333692 -0.04675526 -0.024530798 -0.055046163 -0.0075118556 -0.038872454 -0.045707017 -0.03868031
0.024950974 -0.054051537 0.03810037 -0.032398608 0.025062658 0.012511888 -0.018445855 -0.03638918
0.045158643 0.01409629 -0.017491482 -0.047119662 0.0335239 -0.032177493 -0.027203979 -0.02095578
-0.053230397 0.027244713 -0.055670932 -0.012196102 0.005725283 0.022877721 0.048807453 0.036755677
-0.03305104 -0.029103247 -0.053564757 -0.03636333 0.03399955 0.0009709159 -0.0038615048 0.031871162
0.0073866984 -0.048323233 -0.049030222 -0.045942653 0.026703296 0.015946886 0.04413873 0.03382824
0.012938299 0.038229477 -0.03741496 0.05874735 -0.0071927616 0.02525188 0.03550043 0.03307017
-0.028399488 0.057758853 -0.011800556 0.045701638 -0.03471114 0.009334548 -0.011430579 -0.0049063764
0.04170629 -0.03509116 -0.035016853 0.0077325 -0.055780567 0.0077783326 -0.04783332 -0.017419167
0.048793584 0.043846976 -0.057048738 0.041894242 0.031654812 -0.0089430325 -0.043273512 0.047194224
-0.0113906395 -0.0025343467 0.0025790923 0.0034309612 -0.046474308 -0.009768155 0.010951464 -0.019934274
-0.01005377 0.04073967 -0.0023738034 -0.015678251 -0.016090507 -0.007950978 0.051827732 0.05073363
-0.015188806 -0.0038335144 0.007378918 -0.02476892 -0.024914388 0.031467397 0.012666841 0.048222046
-0.0049405354 0.026518406 -0.056385033 0.03779691 0.027363122 -0.006663429 -0.027565055 -0.027231455
0.04505075 0.022986202 0.044949383 -0.030135132 0.051814374 -0.04921015 -0.031333 -0.05651055
0.008699597 0.027799904 -0.052790087 0.035369918 0.053506054 -0.024300378 -0.054796506 0.038519777
0.006870055 -0.015560694 0.026597276 -0.016779708 -0.037941854 0.053281292 -0.03103403 0.020136364
0.00974123 -0.03328444 0.03844727 0.0075135017 -0.043718442 -0.0008314101 -0.054005127 -0.051557157
-0.01858425 0.043450028 -0.0008550811 -0.041589983 0.014346043 0.042693518 -0.005694664 -0.039723832
0.037231795 0.012134937 -0.024329714 0.002635557 0.024922408 0.025628116 -0.008812947 -0.04077467
0.016468192 0.024235625 -0.018512556 -0.03179112 -0.023861742 0.055431455 0.011718763 0.05188236
0.03237489 0.051557697 -0.010633077 0.01784055 -0.054380115 -0.026734872 -0.0067037675 0.044908803
0.038721226 0.054939028 0.00417594 -0.026961891 -0.029885434 -0.011815947 -0.0028301484 -0.014600791
0.032417048 -0.008673036 0.018151661 0.026355667 -0.054498903 0.05063744 -0.04845214 -0.035890404
-0.003685881 -0.032969553 0.039463945 0.00471325 -0.031532176 -0.013369864 0.034308895 0.04523981
0.033057936 0.03904936 -0.03534698 -0.005292387 0.04644891 0.045872323 0.04250127 -0.0093542375
-0.051142238 0.052412476 -0.03360039 -0.056170106 -0.04495392 0.009998055 0.039349265 0.029373853
-0.056591786 0.038979974 -0.030404659 -0.022460017 0.021479592 0.013659647 0.02740708 0.030614665
0.0010921289 0.017461754 0.0009943312 0.017707363 -0.042385273 -0.02397126 0.023305304 0.005806066
0.045449 0.0077930354 0.023854034 0.055018343 0.023993177 -0.008388272 0.046706803 0.0557013

conv3.0.bias f4 [64]
00000000: 54e6 93bc eb3f 90bc 5354 56bd ba62 3dbd
00000010: 89f2 3ebd 06a5 9b3b d3dc 493d 029d c7bc
00000020: be70 fe3c 5c70 e3bc e32a 1abd 6711 45bd
00000030: e347 2a3c 3056 d63b c2c6 9f3b a4fa 51bd
00000040: 0ea4 5dbd 658e 6ebb 48b1 aebc 047e 0fbd
00000050: 682a df3a fe04 c13b 9ff5 6d3d 4951 133b
00000060: 598a 383d 9d83 f23c 4002 99ba 2256 0abc
00000070: 352e 30bd 7982 d33c 709e fdbc 1812 65bd
00000080: 239e 5dbc 3cad 0c3b 478a 63bd aa46 5abc
00000090: 8356 bb3b 5d23 bb3c 8432 d5bb 2399 983c
000000a0: df4a 6bbb b7c1 42bd 9aae 263d ac59 16bd
000000b0: 377f 16bd 20d0 63bd fd37 8a3c 8cdd 483d
000000c0: c737 193d 38bd 203d 16a1 6dbd 104a eebc
000000d0: ad5f cd3b 3a71 d2bc 4b04 ba3c 81a4 fe3c
000000e0: a5ac 163c b820 5d3a f842 563d 7314 67bc
000000f0: 7a3a ebbc fbf0 d4bb d613 55bd 4630 40bd
-0.018054165 -0.017608603 -0.05232651 -0.04623673 -0.04661802 0.004749897 0.04928286 -0.02436686
0.031059619 -0.027763538 -0.037638556 -0.0481123 0.010393116 0.006541036 0.0048759887 -0.05126442
-0.054111533 -0.0036400792 -0.021324769 -0.035032287 0.0017026188 0.0058904877 0.05809557 0.002247887
0.045053814 0.029603774 -0.0011673644 -0.008443387 -0.043012816 0.02581905 -0.030959338 -0.05592546
-0.013526472 0.002146556 -0.055551793 -0.013322512 0.0057171 0.022844011 -0.006506266 0.018627709
-0.003590278 -0.047548022 0.040693857 -0.03670661 -0.036742415 -0.055618405 0.0168724 0.04903941
0.03740671 0.039242953 -0.05801495 -0.02908805 0.006267509 -0.025688756 0.022707125 0.031084301
0.009196435 0.00084353564 0.05230996 -0.014103997 -0.028714407 -0.0064984537 -0.05202087 -0.046921037

conv4.0.weight f4 [128, 64, 3, 3]
00000000: 6905 a53a ee9d b53b a7df 043d a770 e33b
00000010: 72e8 99bc 8803 6b3c 156b 00bd 214a 523c
00000020: 4c59 f43c 9f78 92bb c2e3 01bd e9d8 f63a
00000030: 8bc7 da3c 0ed0 bebc ce95 913c b172 473c
00000040: d789 e3bc f01a 4f3c e2a4 213d 85a1 8ebb
00000050: 2288 033d 8d5c adb9 a141 b7bb 3278 d63c
00000060: ff28 7c3a 04a1 733c be14 023d 82d4 b3bc
00000070: 1db0 93bc 0ab5 d3bb f8fe c73b 6b24 81bc
00000080: 35d5 fcba a07e 6cbc f9a1 10bd e8e3 6ebc
00000090: b97e d03c a2f6 713c 6606 713c 29f4 e8bc
000000a0: a48f 01bc af88 633c 92fe 013d 5580 f3bb
000000b0: 5e39 7cbb 9d5a aabc 006a 923c c1e2 e5bc
000000c0: e285 10bd e4ae fbbc bebb 44bc 768e 863c
000000d0: e3ae 30bc a045 f03a 20d1 e6bc 87f8 b2bb
000000e0: 66c3 103d 2acb cabc b7a7 cbb9 f666 d63c
000000f0: 9793 3b3b c7d9 0d3d 4ef7 20bb cd55 95bb
00000100: 07f2 a3bc 4042 283d 8bba 153d 056c 1fbb
00000110: aac2 183a e744 ba3c bd48 bb3c 433a 173c
00000120: 7692 a73c 61b6 c93c 8a37 04ba 4d9f 81bc
00000130: 054e 62bb 5e99 4a3c 21c4 263d 321f 14bd
00000140: 927a fb3c 8522 043d cb64 0fbd 1db1 a9ba
00000150: 9141 05bd 8593 2f3b 8f76 473c c987 363b
00000160: 4cf7 6bbb e53e 023d 1780 1e3d af9d 133d
00000170: da1e 4e3c 3343 17bd 35e6 c43c c19f 173d
00000180: d440 fcbc 9276 97bc ca68 5f3c 466a 1e3d
00000190: 9657 62bc b20d 603c 6e27 d7bb fa25 cdbb
000001a0: 7dc2 503c 97b1 5e3b 9905 4abc ffc3 14bd
000001b0: 59d2 81bc 1ece 07bd ca69 24bd e899 0bbc
000001c0: 4879 b5bc 18e3 c13c 607a 04bd e52d 21bd
000001d0: 3f9c 15bd a863 1d3d 9025 feba 3a79 fab9
000001e0: 314c b13c 6fbc 24bd 3755 d43c 42dd bc3c
000001f0: 5933 7d3b c25d e8bb 8f9d dd3c bb18 ea3c
00000200: b8e7 1fbd d82c df3c ff5d f53c a219 703c
00000210: 355f edbb 2dc5 ffbb 7ab1 743c 84f8 13bc
00000220: c60d 223d be4c 84bc a59c 28bd 733d 91bc
00000230: 9966 9a3a fb15 0fbc 98c8 e3bc efac 0abd
00000240: 41c5 873c 471b d1bc d85b dcbc ab23 183d
00000250: 220e b93c f649 e53c 88bb c53c 4be0 edbc
00000260: 25db 483c 170a a5bc 5781 0b3c be26 c6ba
00000270: b24b 19bc 92b7 c1bc 4ea4 62bc be85 45bc
00000280: 00e4 c1bc 9a46 20bd 4c38 963b 0d63 8dbc
00000290: ecbe 183d 1c01 383c c7e2 26bd 4837 e0b7
000002a0: d4ae 76bc d668 53bc 4ccf 14bd 96ac 543b
000002b0: 5fc8 813b 6023 b1bc d1b2 abbc 3a9d 093d
000002c0: 1ab4 273d e522 97bb d270 19bc d375 ec39
000002d0: 4bd2 85bc 5096 7dbc c9f4 90bb af3e 1c3d
000002e0: 4b19 28bb 1b06 f5bc 16ef a03b 8015 293d
000002f0: e514 86bb 5842 1b3c 9edc db3c d800 9f3c
00000300: fe3c efbb 7888 773c e2ce 243d 4c02 8ebc
00000310: 3a96 8c3c b469 5fbc 372f eabc 3817 1c3c
00000320: e897 85bc 351d a03c b2d9 d83b 544c 453c
00000330: 8fcd 04bd 7934 3f3c 09b1 143d 88b4 683b
00000340: 8735 02bd 3a97 ff3c b7b8 a23c 2edd 783c
00000350: 966d ddbc 0bde 6c3b 832e 253d af4f 09bd
00000360: a21a 29bd cb4d 513c 062f e4bc c465 0bbc
00000370: db67 513c 661c 3a3c faf1 f63c 6948 f83c
00000380: 7f06 97bc aaed e03c a07e aabc a128 b2bc
00000390: 4a7b 4d3c a690 ec3b d66c de3c d403 a73c
000003a0: ac31 b43c d097 9fbb 4d58 e3bc d20a 123d
000003b0: c09c 103d 9ee9 d83c a622 713c ad84 d6bc
000003c0: 22f5 f5bc b10c 15bd 02b8 62bc 6fc4 b93a
000003d0: bf83 99bc df8f f5bc 7d4a 103d 9bac 2bbc
000003e0: 25ee 36bc 2aa7 ba3a 633e e53c ef15 c8bb
000003f0: bb39 b0bc 6977 cbbc 5463 8eba df49 983b
0.0012590113 0.0055425083 0.032439854 0.0069409194 -0.018787596 0.014344104 -0.03135212 0.0128350565
0.029827736 -0.0044699456 -0.031711347 0.0018832955 0.026706478 -0.023292568 0.017771628 0.012173341
-0.027775688 0.0126407 0.039463885 -0.0043527507 0.03211225 -0.00033066087 -0.0055925404 0.02618036
0.0009619146 0.014869932 0.031758063 -0.021951918 -0.018028313 -0.0064607905 0.0061033927 -0.015764436
-0.0019289615 -0.014434487 -0.03531072 -0.014580704 0.025451051 0.0147682745 0.014710998 -0.028436737
-0.007907782 0.013887568 0.031736918 -0.00743107 -0.0038486342 -0.02079516 0.01787281 -0.028062226
-0.03528393 -0.030723043 -0.012007652 0.016425353 -0.010783884 0.0018331297 -0.02817589 -0.0054617557
0.035342596 -0.02475508 -0.00038844135 0.026172142 0.0028621906 0.034631517 -0.0024561468 -0.0045573474
-0.020012869 0.041078806 0.036554854 -0.002432586 0.0005827347 0.022737933 0.022861833 0.009230199
0.02045558 0.024623098 -0.00050436764 -0.01582303 -0.0034531367 0.012365667 0.040714387 -0.036162563
0.030698095 0.032259483 -0.035008233 -0.0012946461 -0.032533232 0.002679081 0.012174263 0.002785193
-0.0036005555 0.031798262 0.038696375 0.03603905 0.012580598 -0.03692932 0.024035553 0.037017588
-0.030792631 -0.018489156 0.0136358235 0.03867557 -0.013814827 0.01367514 -0.0065659797 -0.0062606307
0.012741682 0.0033980364 -0.012330436 -0.03631973 -0.015847372 -0.033155553 -0.04013995 -0.008520581
-0.022152558 0.023667857 -0.03234327 -0.03935041 -0.03652596 0.038425118 -0.0019389857 -0.00047774037
0.021642776 -0.040218767 0.02591954 0.023054723 0.0038635342 -0.007091255 0.027052669 0.028576246
-0.039039344 0.027243063 0.029952047 0.014654549 -0.0072440156 -0.0078054876 0.014934892 -0.009031419
0.039563917 -0.016149875 -0.041165013 -0.017729497 0.0011779844 -0.008733268 -0.027805611 -0.03385633
0.01657355 -0.025525702 -0.026899263 0.03714339 0.022589747 0.027989369 0.024137273 -0.029037615
0.012259279 -0.020146413 0.008514724 -0.0015117747 -0.009356426 -0.023647103 -0.013833119 -0.012055812
-0.02366829 -0.03912983 0.004584348 -0.017259145 0.037291452 0.011230733 -0.040743615 -2.6728623e-05
-0.015056331 -0.012903413 -0.036330506 0.0032451502 0.0039606537 -0.021623313 -0.02095929 0.03359721
0.040943243 -0.004612314 -0.009365277 0.00045101214 -0.016335627 -0.015477732 -0.004423712 0.038145717
-0.0025649841 -0.029910138 0.0049113138 0.04128027 -0.0040918463 0.009476267 0.026838597 0.019409582
-0.007300972 0.01510822 0.04023636 -0.01733508 0.017161477 -0.013636041 -0.028586967 0.00952702
-0.016307786 0.019545177 0.006617748 0.012042124 -0.0324226 0.011670225 0.036301646 0.0035507996
-0.03178933 0.03120004 0.01986347 0.015189452 -0.027029794 0.003614309 0.04032756 -0.033523258
-0.041285165 0.012774895 -0.027854454 -0.00850815 0.012781109 0.01135931 0.03014468 0.030307965
-0.018435715 0.027457077 -0.020812333 -0.021747889 0.012541601 0.007219392 0.027151506 0.020387568
0.021996342 -0.0048703924 -0.027752066 0.03565485 0.03530574 0.026478585 0.0147177335 -0.026186312
-0.030024115 -0.036389057 -0.013837816 0.0014172922 -0.01873958 -0.02997583 0.035227288 -0.010478164
-0.0111651765 0.0014240493 0.02798385 -0.0061061303 -0.021511903 -0.024837213 -0.0010863342 0.004647478

conv4.0.bias f4 [128]
00000000: da9d 133d c7fc e03b 6262 90bc 1f39 81bc
00000010: 1ad1 dd3c d445 ed3c 5df1 093d 1b71 843c
00000020: de2a 11bd 6973 093c 9037 a13c c2ae d0bc
00000030: 186f d7bc fe94 f3bb 6dd0 03bd 0e62 143d
00000040: 3ac3 19bd b9f8 143d 40b2 b73c 6ca8 083d
00000050: 6b0e 34bc 5c62 d03c 6349 e83b 8a79 c0bc
00000060: 462b 50bc 3cfb 553c 0b40 053d d97c d83c
00000070: 6c14 1bbd 74fd 80bc b8b4 143c 15df 083d
00000080: 44b3 99bc 0220 0a3b 4193 09bb da27 29bd
00000090: 95e7 1ebb aae4 c6bc 9089 f63c 6060 14bd
000000a0: 52c1 26bd 68cf 923c a77d c4ba f668 c73c
000000b0: b277 d7bc b82c e2bc d4ca 453c bd37 a73c
000000c0: f0c2 f93c 813b b9bb 31ca b2bb 1d7f c93b
000000d0: e415 1e3d f06d 24bd 0737 6e3c 732e 893c
000000e0: a336 62bc 6e2a 20bd 0632 fc3c ccec a7bc
000000f0: 643e fabc 8a21 1cbc 92b2 293d 3b2c 883c
00000100: 0676 e13b efa2 9ebb 79ac a23a 3850 a73c
00000110: 59b9 6bbb dddf 54bb 387d 22bd 5d5b 8abc
00000120: 9e0b 13bd 6e34 9abc a08b 14bd 874a d13c
00000130: 1a5a 243d 29de d13c 27e9 96bc 2a3f cc3a
00000140: efb9 19bd 7d6a a0bc 6ffb 1bbd 6f6e 973c
00000150: 6ad3 03bd df9d 06bd 1196 c8bc 84a1 a33c
00000160: 301d cdbc 399c 203d 5b59 823c b4a5 88bc
00000170: ff45 0a3d d1b8 b83c 6fdd 033d ed3e f33c
00000180: 3757 d73c caf0 21bd 255c b8bc 09e0 2e3c
00000190: cee7 0ebd 6721 bb3c ecb0 753c 5eeb 4abc
000001a0: 15f6 273d 187f a03c c878 a63c c1f8 42bc
000001b0: 6d46 6a3c f8ce c5bc a298 f3bb 2dc2 0b3c
000001c0: 8c71 083d 2ff0 88bb a741 0b3d be4d 81bc
000001d0: 9e11 1dbc 2bfe 783b 4194 11bc 7df0 0c3d
000001e0: 67ce 0f3d d956 143d eb9d db3c 1cd6 b33c
000001f0: 58b0 30bc 84ee a13c 8462 cd3c 2557 e63c
0.03603921 0.006866071 -0.017625038 -0.015774308 0.027077246 0.02896396 0.033677448 0.016167214
-0.035441272 0.008389332 0.019679815 -0.025473956 -0.02629809 -0.0074335327 -0.032181192 0.036226325
-0.0375397 0.036370013 0.022423863 0.033363745 -0.010989766 0.025437526 0.0070888265 -0.023495454
-0.01270563 0.013060387 0.03253178 0.02642672 -0.037861273 -0.015745856 0.00907629 0.033415873
-0.018762238 0.0021076207 -0.0020992311 -0.04129777 -0.002424692 -0.024278957 0.030094892 -0.036224723
-0.04071171 0.017921165 -0.0014991061 0.024342041 -0.026302192 -0.027609214 0.012072284 0.02041232
0.030488461 -0.0056528454 -0.005456232 0.0061491863 0.038595095 -0.040143907 0.014539487 0.016745782
-0.013806972 -0.039102964 0.030785572 -0.020498656 -0.030547328 -0.009529481 0.041430064 0.016622653
0.0068805246 -0.0048412005 0.001241102 0.020423993 -0.003596863 -0.0032482066 -0.0396702 -0.016889269
-0.03589975 -0.018823829 -0.03626597 0.025548233 0.04012499 0.02561863 -0.018421723 0.0015582789
-0.037530836 -0.019582028 -0.038081583 0.018485276 -0.032184042 -0.0328654 -0.02448562 0.019974478
-0.025038332 0.039211486 0.015911749 -0.016680576 0.03375816 0.022549065 0.032193597 0.029693091
0.026286704 -0.039536275 -0.022504875 0.010673531 -0.034889035 0.022843076 0.014995795 -0.0123852175
0.041006166 0.019591853 0.020321265 -0.011900128 0.014299017 -0.024146542 -0.0074339667 0.008530182
0.03331141 -0.0041790227 0.033998158 -0.01578414 -0.00958672 0.0037993293 -0.008885444 0.034409035
0.03510895 0.036215637 0.0268087 0.021952681 -0.010784231 0.019767053 0.02507139 0.028117726

linear.weight f4 [3, 21888]
00000000: edc2 853b f57f aa3b 329b 693a f603 33bb
00000010: 2f6c b33b fdf5 063a 057c 19bb bb57 193b
00000020: c58d c5bb 34be 4ebb 5b2e 6fbb 0cb7 afba
00000030: e074 5bbb ce13 abbb 0aea 993a f494 9cbb
00000040: 428e b93a fa41 1d3a 9ef6 81bb 9ce0 a2bb
00000050: ad56 bb3b 02b8 263b b845 87ba bdea 2d3b
00000060: be94 863b 6ed5 5c3a da41 3939 70dd 9d3b
00000070: b876 bd3a db2c 0bb9 a93e 0f3c 71f7 10bb
00000080: 2d03 b93a 556c bd3b c021 483b 93ef 8a3b
00000090: 1e60 273b 858a 1c3b d5c1 c3bb 7399 623b
000000a0: 0a09 1d3b 9231 baba 8185 e13b b573 07bb
000000b0: 865e 203b e140 91bb 6e01 853a d70c 50bb
000000c0: eb66 5a3b c84b 453b e89c 34bb d3b6 213b
000000d0: 8cf4 443b 673d 653b d79c 033a dc72 863a
000000e0: c1b6 ddba 2553 423a c861 ab3a 40a0 a33b
000000f0: 81e9 afbb 8783 4dbb 2678 6b3b a79f 8a3b
00000100: 6ebe afb9 3819 603b 7c4d 293b 8f0b 79bb
00000110: 6031 193b 483b 0e3b 4fdc 8e3a 4afb a0bb
00000120: 1ac2 c5bb 4ab0 7b3a 9d42 923a 3450 2b3b
00000130: e43a f83a f7ca d83b e526 6cbb 0a96 37ba
00000140: 2b8e dc38 765a ca3b d512 1d3b b8ab 8bbb
00000150: 0221 bf3a 388c 5339 54a0 9ebb d452 d83b
00000160: e293 8a3b 8736 b9bb c063 b3bb 3bc7 8abb
00000170: 00bc c2bb 4d52 a2bb 53ad 1e3b cbd5 90bb
00000180: 7d72 a7ba 4988 843b 746e d93b eaf1 a93b
00000190: 507e 973b 5da5 a73b dc2f dcbb 9bd8 d8ba
000001a0: f72c b138 bf1d b83b 64ce c53a 0269 153b
000001b0: d8f8 153b 0a34 0abb 9b19 64bb efc5 2c39
000001c0: 1a10 8e3b 6d7e 3c3b 220c d43b c2a1 a3bb
000001d0: 0411 153a 5925 dbbb 5560 beba 079e da3b
000001e0: 6b4d b73b 813b 8abb d098 fbba 0f4c ea3a
000001f0: bd73 953a 24c6 3bba d62a 773b bbcc 9e3a
00000200: 069d 7c3b e0b5 933b 5141 d9ba 4b00 8fbb
00000210: b929 13bb a9db dfba cb74 adbb 9318 88bb
00000220: 639c a13b d3ef 373b a5b3 a33a d7a7 a7bb
00000230: 7c57 99ba 0976 1439 43b2 aeba 1049 bbbb
00000240: ee6a 803b 0467 44bb 8b23 1ebb d201 333a
00000250: 180e af3b 231d a33b 3954 d7bb 2d59 8dbb
00000260: 7e5f d63b 1b30 5f38 c617 1fbb 2b9a ac3a
00000270: 121e bfbb 5f1d 2bbb 3656 823b 98d5 8f3b
00000280: 4792 aabb a137 33bb ffdb 1ebb 1a61 bd3b
00000290: 6cfa 0a3b 7644 6eba fe72 23ba bc03 aa3b
000002a0: eef7 67b9 c7c1 8fbb 6b0a bbba a4d1 fab9
000002b0: ab1c 0ebb 5936 b23b 09bb 1cbb 0f15 a1bb
000002c0: 9a17 603a b249 97bb 8066 eab9 ad22 37ba
000002d0: 8d60 3fbb 7d3d ffb9 1c94 873b 1f03 b83b
000002e0: 5be5 753b 8b1d 523b a232 073c 3eb5 143c
000002f0: fec9 953b c578 b33b d0a1 383b 7c72 93bb
00000300: 4e76 c13b 3f70 d43b ca64 0bbb d2ac 0cbc
00000310: 1689 08bc 0de2 dfbb 0e2f 083a e366 f73a
00000320: 7f91 cf3a 324d 3f3c b738 153c dd85 9e3b
00000330: 78cc fb3b 8f4b dd3a 6c44 2c3b 072d 3b3a
00000340: 97a9 c73a b84c 67bb c44b 52bb 4221 06bb
00000350: 573a be3b ef86 1a3a 1c9b 0cbc e460 d7bb
00000360: ded3 833a 38b1 2a3c 7bbc 833c bf97 423c
00000370: 9243 ce3a da94 bcba bc56 9139 9441 003c
00000380: fe61 853c 9be3 f73b b97a 8e3b 8281 133b
00000390: eaf9 9bbb fda6 faba 3d02 aa3b b257 033b
000003a0: 7a1e 56bb b043 b7bb 75cf 003c bd72 a03c
000003b0: a84d 9b3c cc7e 973c 4e6e 163c f111 fc3b
000003c0: 86f4 e83b cb20 85bb 0af0 b83a 0e96 ba3b
000003d0: 71a5 30bb 81e6 d13b 24cb 953b 9b80 183a
000003e0: 8edd f9ba 049e 963a 260f 24bb c590 1f3b
000003f0: d8be 21ba 59a6 abba f6cb 3d3c 838a 223c
0.004082075 0.005203242 0.00089113705 -0.0027315593 0.005475543 0.00051483494 -0.0023419869 0.0023398239
-0.006028863 -0.0031546475 -0.0036496136 -0.0013405993 -0.003348641 -0.0052208668 0.0011742723 -0.004778499
0.0014156776 0.0005998906 -0.0039661666 -0.004970623 0.0057171197 0.0025439267 -0.001032046 0.002653762
0.004107087 0.00084241375 0.00017667506 0.004817657 0.0014454937 -0.00013272783 0.008742967 -0.0022120143
0.0014115326 0.0057807365 0.0030537695 0.0042399853 0.0025539468 0.0023886275 -0.0059740343 0.0034576326
0.0023961687 -0.0014205447 0.00688237 -0.0020668332 0.0024470403 -0.004432783 0.0010147521 -0.0031745934
0.0033325504 0.0030104984 -0.0027559344 0.0024675622 0.0030052988 0.0034979226 0.00050206244 0.001025762
-0.0016915427 0.0007412902 0.0013075406 0.0049934685 -0.005368412 -0.0031358914 0.0035929768 0.004230458
-0.00033520482 0.003419472 0.0025833538 -0.0038001274 0.0023375377 0.0021702815 0.0010899397 -0.0049127685
-0.0060351016 0.0009601159 0.0011158768 0.0026140334 0.0018938449 0.006615992 -0.0036033925 -0.00070032536
0.00010516898 0.0061753346 0.0023967524 -0.004262414 0.0014581981 0.00020174764 -0.00484089 0.0066016708
0.004229055 -0.005652252 -0.0054745376 -0.004235176 -0.0059428215 -0.0049536587 0.0024212196 -0.0044200174
-0.0012775209 0.004044567 0.0066354815 0.005186309 0.004623212 0.0051161484 -0.0067195725 -0.0016544046
8.448393e-05 0.0056187804 0.0015091416 0.0022798185 0.0022883918 -0.0021088147 -0.00348053 0.00016476934
0.0043354155 0.002876188 0.006471173 -0.0049936483 0.00056864345 -0.006687802 -0.0014524559 0.0066716704
0.0055939457 -0.004218519 -0.0019195322 0.001787545 0.001140229 -0.0007163009 0.0037714741 0.0012115458
0.0038545742 0.004507765 -0.0016575252 -0.0043640486 -0.0022455289 -0.0017079014 -0.005293464 -0.00415332
0.004931973 0.002806653 0.0012489451 -0.0051164436 -0.0011699046 0.00014158351 -0.0013328273 -0.005715497
0.003918997 -0.0029968629 -0.0024130072 0.00068285794 0.0053422563 0.0049778386 -0.0065713194 -0.004313609
0.0065421453 5.3212145e-05 -0.0024275645 0.0013168504 -0.005832442 -0.0026110036 0.0039775623 0.004389476
-0.005205426 -0.002734639 -0.0024240015 0.0057793977 0.0021206392 -0.0009089181 -0.0006235092 0.0051884335
-0.00022122238 -0.0043871137 -0.0014270073 -0.0004783991 -0.0021684568 0.0054386077 -0.0023915193 -0.0049158405
0.0008548439 -0.0046169395 -0.00044708326 -0.0006986063 -0.0029201836 -0.00048683202 0.004137529 0.0056156064
0.003752074 0.0032061066 0.008251818 0.009076415 0.0045711985 0.0054770433 0.002817262 -0.0044997316
0.0059039956 0.0064831073 -0.0021269792 -0.008586125 -0.008333465 -0.0068323673 0.0005195 0.0018875267
0.0015836208 0.01167612 0.00910776 0.004837735 0.0076842867 0.001688348 0.00262859 0.00071401935
0.0015233037 -0.003529353 -0.0032088617 -0.00204666 0.0058052945 0.00058947405 -0.008581903 -0.0065728296
0.0010057648 0.010418229 0.016081085 0.011876999 0.001573669 -0.0014387623 0.00027721177 0.007828135
0.016282078 0.0075649745 0.004348126 0.0022507613 -0.0047600167 -0.0019123253 0.005188255 0.0020041284
-0.0032671974 -0.005592786 0.007861962 0.019585961 0.018957928 0.018493079 0.009181572 0.0076925685
0.0071092276 -0.004062747 0.0014109623 0.0056941574 -0.002695408 0.006405652 0.0045713354 0.00058175036
-0.0019063221 0.0011491184 -0.0025033443 0.0024347764 -0.00061701005 -0.001309584 0.011584273 0.009920719

linear.bias f4 [3]
00000000: 711a 23bb 28fc 91bb 1fab 823b
-0.0024887586 -0.004455108 0.0039876844
