models/aisf/void_20230517_102846.pth (torch, 655075 bytes, 10 tensors)

conv1.0.weight f4 [16, 1, 3, 3]
00000000: 6552 603d 0739 943e a4b8 463e 328f acbe
00000010: a34d 613e 8dd7 4d3e ec1f 2c3d 9205 35bd
00000020: 5432 873e a695 303e 26ef 763e 1689 0cbe
00000030: 90d9 a53e cb45 0fbe 862c c93d 451b 4cbd
00000040: 9aae 30be b083 723e 9781 47be 7db9 15bd
00000050: a78f 633d ab28 a43d 52e3 4c3e 61f8 9dbe
00000060: 6a52 4e3e 3f2d 893e 9bc1 373e 8805 90be
00000070: d1df 95be 33b9 bbbd fa6b a33e 4adb 043d
00000080: 15b6 e6bc 200c 583d 0ae2 b33d 1024 2e3e
00000090: 4c0e 1dbe fd19 eebc 01e9 3d3e 3c0f 613e
000000a0: 3b2b 5cbe 508d dcbd f047 293e 0ab0 dfbd
000000b0: fe0c 383e 386c 793e 01f5 0b3e 02a4 91be
000000c0: 4bd7 eebc 1e8d b4bc b825 bcbd 0066 cc3d
000000d0: 842f 083d 1789 abbd 0370 923e 5729 813e
000000e0: 8c8c 3d3e a712 4fbc 46c0 8ebe 0451 bdbd
000000f0: ae71 923e b80e 9dbd d4bb 083e 73ad 11bd
00000100: 7880 33be 0f75 a0be 623f 8fbe 3ff4 4cbe
00000110: 82c9 febd 6b03 acbe 14e0 26be 5dc6 a33e
00000120: 0fa7 4cbe 2fdd 9c3e 6a3e 2bbe 0d2f a53e
00000130: e8d9 03be b310 83be d0d0 423e 1c1d 5b3c
00000140: 376d 0f3e 1384 9abc 63fb 4e3e 7a03 33be
00000150: abce 0d3e 4cc1 913e 15b1 3f3d 25e5 9a3e
00000160: 2d41 8b3d 58f1 45bd 923f 5fbe 4b99 33bd
00000170: d7bb 87bd dbf4 153e 0a24 29be 9821 303d
00000180: fe89 2a3c 6538 d03d a70a 65be 82cd 953e
00000190: a768 9a3c f9b8 23be db83 76be 1e36 ad3e
000001a0: 0671 cf3d 8dd3 c0bd cfb2 593e 9491 bbbd
000001b0: 34a8 a0bd 4d3f 5bbd 4490 863e ceec 99be
000001c0: 9404 7b3e 3702 923e c128 4abd a51b 3c3e
000001d0: cd45 d23d b8be 81be 1863 6b3e 38e5 99be
000001e0: d3c9 163e 2b1e 403d 3b91 9fbe b443 3abd
000001f0: e244 8c3d e4eb 973d 7870 71be 3deb a73e
00000200: 723f 843d 3282 9d3d c372 f4bc 98c4 1a3e
00000210: 8da5 a439 f91f fb3d 4831 7e3e 0a30 733d
00000220: 1b06 9d3d a44b 543e 8a11 5a3e d58c f63c
00000230: c683 81be caea 013e cd22 55bb 6c17 41b9
0.054766078 0.28949758 0.19406372 -0.33703 0.22002272 0.20101757 0.04202263 -0.044194765
0.26405585 0.17244586 0.24114665 -0.13724169 0.3239255 -0.13991468 0.09822945 -0.049830694
-0.17254105 0.23683047 -0.19483028 -0.03655385 0.05555692 0.08015569 0.20008591 -0.3085356
0.20148626 0.26792333 0.17944948 -0.2812922 -0.2927232 -0.09166183 0.31918317 0.032435693
-0.028162995 0.05274594 0.08783348 0.17005944 -0.15337485 -0.029065127 0.18545915 0.21978468
-0.21500866 -0.10769141 0.16531348 -0.10922249 0.17973706 0.24357688 0.1366768 -0.2844544
-0.029155394 -0.022039946 -0.09186882 0.099803925 0.03324844 -0.08375757 0.28601083 0.25226852
0.18510646 -0.012638724 -0.27881068 -0.09243968 0.28602356 -0.07668823 0.133529 -0.035565805
-0.17529476 -0.3133931 -0.27978045 -0.20015047 -0.12440778 -0.33596358 -0.16296417 0.31987277
-0.19985603 0.306375 -0.16723028 0.3226246 -0.12876093 -0.25598678 0.19024968 0.013373639
0.14006506 -0.018861806 0.20213084 -0.17481795 0.13848369 0.28467786 0.046799738 0.30252948
0.06799541 -0.048325866 -0.21801594 -0.043847363 -0.066276245 0.14644186 -0.16517654 0.043000787
0.010408876 0.101670064 -0.22367345 0.29258353 0.01884873 -0.1598853 -0.24073736 0.3383035
0.101289794 -0.0941535 0.21259616 -0.09158626 -0.07844582 -0.053527165 0.2628194 -0.3006348
0.24513465 0.28517315 -0.049355272 0.1836992 0.1026722 -0.2534082 0.2298702 -0.30057693
0.14725427 0.04690377 -0.3116549 -0.045474723 0.06849076 0.074180394 -0.2357806 0.3279666
0.06457414 0.076908484 -0.029839879 0.15114057 0.00031403863 0.12261958 0.24823487 0.059371985
0.0766718 0.2073198 0.21295753 0.03009645 -0.25295848 0.12687221 -0.0032521964 -0.0001841464

conv1.0.bias f4 [16]
00000000: 3d2a 103e 1423 913e d018 53be fb01 443e
00000010: b405 1a3d 5421 9cbe 157c 053e 7958 7bbe
00000020: 21f6 c03d 1a46 f3bd bee4 e0bd 1ee6 7c3e
00000030: 685e 2abe e2d2 373e d3ca 82bd 99c3 3cbe
0.14078613 0.28347075 -0.20614934 0.1914138 0.037603095 -0.30494177 0.13035615 -0.24545468
0.09421945 -0.11878605 -0.10981129 0.24697158 -0.16637576 0.17951539 -0.06386342 -0.1843399

conv2.0.weight f4 [32, 16, 3, 3]
00000000: 66af b93c 80ae 873d bf55 013d 976c 023d
00000010: 874e 5dbc 60de feba fa44 93bd 2d2f 77bd
00000020: 1ebe 36bd 2d07 f2bc 3720 95bd 0bc2 b5bd
00000030: 8c88 30bd e4d0 423a b6c1 41bd 3279 cf3c
00000040: 9f11 023d 2776 6d3d 3349 d0bc 0c51 78bd
00000050: 0233 16bd 9fcc 653d 91e7 65bd 345f 5bbd
00000060: 18ad 84bc 3aad d23c 52c9 87bd 288e 94bd
00000070: edd9 d5bb a181 9c3a 771b 0fbd ee66 8dbd
00000080: 6f10 153d 6ded a53c bd54 b1bd 00b6 21bc
00000090: 72a4 5f3b 474a ea3c 65be cf3c 0f47 9bbb
000000a0: bdd0 853d 1393 803d cfc2 993d 950a c53c
000000b0: 80f3 8fbd 44e3 713d a850 57bd 85f2 863c
000000c0: aaa5 873d cbd5 9c3c f1f7 a9bc 2d29 91bd
000000d0: 4e89 8cbd 8afd 97bd 4a21 15bd 7fc4 8ebc
000000e0: e7bd d73c 3131 85bd 5a3b 8f3d 7d1e 963d
000000f0: 6347 303d c39e 04bd bbf4 273d d56e 023b
00000100: 8909 a0bd 2e12 313d 6fc6 9fbd 9e19 66bd
00000110: 3e45 52bc ff73 36bd 67dd 62bd 902f 9b3d
00000120: 9415 173c b6b5 ecbc b554 a5bd e6b0 4abc
00000130: 11ba b5bd 3b61 7ebd 5e3e 573d fee3 243d
00000140: 8a09 c83c 2301 a1bd dc32 18bd faae 9c3d
00000150: f9fd 813c eda3 9cbd bcb2 273d 2696 a4bd
00000160: 3219 a8bb 5333 8cbd c3eb a4bd b45b a03d
00000170: e376 dcbc c924 6dbd 1baa 2abd f55f d83a
00000180: 1a4e 483d 47e4 57bd 12da 1cbd 1a18 643d
00000190: 58ee 663c 3418 173d d755 b5bd 08cf 23bd
000001a0: efef a8bd 03a4 3bbd ee67 52bc a2f8 8abc
000001b0: f503 823d a799 12bd fe71 563d 5344 1f3d
000001c0: 1d7c 963d 8d18 d8bc bad3 cfbb 1209 5b3d
000001d0: 0d8a 81bd 3060 193b 2276 bc3c 2cda 783d
000001e0: 4557 83bd 6360 0fbc 42aa 443d f191 25bd
000001f0: 6d03 ec3c 5168 a7bd 7b48 b4bd 781c afbd
00000200: 768b 4a3d 7d66 e0bc 0559 8fbb 1fef 223d
00000210: c149 213d b611 4abd 639c 0a3d 325c aabc
00000220: a2b8 d7bc cfde d0bc fc07 043d 1c38 4e3b
00000230: fbc4 09bd 493e 47bd ed34 08bd 5b0a a4bd
00000240: 8d0e 9cbd d7fa 533d 5885 aeba 2bfb 4a3d
00000250: d65a d6bc a30d 013d 168d ddbc dd34 9b3d
00000260: 29ef 1dbd e227 053d be33 9a3c 7ac9 df3b
00000270: cd6d 47bd 6b88 143d 45e1 f2bc 1528 d33c
00000280: de14 f8bb 8574 2a3d d399 1fbd 96c3 44bc
00000290: 44ed 63bd 01b5 79bd b01b 1b3d 57c5 3dbd
000002a0: 9477 78bd d6ae 88bd a4f5 5e3d 1d51 6e3d
000002b0: 2227 bebc 2f1d 193d 642e d0bc a0e4 453d
000002c0: 67c9 68bd 3ffa 12bd 36af a8bc ab76 533c
000002d0: 5457 d03b 6879 943c 5fcb 143d cd8f 79bd
000002e0: a9dd 63bd 3e30 133d f870 193d e7ab c9bc
000002f0: c1e1 683c f216 0fbc a159 843d 09c7 60bc
00000300: 6e60 893c d050 2abd fedc 98bd 44c9 0a3c
00000310: 3cfd 893c 28ed b0bc 83a0 cebc 08a8 1f3d
00000320: aceb 91bd 9044 8ebd 3659 313d f28b c5bc
00000330: 3159 5d3d e271 a1bd d841 bebb 88ba 12bd
00000340: a338 02bd 0269 5abc 86e4 64bd 3041 963d
00000350: 46cc 9d3d fa03 fcbb 15e9 253a 16c7 e03c
00000360: 4f78 9a3d 2908 c1bc c3a4 58bd 2624 9bbd
00000370: b042 45bd c282 873c 16a8 ba3c 2024 523d
00000380: e880 fa3b 9ab7 b4bd e61a 983c d2dc 153d
00000390: aa6d 4bbd 78bb 5f3d 59b3 9cbc 0ee9 8bbd
000003a0: bfa8 81bd 46db 953d 39f8 c3bb 117b 753b
000003b0: c6b3 94bd 0bdd 9a3c 1c6a 2dbd 2abe 883d
000003c0: 0cca f83c fa21 4c3b 9dfa 1abd 1616 acbd
000003d0: 883c 863d db4f 89bd dde1 c4bc 9e40 5e3d
000003e0: bd77 933d 3e0a b1bd 5a6d 6ebd e9f1 e53b
000003f0: 6c40 3a3d cb4a 07bc cd58 a1bd 7ec9 bbbb
0.022666644 0.0662508 0.031575914 0.03184184 -0.013507492 -0.0019444935 -0.071908906 -0.060347725
-0.044614904 -0.029544437 -0.07281535 -0.088749014 -0.04309897 0.000743164 -0.047303878 0.025326345
0.031755086 0.057974007 -0.02542553 -0.060624167 -0.03666974 0.056103345 -0.056129042 -0.05355759
-0.016195819 0.025717366 -0.06630196 -0.07253677 -0.006526223 0.0011940488 -0.034938302 -0.06904398
0.036392625 0.020254815 -0.08658741 -0.009870052 0.0034125117 0.028599871 0.025359342 -0.0047386955
0.06533954 0.06278052 0.0750786 0.024052897 -0.07028866 0.059054628 -0.052567154 0.016473064
0.06623395 0.019144913 -0.02074811 -0.07087932 -0.06862126 -0.074214056 -0.0364087 -0.017427681
0.02633567 -0.06503523 0.06993742 0.07330034 0.04303683 -0.03237797 0.041004878 0.0019902487
-0.07814319 0.043230228 -0.0780152 -0.056176774 -0.012833891 -0.044544216 -0.055386927 0.07577431
0.009221453 -0.02889524 -0.08072797 -0.012371277 -0.0887338 -0.062104445 0.052549712 0.040256493
0.024418611 -0.07861545 -0.03715788 0.07650562 0.015868174 -0.07648454 0.04094194 -0.08036451
-0.0051299566 -0.06845727 -0.080527805 0.07829991 -0.026912158 -0.05789641 -0.04166613 0.001650809
0.04890261 -0.052707937 -0.038293906 0.055687048 0.0140949115 0.036888316 -0.08854263 -0.039992362
-0.08248889 -0.04581071 -0.012842162 -0.01696426 0.06348411 -0.035791066 0.052354805 0.03888352
0.073478915 -0.026378894 -0.0063423784 0.053475447 -0.06325159 0.002340328 0.023005549 0.06075494
-0.0641313 -0.008751008 0.048013933 -0.040422384 0.028810227 -0.08174194 -0.08802887 -0.08550352
0.049449407 -0.02739262 -0.0043746256 0.039778825 0.039376978 -0.049333297 0.03384055 -0.020795915
-0.026333157 -0.025496868 0.032234177 0.003146655 -0.03363512 -0.048643384 -0.0332536 -0.08009788
-0.07619963 0.05175289 -0.0013314886 0.04955594 -0.02616636 0.031507146 -0.027044814 0.07578442
-0.03855816 0.03250874 0.0188235 0.006829438 -0.0486887 0.03626291 -0.029648433 0.025775949
-0.007570847 0.041615028 -0.038965058 -0.012009522 -0.055646196 -0.060963634 0.0378682 -0.046330776
-0.060660914 -0.06673972 0.05443348 0.058182824 -0.02321202 0.037381347 -0.025412746 0.048313737
-0.056832697 -0.035883185 -0.02059136 0.012906711 0.0063580666 0.018124297 0.036326762 -0.060928155
-0.055631313 0.03593468 0.03746125 -0.024618102 0.01421398 -0.008733498 0.06462408 -0.013719329
0.016769614 -0.041580975 -0.07464026 0.008470837 0.016844384 -0.02159746 -0.025223022 0.038978606
-0.07125029 -0.06946671 0.04329797 -0.024114583 0.054040138 -0.078830495 -0.005806189 -0.03582242
-0.031792294 -0.0133307 -0.055882 0.07336652 0.07704978 -0.0076909037 0.00063289824 0.027438682
0.07542478 -0.023563461 -0.052891504 -0.07575254 -0.0481593 0.016541842 0.022785228 0.051303983
0.0076447614 -0.08824082 0.018567514 0.036587544 -0.04966513 0.054622144 -0.019128488 -0.06831561
-0.06331014 0.07317214 -0.005980518 0.0037457386 -0.072608516 0.01890423 -0.042337522 0.06676896
0.030369781 0.0031148181 -0.03783666 -0.0840265 0.06554514 -0.06704684 -0.024033481 0.054260843
0.07200573 -0.08644532 -0.058209755 0.0070173633 0.045471594 -0.008257578 -0.078782655 -0.005730807

conv2.0.bias f4 [32]
00000000: 1822 2dbd e7a1 e73c f408 653d 69b4 6d3d
00000010: 944e 983d 5041 183c 02c5 adbd c226 333d
00000020: aac7 0e3d 3429 da3c 62d5 0a3d 13e5 3f3d
00000030: 4f4b 9bbd ae82 f73c 2f64 493d ef7f 98bd
00000040: c4a7 98b8 de94 223c abfb d2bc f1a8 7a3c
00000050: 9d4e 8bbd c590 583d e3ea 513a ea6b 32bd
00000060: eeb4 81bb 9279 e5bc 5a84 0a3c f0f0 063c
00000070: 0630 663d 2e3e 52bd 3b34 efbc 82a9 7fbd
-0.042268842 0.028275443 0.05591674 0.05803338 0.074368626 0.009292915 -0.08484842 0.043738134
0.034858383 0.026630975 0.033894904 0.04684932 -0.07582723 0.03021368 0.04916781 -0.074462764
-7.2791736e-05 0.009923188 -0.02575477 0.015299068 -0.06802104 0.052872438 0.0008007718 -0.043559946
-0.003958336 -0.02801207 0.008454407 0.008236155 0.056198142 -0.05132883 -0.02919971 -0.062417515

conv3.0.weight f4 [64, 32, 3, 3]
00000000: 219a 3ebd bd08 b63b 0071 313d c7eb cebc
00000010: dbff 393d 9678 c1bc 0229 123d 44e4 dabc
00000020: 0e5c 983c 9eb5 c9bc 6d8d 11bc bfd8 45bb
00000030: 73f5 49bc cc6d e93b dd47 103d 79fb e13c
00000040: 7d01 bdbc 8294 a4bc ddf2 3a3c 27ad 623d
00000050: ad0e ac3c 4dd7 3bbd b850 bb3c c908 dd3c
00000060: 42b5 3cbd 04df 1c3c c6ec 67bd c403 0fba
00000070: fc9e 48bd 0cc4 243d 84d8 463d 7fef 96bb
00000080: d181 77bd 3125 6bbd 55ba 343d 1f3c 52bc
00000090: f2eb 753d 0e7c 0dbd 91c7 063c feb7 e33c
000000a0: 6347 82bd c70f 37bc 1e34 a7bc d6ba 54bd
000000b0: 2fc8 533d e6e0 0bbb 1d9f 403d b8b0 d83b
000000c0: db7f 9b3c 721c 33bc b5ea 38bd d4e8 e4bc
000000d0: aabb e7bc 4dfd f13c 71f6 aabc e9c7 6fbc
000000e0: fd77 883c 215e 80bc aab7 62bd 750d 00bb
000000f0: 1329 3f3c 3b73 4b3c 9acc 53bd 69ee 183c
00000100: c416 b8bc f618 0abd 8897 ae3c c2b0 77bd
00000110: bdba 003d fa09 4ebd 9d4e c2bc e5c0 4d3d
00000120: 8d78 903c a3c2 2abd 6c7c 30bd ed22 33bd
00000130: 496b 413d 4ea4 1cbc f533 04bc 7b47 8bbc
00000140: 3f55 343c 19f2 7abc a695 57bd 14b4 993c
00000150: 2271 20bd 5be4 573d 1d3a 09bd bccb ee3c
00000160: 05ae 51bd 1847 e63b 6186 1d3c e26e 133b
00000170: e3db 47bb 5e83 2a3d d4bb 35bd 0ab5 52bd
00000180: 3726 923c 7c7b 3a3c ca5d 0abd a36e 19bd
00000190: 1bef 41bd f28d 8e3c f805 2dbc 5673 02bd
000001a0: 11d8 393d d8ed 633d 000c 47bd f66c 3bbd
000001b0: 1127 babc ddd0 84bd f0e7 af3c f9f2 90bc
000001c0: fdc3 5cbd d027 1abd 4001 bd3c 879e d93b
000001d0: 01bb e0bc 2338 d0bc e315 463d 8570 57bd
000001e0: 0742 9839 7c2a 76bd 5eac 65bd d397 62bd
000001f0: 438e 74bc 6c4e 45bd 2ea2 b53c 8854 6bbd
00000200: 9e05 c83c eacf 30bd 17aa cf3c 40b1 c3bc
00000210: c33d 673c 1f77 043d d995 8abc 9525 423d
00000220: b687 4a3c 63aa 403c 76f5 90bc 5c23 0f3d
00000230: c7b7 74bd c704 953b 9e52 f3bb a916 52bb
00000240: af1e 4f3d 1050 f43c ea71 b9bc b4e1 ddbc
00000250: 0f96 353c 9211 1dbd 802e 223d a409 3bbd
00000260: 9dea 213d 5f21 50bd f6eb 01bb a3c6 f7bb
00000270: 6a73 083d 176b 143d c331 4a3d 439a 613c
00000280: d276 2bbc c19c 71bc 5ecd f03c 0909 b2bc
00000290: 7f59 2e3d 554b a7bc a9e3 8fbc b0cc adba
000002a0: 64b5 94bc 3ca7 113d 4fff f23c e9e5 a93c
000002b0: 39a2 2ebd b401 7abc 264f bfbb 4a82 5bbd
000002c0: ae5a a83c 4fe3 8fbc 9813 04bd 60d0 cdba
000002d0: 7506 a53c 3f45 093d 59b4 0dbd 66e1 21bb
000002e0: 16af d53c 6b3d 48bb f746 b0bb 8ddf 75bd
000002f0: 2c09 07bd ea8c 353d 5b1c 35bd 3e5e 423d
00000300: 909e afbb c123 3f3c 0480 06bd 9005 fa3c
00000310: 6f2f 1ebd f0d0 1dbd 2690 983c 5673 7fba
00000320: d1c7 563d 63f6 e4bb 3707 6fbd e0c0 423d
00000330: b711 7dbd c599 0cbc 398e 073d 9336 3a3d
00000340: 4c27 1e3d 602c 81bd 2eab ec3c e2d2 3bbd
00000350: 8be3 2a39 27a7 68bd 6b39 23bd b7b5 81bd
00000360: 6389 1f3d 46f0 803b 5f23 32bc 4830 cbbc
00000370: 73a0 81bd 3c33 263d fdf4 1e3c af42 993a
00000380: f0dd 253d 43eb 5f3c 78b2 f33c 7175 263d
00000390: e8b3 6b3d a8f6 b5bb 97d4 2ebc c1ab 3fbb
000003a0: cc87 6ebd feb0 12bb 3a32 2e3c 1f7b 00bd
000003b0: 065e 5b3d 34f6 1a3d 5e90 1b3b 9229 923c
000003c0: c905 503d da83 11bd 4fe3 43bd 9bd8 3cbc
000003d0: 0af3 24bc ccde 4ebd 5e2a 3fbd 2b0a 283c
000003e0: 651a 8ebc 1629 c0bc 31da a13c f852 71bd
000003f0: 14a2 513d 58ed 583c 77c9 0f3c 74dd d53c
-0.046533708 0.005555241 0.043320656 -0.025258912 0.04541002 -0.02361707 0.03568364 -0.026720174
0.018598583 -0.024622735 -0.008883816 -0.0030189005 -0.012326586 0.0071236845 0.035224784 0.027585732
-0.023071999 -0.020090345 0.011410442 0.055340912 0.021003092 -0.045859624 0.022865638 0.026981728
-0.0460713 0.009574655 -0.05662229 -0.0005455578 -0.048979744 0.040226027 0.04854633 -0.004606187
-0.060426537 -0.057408515 0.044123013 -0.012831717 0.060039468 -0.034542136 0.008226291 0.027797695
-0.06361272 -0.011173195 -0.020410594 -0.051935993 0.05170458 -0.0021343767 0.047026742 0.0066128634
0.018981865 -0.010932075 -0.04514571 -0.027943052 -0.028287727 0.029539729 -0.020869466 -0.014635065
0.016658777 -0.015669884 -0.055350937 -0.001953927 0.011667508 0.01241761 -0.051708795 0.009334185
-0.022471793 -0.03371521 0.02131249 -0.060471304 0.031428088 -0.050302483 -0.023719126 0.050232787
0.017635608 -0.041689526 -0.043087408 -0.04373448 0.047221456 -0.009560658 -0.008069028 -0.017001858
0.011006652 -0.01531651 -0.05263295 0.018762626 -0.03917039 0.05270801 -0.033502687 0.029149882
-0.05119135 0.007027518 0.009614558 0.0022496511 -0.0030496053 0.041629188 -0.04436858 -0.051442184
0.017840488 0.01138198 -0.03378085 -0.037459027 -0.04734717 0.01740167 -0.010560505 -0.031848274
0.045372073 0.055646747 -0.04859543 -0.04575821 -0.022723706 -0.0648515 0.021472901 -0.017693983
-0.053897846 -0.037635624 0.023071885 0.0066412124 -0.02743292 -0.025417393 0.048360717 -0.05259754
0.00029040893 -0.06009911 -0.056072585 -0.055320572 -0.014926496 -0.048170492 0.02217206 -0.057453662
0.024416741 -0.043167032 0.02534966 -0.02388823 0.014113846 0.032340165 -0.016917156 0.047399122
0.012361458 0.011759373 -0.01769517 0.03494583 -0.059745576 0.0045476886 -0.00742562 -0.0032056964
0.05056637 0.029823333 -0.022637326 -0.027085163 0.01108314 -0.038346834 0.039595127 -0.04566349
0.039530385 -0.050813075 -0.0019824482 -0.007561521 0.033313192 0.03623494 0.049363863 0.013769689
-0.010465341 -0.014746846 0.029394802 -0.021732824 0.04256582 -0.020421663 -0.017564612 -0.0013259854
-0.0181529 0.035559878 0.029662756 0.020739513 -0.042635176 -0.015259195 -0.0058382927 -0.05359105
0.020551052 -0.017564444 -0.03224525 -0.0015702359 0.02014468 0.033513304 -0.03459582 -0.0024700998
0.026084464 -0.0030554186 -0.0053795534 -0.060027648 -0.03296773 0.04432384 -0.044216495 0.047453158
-0.0053594783 0.011666239 -0.03283693 0.03052023 -0.038619455 -0.038529336 0.018623423 -0.00097446644
0.052436654 -0.0069873794 -0.05835649 0.04754722 -0.061784472 -0.008581583 0.03309462 0.045462202
0.038611695 -0.06307292 0.028890219 -0.04585541 0.0001629723 -0.056800034 -0.03984968 -0.063334875
0.03894938 0.003934893 -0.010872691 -0.024803296 -0.063294314 0.040576205 0.009701964 0.0011692847
0.04049486 0.013666931 0.029748186 0.040639345 0.05754462 -0.0055530854 -0.010670803 -0.002924666
-0.058234975 -0.0022383328 0.010632092 -0.031367417 0.053556465 0.037832454 0.0023737173 0.017842088
0.050786767 -0.035526134 -0.0478242 -0.011526252 -0.010067711 -0.050505444 -0.046671264 0.0102563305
-0.01734657 -0.023457091 0.019757362 -0.058917016 0.05117996 0.013240181 0.00877606 0.026106574

conv3.0.bias f4 [64]
00000000: 2699 2fbd d416 b2bc 64aa a03c bc95 3abc
00000010: 6b02 4dbd 2583 0fbd ac47 0b3d 7e72 a43c
00000020: 11fc 50bd a81f c63c b58f c5bc 3c0e 5c3c
00000030: 4391 d3bc 286a a2bc 61dd bc3c 8912 993c
00000040: 0e29 19bd 4114 133c 5f89 2fbd 77ad f6bc
00000050: 992f c93b 0e0e 3a3d bba3 533d 8734 043d
00000060: 66f3 bbbc bbae 3dbd e996 503c 53b4 773d
00000070: accb b73b 6c42 75bd 1587 89bc 7871 edbc
00000080: 99ef d2bc c160 b6bc b1a3 433d 38f4 0cbd
00000090: 61c8 f3bc d7e6 52bd 9677 5bbd eeb7 b6bc
000000a0: e2df 0fbb 4ea8 84bb 9be2 fbbb 81a6 55bd
000000b0: e3e3 003a 58de 393d c76a 27bd bea2 073d
000000c0: 36f0 42bd 724a 8dbc 72bf 43bd f9c8 35bd
000000d0: 6739 38bb d086 593c 22fa ac3c e7a8 60bd
000000e0: 7dda afbb 811e 23bd 3450 5ebd 038f f9bc
000000f0: 690b 163d 2234 24bd 4231 28bc 6ed1 153d
-0.042870663 -0.0217394 0.019612499 -0.0113882385 -0.050051134 -0.03503718 0.0340039 0.020074125
-0.05102164 0.024185017 -0.024116376 0.013431128 -0.025826102 -0.01982601 0.02305478 0.018685596
-0.03739267 0.008976997 -0.042855617 -0.030112011 0.0061397073 0.04542356 0.051669817 0.032276656
-0.02294321 -0.046309214 0.012731292 0.060474705 0.0056089964 -0.059877798 -0.016788045 -0.02898477
-0.025749015 -0.022262933 0.04776353 -0.034412593 -0.029758634 -0.051489677 -0.053580843 -0.022304501
-0.0021953513 -0.004048384 -0.0076869256 -0.052160744 0.000491677 0.04537806 -0.040873315 0.033114187
-0.047592364 -0.017247412 -0.04779 -0.044381116 -0.0028110386 0.013276771 0.021115366 -0.054848578
-0.005366622 -0.039824013 -0.054275706 -0.030463701 0.036631975 -0.04008878 -0.01026565 0.03657668

conv4.0.weight f4 [128, 64, 3, 3]
00000000: a4f1 c5bc 66d0 e8bb 4d76 9fbc a607 17bd
00000010: 1544 8c3b 96ea 7f3c 12a2 893c 66c8 b83c
00000020: 6aca 9ebc 604e cd3c 41bf 1bbc 849d adbc
00000030: da80 c9bc 0599 253d 1b9b 28bc 82ee 4a3c
00000040: f9ac fb3c a275 bdbb 5739 0e3d db51 7f3c
00000050: 911a 193d 9cfd 3bbc 0b00 e23b 92fc 87bb
00000060: ca57 67bc 0f30 cfbc ee4b d83b a8d2 f9bc
00000070: 691e 1a3d 474b bf3c d3fd 22bb ab78 d0bc
00000080: 72fe 00bd 00bd 0dbd d002 a9bb ed93 1a3c
00000090: a880 c3bc 3666 03bd 79f8 903b 6db2 0fbd
000000a0: 7ba0 fd3b 6b5e 4bbc 43d3 1d3c 8b91 553c
000000b0: d2db 3abd dd8c 8a3c cdef 783c c48e 8a3c
000000c0: 7edc 0ebd b002 bf3c f39a 3fbd fbce 9b3c
000000d0: cce0 d83c ba9d acbc 21b9 14bb 3924 983c
000000e0: b648 99bc 716a 90b9 c85a f93b 2a10 0ebd
000000f0: a09a 0bbd 1543 3e3d deee 233d a85f 42bd
00000100: 4631 27bc 5af8 0dbc a6ca 0cbb c5c7 bc3c
00000110: 5932 b13c b798 fa3c 101f 6b3c fd58 fd3b
00000120: 9d2f cfbb aff9 be3c acc7 c6bc 1a6f 29bd
00000130: ba45 49bc 9c5a cf3b 11c3 cdbc e138 08bd
00000140: c6d1 13bd 1c6a bf3c c218 893a 67eb 94bc
00000150: 9451 08bd 6e6b c83c 475d 153d d482 4abb
00000160: 0842 133c 141b a13c 7106 363c ee68 ab3c
00000170: b043 a53b eda6 dcbc 7f40 7fbc d0d5 faba
00000180: 01ee 143d 1e06 5cbb a125 f3bc 0c5b 603c
00000190: e803 5e3c b72b 0a3d a8c9 0b3d 8084 d83c
000001a0: 5e50 873b b89e e43c a48a e83c 24fb cabc
000001b0: b3d0 1cbd 35f1 943c d8b7 483c 0095 febc
000001c0: f89c 86bc 7a37 e0bc 7b69 febc 7e52 2ebd
000001d0: d3f4 013b 3b6f 1fbc 9f7e bc3c 768d eb3c
000001e0: 3174 25bd 0ff0 0cbd c53d 05bd a41d 65bc
000001f0: a216 c7bb ddb8 09bc d54f eb3c a132 09bc
00000200: af63 333d 2620 d03c ece6 023d 2564 1b3d
00000210: 86af 1b3d 9fec 6c3c b548 973b db24 2bbd
00000220: ed65 5eb9 d573 8abc 4891 a63c 77d7 dcbc
00000230: 98cb 513c 91b8 b8bc 2183 0cbc fb6a bd3c
00000240: a2ff b33c 2400 923c 1aa7 213d 2ecc 763b
00000250: 3bd8 59bb 308a 113c d4fd 1f3c a6a2 84bc
00000260: 8514 713b afd8 82bb 2d6e 173d 7738 673b
00000270: 79bb a83c 9c49 30bd 47eb 05bd 437b 523c
00000280: 55e7 043d 91ff 9f3c 8b56 aebc 343b 763b
00000290: 8283 0fbd 28a3 773c 2e40 cc3c a801 303d
000002a0: bbfc 1c3d 5f8a cfbb cf73 2fbc 065d 0cbd
000002b0: 8b27 dcbc 2f80 3e3c 0fe0 333d 3c25 823c
000002c0: 80dd 9fbc 4375 143d a281 d53c cd0e 11bd
000002d0: 4e1e dd3c 20bc 04bb 641d 24bd 082e 32bc
000002e0: 84c1 cc3c 7908 223d 01d4 073d 549e d93c
000002f0: e414 d0bc 6be9 1dbc 9540 b03c e775 003d
00000300: f18b 31bc 0395 373d 07b3 ed3b 455b fbbc
00000310: 88c4 7c3c e28e a83c 1c28 723c a5ac ae3c
00000320: c5c7 e0bc 7b38 3d3c d6cb 963c 0122 dbbb
00000330: 820a 2d3d a7ea 043c bc79 5c3b e55e abbc
00000340: f394 36bc 3695 893c ebc6 1b3c e909 d5bc
00000350: 352e 193d 846b c5bc f1ab b9bc cba9 60bc
00000360: 7dc0 86bc a229 e83c 4c03 bc3c 8597 0fbd
00000370: 0b42 203d 8b35 073d df59 4dbc 87ce a73b
00000380: 17b8 9a3c 1225 f8bc 1032 20bb 0635 de3c
00000390: aae4 abba 8ee9 a3bc 7932 d23b 3de8 0b3d
000003a0: c8a4 253d d545 de3c 12bf 32bd 15bd 653c
000003b0: f07f 42bc 49d3 3ebd c365 623c ee45 ca3c
000003c0: 08b8 613c 6464 bf3b 75df 213d 5058 2abd
000003d0: e18a fe3c 0376 323d 8781 96bc 7262 253d
000003e0: 4398 043d c425 313c 5523 b53c 886d ce3c
000003f0: 5b13 023d 8d26 be3c ac9c c13c 716a 29bd
-0.024163075 -0.007104921 -0.01946559 -0.03687253 0.004280577 0.0156198945 0.016800914 0.022556495
-0.019383628 0.025061786 -0.009506048 -0.021193273 -0.024597574 0.040429134 -0.010290886 0.012385966
0.030722128 -0.005781845 0.034722652 0.015583481 0.03737885 -0.011474039 0.006896978 -0.004149982
-0.014120052 -0.02529147 0.0066008484 -0.030495957 0.037626658 0.023351325 -0.002487053 -0.025448164
-0.031492658 -0.034604073 -0.005157806 0.009434682 -0.023865059 -0.032079898 0.0044241515 -0.03508227
0.007740078 -0.012412648 0.009632888 0.013035188 -0.045619793 0.016912872 0.015193892 0.01691378
-0.034878246 0.023316711 -0.04677863 0.019019594 0.026474379 -0.021071304 -0.0022693353 0.01857196
-0.01871143 -0.00027545125 0.007609699 -0.034683384 -0.03408301 0.046450693 0.040022723 -0.047454506
-0.010204619 -0.008665169 -0.0021483093 0.023044476 0.021630453 0.030590398 0.014350668 0.0077315555
-0.0063228146 0.023312418 -0.024265133 -0.04136572 -0.0122846905 0.00632794 -0.025117429 -0.03325737
-0.036088727 0.023366027 0.0010459649 -0.018178655 -0.033280924 0.024465289 0.03646591 -0.0030900734
0.008987911 0.019666232 0.011109934 0.020924058 0.0050434694 -0.026935065 -0.015579342 -0.0019137207
0.03635979 -0.0033572982 -0.029681029 0.013693582 0.013550736 0.033733096 0.03412786 0.026430368
0.0041294536 0.027907714 0.028386422 -0.024777956 -0.03828497 0.018181423 0.012250863 -0.031076908
-0.01643227 -0.027370203 -0.031056156 -0.04255914 0.0019829764 -0.009731109 0.023009596 0.028753977
-0.040394012 -0.034408625 -0.03252961 -0.013984118 -0.006075696 -0.008405891 0.02872459 -0.008373887
0.043796238 0.025405955 0.031958506 0.037937302 0.03800919 0.014460712 0.0046168217 -0.041783195
-0.0002120954 -0.016900936 0.020332947 -0.02695821 0.012804888 -0.022548946 -0.008576185 0.023122301
0.021972481 0.017822333 0.039466 0.0037658322 -0.0033240456 0.008883044 0.009765107 -0.016190838
0.0036785912 -0.003993116 0.036970306 0.0035281458 0.020597206 -0.04303895 -0.03269508 0.012846771
0.032447178 0.019531043 -0.021281501 0.003757191 -0.035037525 0.015114583 0.024932947 0.04297033
0.03832696 -0.006333634 -0.010708763 -0.0342684 -0.026874324 0.011627241 0.04391485 0.015886895
-0.0195148 0.036244642 0.02606279 -0.035414506 0.02699199 -0.0020253733 -0.04006709 -0.0108752325
0.02499462 0.03955886 0.033161167 0.026564755 -0.025400586 -0.009638171 0.02151517 0.03136244
-0.010836587 0.044819843 0.0072540077 -0.03068317 0.015427716 0.020575944 0.014780071 0.021322558
-0.027439008 0.0115491105 0.018407743 -0.006687403 0.04224635 0.008112586 0.0033641895 -0.020919273
-0.011143911 0.016794782 0.009507875 -0.026005702 0.037397582 -0.024099119 -0.022664996 -0.013712357
-0.016449207 0.028340165 0.02295079 -0.03505661 0.039125483 0.033010047 -0.012533634 0.0051210555
0.018886609 -0.030291114 -0.0024443902 0.027124893 -0.0013114412 -0.020008828 0.006414708 0.034157027
0.04044035 0.027132908 -0.04363925 0.014022131 -0.011871323 -0.046588216 0.013818207 0.024691548
0.013776787 0.005840825 0.039519746 -0.041588128 0.031072082 0.043569576 -0.01837231 0.040377088
0.03237177 0.010812227 0.022111574 0.025198713 0.03175674 0.023211742 0.023634277 -0.041361276

conv4.0.bias f4 [128]
00000000: bc46 40bc 108b e5bc 9822 2fbd 8205 a5bc
00000010: c174 443c 7536 e53c 362e 84bc 8cac 983c
00000020: 2e6e 1f3d b0cd 3cbb eb2b 3abd 66f9 94bb
00000030: e37c 0f3d 7274 ad3b d581 d7bb dcd2 0cbd
00000040: ac1b 903c a80c 043d 6d9a 7a3c fe7a 28bc
00000050: c5f2 e93c 0e9d 73bc 9538 8abc 069d 843c
00000060: e5c3 54bc 5225 b13c a1fb 023d 3ae5 b63c
00000070: 51d5 25bd a378 7c3b 44ff 7d3c 5e5a 9dbc
00000080: a3a2 06bb c885 433a 3c56 863c 8b28 be3c
00000090: 325b e5bc d9b4 c53c 8156 603c 995a f6bc
000000a0: ddd2 9bbc 328b da3c e5a3 af3c 3168 083d
000000b0: e1e0 193c 9dca 1d3c a537 c03b 1ba5 01bc
000000c0: 62d9 e8bc cffd b13b e504 cabb 3ebf 183d
000000d0: f4b2 afbb 6624 05bd 7003 013d 25ca b33c
000000e0: b42f 72bb 047d 4f3c 1751 113d 8723 e33b
000000f0: aa23 493c ef26 f33c 2124 c8bc 8e93 813c
00000100: 8f28 5b3a 3602 56bb c1fb 0cbc 3890 be3c
00000110: ddbc a43c 7d6e 503c 2b15 dc3c db17 61bb
00000120: 5108 8bbc a80e a53c 8bf4 083c 5910 0a3d
00000130: 25f0 e8bc 9f4e f4bc 2d9d f73c 43ce b4bc
00000140: 1f40 313d 793d c2bc a20f 40bc a403 a4bc
00000150: 455f 53bc 3591 ca3b 6ed8 c3bc aade 4abc
00000160: d52f c8bc da19 0cbd 9cc8 3bbc f090 913a
00000170: c6d2 aa3c b890 903c 2dbc aabc 81be c5bc
00000180: 05a2 9a3c 5255 02bd ca90 bdbc 6635 423c
00000190: 45a0 d1bc 5486 cabc 5ce6 38bc 71f8 c6bc
000001a0: 26c9 413d bb0a 513b a973 893c 296c f73c
000001b0: f7f9 193d bfc0 6b3c c044 0d3d 2f29 813b
000001c0: 6653 9dbc 7176 9f3c 1cbb 33bd 672b 02bd
000001d0: 9a78 f83c 22a8 093d 86fc c13c 11bc a6bb
000001e0: f096 853c 8040 e63c 98db cdbc a696 0cbd
000001f0: 1fcc 303b dff2 013c 51ba 0e3d 6dca b4bc
-0.011735614 -0.028020412 -0.0427576 -0.020144228 0.011990727 0.027980069 -0.016135316 0.018636964
0.038923435 -0.0028809123 -0.04545204 -0.004546332 0.03503121 0.0052934224 -0.0065767565 -0.03438078
0.01759132 0.032238632 0.015295607 -0.01028323 0.028558144 -0.014868988 -0.016872684 0.016188156
-0.012986158 0.021624241 0.031978253 0.0223261 -0.040486638 0.0038524054 0.015502755 -0.01920813
-0.0020543716 0.00074585946 0.016398542 0.023212692 -0.027997587 0.024134086 0.013692499 -0.030072497
-0.019021446 0.026677702 0.021440456 0.03330249 0.009391994 0.009630826 0.0058660083 -0.007912899
-0.028423969 0.0054318677 -0.0061651343 0.037291758 -0.005361909 -0.032505415 0.03149742 0.021946976
-0.0036954703 0.012664083 0.035477724 0.0069317254 0.012276569 0.02968165 -0.02443129 0.01581743
0.0008360231 -0.0032655126 -0.008604945 0.023262128 0.020109588 0.012721655 0.026865562 -0.0034346494
-0.016971739 0.02014859 0.008359085 0.033706997 -0.028434822 -0.029822646 0.030226314 -0.02207101
0.04327404 -0.023710953 -0.011722477 -0.020021267 -0.012901132 0.006181861 -0.023906913 -0.012382189
-0.02443687 -0.03420434 -0.011461403 0.0011105817 0.020852458 0.017647132 -0.020841682 -0.02413869
0.018876085 -0.03181965 -0.02314033 0.0118535515 -0.025589118 -0.024722256 -0.011285391 -0.024288388
0.04731097 0.0031897265 0.016778784 0.030202942 0.0375919 0.014389216 0.034489393 0.003941677
-0.019204807 0.019465657 -0.043879613 -0.031779673 0.030330945 0.03360761 0.023679983 -0.005088337
0.016307324 0.028106928 -0.025129125 -0.034323357 0.0026977134 0.00793144 0.034845654 -0.02206918

linear.weight f4 [3, 21888]
00000000: 338d 4b3c d607 593b 140f 943b def1 aebb
00000010: 929a 92ba e4fe 49bc 8e6f fb3b 1957 963b
00000020: 10bb 313c 0881 c63b 6e1b 2dbc 7ed2 373b
00000030: e96c 343c f961 6d3a ac9f 9a3b b88c 1e3c
00000040: 75de 3c3c 40a6 ea3b 8e7d 033c c342 3c3b
00000050: b5de e23b b325 acb8 b920 e1ba 8151 093a
00000060: 150f bcba 82f2 1f3b 2d0c 21ba 7569 873a
00000070: b0d8 c6bb 78c0 f2b8 c7b3 333c 9155 9b3b
00000080: 4ab1 d1bb 3d87 833b 805b b13b 3350 b73a
00000090: 46bd 983b 4b0b 103c 9eb6 053c 0460 7cba
000000a0: 12ef 24bb e9b9 32bc dbb2 19bc 2590 a8bb
000000b0: 1d6a 3a3b 0efc d83a 1502 df39 ec7a c5bb
000000c0: 7d0a 45bc fb6f aa3b f71b e23b dc20 303c
000000d0: ddaf 3e3c f415 163c 276a 573a 437f 4f3b
000000e0: 0bcb 753b e8e6 9d3b 9ce4 4d3c 7550 d53a
000000f0: 6bd0 413c 2628 1fba a3de f3bb 365f 2f3c
00000100: 533b 453c 2ffd 003c c313 203c 6983 b539
00000110: 6397 1f3b 57d9 f13a 7935 f83b 2edd 153c
00000120: 840e 353c 4e59 153b d59f 193c 71f8 b8b9
00000130: 372e 863a 54d9 833a 4782 faba f0aa cd3b
00000140: 95ce 863b f162 bb3a d0b6 483c 8114 d73a
00000150: de44 143b 40ce 3b3c 6a99 4f3a c0a3 e73b
00000160: 9e9a 0f3b 19ba 233c 8d4d 583b 735c 27bb
00000170: c8ed 583c ee34 ea3b 519a 7e3b a458 ca3b
00000180: c981 4a3b 560d 44bc 0731 313b edbc 17ba
00000190: 606b 463c 3499 643b 963d 2b3c df95 8d3b
000001a0: 9724 7c3b 9dc8 95b9 2cd9 4a39 3e86 1e3b
000001b0: f30e c539 d60f 4f3b c6d6 92bb 0ab0 013a
000001c0: ddd6 2c3c 8bdb 1f3c e186 a8b7 e60b 0e3b
000001d0: 469c 313c 1650 363c 900b b33b b454 403c
000001e0: 1e95 2f3c 90c1 983a eff0 a83a 26fd 773b
000001f0: 9a8b d33b b1aa 823b f647 b23b f7a0 393c
00000200: a519 113b 9a48 4cbc 6e0d c0bb 30d3 223c
00000210: d849 1a3b 1492 373c d901 a53b 40fd 773b
00000220: cc3f 833b 6e9d a536 7b1f 3a3c 4992 e13b
00000230: 35e6 d338 cd3d 503c 9f4e f73a a332 873b
00000240: 80e8 863b 6cf6 f63b 1321 ad3b c13b 533c
00000250: a846 153c 1702 033b 8b83 083c 2b8c bc3a
00000260: 1f17 e13b 7bbd 393c 9a93 013c bc86 0b3a
00000270: 5141 053b f5c0 973b 1475 503c 23c8 0b3c
00000280: 0363 00ba 8d54 413a 5597 ea39 d748 f13b
00000290: c0bb 803b 8da5 0e3c a83e 4b3c 6e5e 203c
000002a0: 4e8a 433b 2c72 0b3c b317 8a3b 8be4 c43b
000002b0: c96a 493c 60b8 0f3c 5762 3ebc bfd3 3abc
000002c0: 0b0f b3ba c204 4c3c f8f6 e63b 96aa 003c
000002d0: 37e4 043c 02fd 90b9 f043 9f3a 2db0 f13b
000002e0: 1039 c83b d8fa 083b f069 433c 570a 223c
000002f0: 6492 d53b 4228 773b 7010 88ba 9a97 e9b9
00000300: a781 cebb c591 8c3b ea06 07bc 297c 28bc
00000310: cc72 b9bb 4371 3c3c 5487 bebb 8be7 95ba
00000320: f14f 38bb 0c0d b7bb 157b 193c 1166 4a3b
00000330: d92d 523a 3351 173c 90f9 863b 6cb5 4d3c
00000340: a9c8 9fb9 6611 25bc 6e4d 9bbb ef19 c23b
00000350: ad79 4bbc b3a1 fdb9 6d39 1ebc 38ca 43bc
00000360: 6be9 7d3a 3a12 2c3c 7370 45bb 9c93 bf3b
00000370: 843f fdb8 dd18 d13b eaa0 983a 13b4 873b
00000380: a799 3aba deb4 333c 6644 2c3c cfaa 0c3c
00000390: 9253 7339 4f23 0abc 4333 a8bb 340f 963b
000003a0: e862 bdbb 99ee 803b abdc ad3b f18d 3e3c
000003b0: ea96 813b 91ef 413c d5cf 323c 68be 0a3a
000003c0: 08d4 d53b e1fd f03b 4ca0 843b 6c66 073a
000003d0: c3ef 0a3b 649c d93b 3e64 a13b 0871 083a
000003e0: 5b4d 71bb 5f83 25bc a73d 503c be2b 4f3a
000003f0: c517 423c 113a 333c b7c1 093c fd93 9bb8
0.012423801 0.0033116243 0.004518399 -0.0053388914 -0.0011184982 -0.012328837 0.0076732105 0.0045880196
0.010847822 0.006057862 -0.010565622 0.0028049047 0.011012294 0.00090554316 0.0047187414 0.009677105
0.011527647 0.007160932 0.00802554 0.0028726317 0.0069235214 -8.208621e-05 -0.001717589 0.000523828
-0.0014347757 0.002440602 -0.0006143477 0.0010331111 -0.0060683116 -0.00011575309 0.010968155 0.004740425
-0.0063993083 0.0040139244 0.005412519 0.0013985693 0.004661235 0.008791755 0.008161215 -0.00096273446
-0.002516691 -0.010908582 -0.009381021 -0.0051441365 0.0028444596 0.001655461 0.00042535426 -0.0060266163
-0.012026426 0.0052013374 0.0069003063 0.010750022 0.011638609 0.0091605075 0.0008217417 0.0031661547
0.0037505056 0.004818786 0.012566712 0.0016274588 0.011829476 -0.0006071351 -0.007442312 0.010703852
0.01203807 0.007872864 0.009770337 0.00034620918 0.0024351708 0.0018451613 0.007574734 0.009146972
0.011050824 0.0022788825 0.009376486 -0.00035280318 0.0010237162 0.0010059276 -0.0019112312 0.006276481
0.004113982 0.0014296455 0.012250617 0.0016409309 0.0022624056 0.011462748 0.0007919284 0.007069081
0.0021912227 0.0099931 0.0033005208 -0.0025537282 0.013240285 0.007147423 0.0038849304 0.0061751176
0.0030900112 -0.01196607 0.002703728 -0.0005788345 0.012110561 0.0034881355 0.010451695 0.0043208445
0.0038473958 -0.00028568963 0.00019345124 0.0024188901 0.00037585906 0.0031595132 -0.0044811694 0.00049471913
0.010549274 0.009756933 -2.0089969e-05 0.0021674572 0.010840481 0.011127492 0.005464025 0.011738945
0.010716705 0.0011654366 0.0012889187 0.0037840097 0.006455851 0.003987633 0.0054407073 0.011329881
0.002214053 -0.012468481 -0.005860976 0.009938046 0.002354255 0.011204261 0.0050356206 0.0037840158
0.004005408 4.9357104e-06 0.011360045 0.0068838936 0.000101041434 0.012710047 0.0018868035 0.0041259094
0.0041170716 0.0075367 0.005283484 0.012892664 0.009111084 0.001999026 0.008332144 0.0014385035
0.0068692113 0.01133668 0.007908726 0.0005322506 0.002033312 0.0046311566 0.012723226 0.008531603
-0.00048975664 0.0007374965 0.0004474471 0.0073634195 0.0039286315 0.008706463 0.012405075 0.009788139
0.0029837075 0.008511107 0.004214251 0.0060086898 0.012293526 0.008771986 -0.011620126 -0.011403023
-0.0013661099 0.012452306 0.007048484 0.007853171 0.008111051 -0.00027654326 0.0012150984 0.007375738
0.006110318 0.0020901468 0.011927113 0.0098901605 0.0065176953 0.0037713205 -0.0010380875 -0.00044554175
-0.006302077 0.004289838 -0.008241395 -0.010283508 -0.005659437 0.011501613 -0.005814472 -0.0011436803
-0.002812382 -0.005586272 0.009367724 0.003088359 0.0008017696 0.009235668 0.0041191056 0.012555461
-0.00030476347 -0.010074949 -0.004739455 0.0059235017 -0.0124191465 -0.00048376396 -0.009657246 -0.011950068
0.0009685966 0.010502392 -0.003012684 0.005846454 -0.00012075811 0.0063811378 0.0011644636 0.0041413396
-0.0007118233 0.010968415 0.010514354 0.008585646 0.00023205418 -0.00843127 -0.005133064 0.004579449
-0.005779613 0.003934693 0.0053058467 0.011630521 0.003954758 0.011836902 0.010913809 0.0005292655
0.0065255202 0.0073544835 0.004047429 0.00051651034 0.0021200038 0.0066409577 0.00492528 0.0005204831
-0.003681979 -0.010102122 0.012710012 0.00079029414 0.011846487 0.010939137 0.008408002 -7.418541e-05

linear.bias f4 [3]
00000000: 1808 2f3c a0f3 3eba ed77 f03b
0.010683082 -0.0007284228 0.007338515
