models/aisf/void_20230517_115313.pth (torch, 655075 bytes, 10 tensors)

conv1.0.weight f4 [16, 1, 3, 3]
000000 50 96 9b 3d 64 f1 01 be 74 f8 31 be f5 0e 5a 3e
       0.07597029 -0.1268974 -0.17379934 0.21294768
000010 22 2a 3b 3e cb 37 de 3d b2 d9 4f 3e d6 46 a6 be
       0.18277791 0.108504854 0.20297888 -0.3247592
000020 cb 79 4b 3e ce 77 8c be a9 c9 40 be 89 71 5c be
       0.19870679 -0.27435154 -0.18826927 -0.21527685
000030 ee 3c 3e 3e 6c 2a 19 bd 3b 69 c0 bd 89 b4 a7 bc
       0.1857793 -0.037393972 -0.09395071 -0.020471828
000040 95 a3 a5 bd ac 94 8e bc 03 8e a0 3c f0 f1 a6 3e
       -0.080878414 -0.017404877 0.019598966 0.3260646
000050 69 6e 86 3d fa 0b 79 be f3 75 86 be 36 e0 b3 bd
       0.06564028 -0.24320975 -0.26261863 -0.08782999
000060 4d 8e ee 3d ed c3 c3 bd 89 7c 3b be a0 d5 0f be
       0.116482355 -0.09558854 -0.18309225 -0.14046335
000070 37 a0 3f bd 8c 74 8a 3d e9 f6 f9 3d 18 d7 86 be
       -0.046783652 0.06760511 0.122052975 -0.26335979
000080 f4 ac 27 3e 31 9b 68 3e 6f 82 9a 3e 26 94 dc 3d
       0.1637457 0.22715451 0.30177638 0.107704446
000090 42 2a 81 be a0 9d 9c 3e 68 d0 b2 be 7c e2 2b 3d
       -0.25227553 0.30589008 -0.34924626 0.04196404
0000a0 14 46 6d be 65 79 4a be 46 cb 1f 3e 7e d5 a2 3d
       -0.23171264 -0.19772871 0.15604886 0.07950877
0000b0 ad bc 29 3e bc 99 eb 3d 21 da 72 be 30 68 a9 3d
       0.1657588 0.11503932 -0.23716022 0.08271825
0000c0 ca 34 03 bc 62 57 93 bc 5e aa 9f bc db e6 0b bd
       -0.008008191 -0.017986003 -0.019490417 -0.034155708
0000d0 29 98 55 3d b7 d4 b3 be 66 63 c9 3b 2d a3 ab 3e
       0.052147064 -0.35123226 0.0061458824 0.3352293
0000e0 88 b9 03 3c bc 73 9c be 3b 89 bb bd 94 72 0e bd
       0.00803984 -0.30557048 -0.09157034 -0.03477724
0000f0 26 c2 9c 3e 9f 67 55 bd c1 69 23 3b 4b 9b 75 be
       0.30616874 -0.052100774 0.002493486 -0.23985021
000100 2f dc 86 bc c0 ed 93 3e a6 c5 86 bd d4 c6 47 3c
       -0.016462414 0.28892326 -0.06580667 0.0121934
000110 6d 73 21 3c 8a c4 39 3d f7 4d 66 3b 20 cb 18 be
       0.00985418 0.04535345 0.0035141686 -0.14921236
000120 8e 80 58 3e 43 ef a3 3c c6 2a 4e be ae ba d4 3b
       0.2114279 0.02001155 -0.20133504 0.0064919805
000130 23 4e 77 bd 81 d2 36 be 6d 20 8f bd da 6b 2d 3c
       -0.06037725 -0.17853738 -0.069886066 0.010584796
000140 85 ff 80 be d6 c5 1a 3e 57 cc 8b be f3 83 5a be
       -0.25194946 0.15114531 -0.27304336 -0.21339397
000150 fd 6d 27 be e8 58 88 3e 05 88 9b 3e 8d cd 5d 3e
       -0.16350551 0.2663033 0.30377212 0.21660443
000160 7c 7b b0 3d 34 c6 19 be 3d 08 63 3e 6c 11 6f 3e
       0.08617303 -0.15017015 0.22171111 0.2334649
000170 0e 6b 4e 3e 65 54 4c bd ca a9 5a 3e 42 dd 70 3e
       0.20158026 -0.049885172 0.21353832 0.23521903
000180 a8 34 a2 be fa 00 21 be 23 46 c0 bd 26 bc 4f be
       -0.316808 -0.15723029 -0.093883775 -0.20286617
000190 28 80 ae 3e 23 0d 4f be 69 d0 4f 3e 9d 9f 68 3d
       0.3408215 -0.20219855 0.20294346 0.056792844
0001a0 d3 12 ac bb f5 e6 47 3e ac 21 4e 3e 75 c6 9a 3e
       -0.0052512675 0.19521697 0.20130032 0.30229536
0001b0 4a e5 90 3e cd 49 4c 3e e5 0d 7a 3e f5 f1 13 3e
       0.28299934 0.19950028 0.24419363 0.14447768
0001c0 5d 25 03 3e e9 39 58 3d 9f 6d 06 be 2f 8f 19 3d
       0.12807222 0.052789602 -0.13127755 0.037490066
0001d0 f4 00 00 3e b6 18 39 3e 86 76 52 3d 22 6b 8e 3d
       0.12500364 0.18075833 0.051382564 0.06954028
0001e0 92 6c a0 3e 76 80 87 3a 0a 34 74 bc f9 b5 a5 3e
       0.31332833 0.0010337967 -0.014904985 0.32365397
0001f0 3c b3 be 3d 0e 3c 0f 3e 1a 48 a2 be 35 bf 0d be
       0.0931153 0.13987753 -0.31695634 -0.13842471
000200 e2 59 a0 3e db c6 90 be cc 8f 51 3e bf 5f a5 3e
       0.31318575 -0.28276715 0.2046501 0.3229961
000210 24 74 ed 3c f9 ce 37 be d8 18 57 bd bf 3c 97 be
       0.028986044 -0.17950048 -0.052513927 -0.29538533
000220 da 7a a2 3e d2 6f 8a 3e 1c aa 11 be bd 53 a1 bd
       0.31734353 0.27038437 -0.14225048 -0.078773
000230 d2 cc 02 3e e2 31 87 bc 17 78 75 3c 9f 83 06 be
       0.12773445 -0.016503278 0.014982245 -0.13136147

conv1.0.bias f4 [16]
000000 4e 92 f1 bd c9 65 7d be 8d 59 1b be 9e ce 54 3e
       -0.117954835 -0.24745859 -0.1517088 0.20781943
000010 39 d0 93 3e 81 fc 92 3e c6 29 f9 3c a4 99 0f 3e
       0.288698 0.2870827 0.030415427 0.14023453
000020 68 b4 0f be 16 26 1d 3c 32 c9 6f be 89 e1 82 3e
       -0.14033663 0.0095916 -0.23416594 0.25562695
000030 12 ac 45 3e 38 fa 62 3c 7c f5 24 3e 6c 08 55 3d
       0.19303921 0.013853602 0.1610927 0.052009985

conv2.0.weight f4 [32, 16, 3, 3]
000000 67 45 a8 3d 1c 0c 0d bd c0 87 07 bd 4c 73 ed bb
       0.082163624 -0.034435377 -0.033088446 -0.0072464105
000010 0c fd 91 3c 11 90 2f bc 3c c1 9b bd 16 df 62 bd
       0.017820857 -0.0107155 -0.07605216 -0.055388533
000020 5d 1a d1 bc e7 2c 73 3d 29 49 69 3d 03 65 53 bd
       -0.025525266 0.059368994 0.056954537 -0.051610004
000030 3b e3 b8 3d e5 e8 a3 3d d1 86 9b 3c 21 80 88 3d
       0.09027716 0.080034055 0.018985184 0.06665064
000040 04 49 7f 3b aa b3 9d bd 54 ff 50 3d 97 21 83 bd
       0.0038953433 -0.07700284 0.05102475 -0.06402891
000050 5c 3a be ba a3 d4 8f 3d a4 e7 e3 bc d5 67 65 bd
       -0.0014513242 0.07022979 -0.027820416 -0.056007225
000060 3d 71 41 bd 4f 9d 95 bd 4f 47 88 3d a8 45 cb 3d
       -0.047227133 -0.07305395 0.06654226 0.09925395
000070 05 9b 19 3d c9 7d 8b bd ce 7b cd 3c cf 40 96 bd
       0.037501354 -0.06811101 0.025083449 -0.0733658
000080 7c e6 57 3d f9 7b 0e ba ca c6 62 bd f6 45 66 3d
       0.05271004 -0.00054353435 -0.05536536 0.056219064
000090 ae 15 55 3d e5 cb 0e bd 3c 0c 24 bc 8e a8 84 bd
       0.05202263 -0.034862418 -0.0100126825 -0.06477462
0000a0 7e ed 5e 3d ea ac 87 bc 54 b8 2f bd 18 c7 41 bc
       0.05442571 -0.016561944 -0.0429004 -0.011827253
0000b0 69 98 5f bd bf 0d 9b bd 50 b7 81 3c 89 b6 d9 bc
       -0.05458871 -0.07570981 0.01583448 -0.026576297
0000c0 5b 55 88 bd e5 60 81 3c 55 d3 f0 3c 58 37 40 3d
       -0.06656905 0.015793273 0.029397646 0.04692778
0000d0 18 4b 9a 3c 84 08 3c bc 43 b7 6d 3c 27 5d 88 bd
       0.018834636 -0.01147664 0.014509025 -0.066583924
0000e0 4d 19 62 bd 0a 9c fb 3d 93 69 67 3c 0b c8 92 3d
       -0.05519991 0.122856215 0.014124292 0.071670614
0000f0 93 1f 82 3d da 73 a2 3d 05 01 4e 3b 23 b6 7c bd
       0.063536786 0.07932253 0.0031433713 -0.061697137
000100 11 f2 32 bc 63 49 b4 bc ca 08 d0 bb 46 d3 64 3c
       -0.010921971 -0.02200765 -0.006348704 0.013966387
000110 b7 ae 2f bd ca 4e a3 3d 0d 62 19 3b 0c b2 5e 3d
       -0.04289123 0.07974012 0.002340439 0.054369017
000120 03 71 f5 3b a4 5f 4e bd 5c af 8d 3d a7 e9 0e 3c
       0.0074902787 -0.05038418 0.06918213 0.008722699
000130 0a a5 30 3d df 0b 30 3d 8e 58 31 bd de 46 0c b9
       0.043126144 0.04298007 -0.043297343 -0.0001337784
000140 6b d6 3e bc 7d 91 ca 3d 1a 67 03 bd 70 b8 9c 3d
       -0.011647801 0.09891031 -0.032080747 0.07652366
000150 aa 15 23 bd e1 83 26 3d 2c 1b b1 bb e3 25 75 3c
       -0.039815582 0.040653113 -0.0054048505 0.014962646
000160 76 44 9b bd b7 32 8e bd 0c 6a b4 3d ec 3e 91 3d
       -0.07581417 -0.06943267 0.08809289 0.070920795
000170 a8 b8 14 3d 7a d0 9c 3d 6f ce 5f 3d 8d 28 03 3d
       0.036308914 0.07656951 0.05464023 0.032021094
000180 7e 9b 0f 3d 03 11 ff bc 3c 1e 5f bd 16 2f a3 3c
       0.0350604 -0.031136042 -0.054472193 0.019919913
000190 09 a5 b9 bc 9b 31 9c 3d 49 4b 5e 3d ff 9c 36 3d
       -0.022661703 0.07626649 0.054271016 0.044583317
0001a0 a1 12 74 3c 77 c9 98 bd 4b c6 e3 bc d8 4e 51 3d
       0.01489702 -0.07460301 -0.027804514 0.051100582
0001b0 7c 73 17 bd 7f f1 22 3b 4b f5 0d 3d 20 fd b3 3d
       -0.03697537 0.0024863181 0.034657758 0.08788514
0001c0 ff 42 aa 3d 85 7f 2f bb ec 91 56 3c 8b 2e de bb
       0.0831356 -0.0026778888 0.013096314 -0.0067804507
0001d0 11 57 22 3d 75 96 50 3d b6 16 65 3d c9 8b 30 bc
       0.039633814 0.050924737 0.055929862 -0.010775515
0001e0 f0 3e 3a 3d 6f 97 51 3d c7 9e 37 3d 2b 7b a5 bc
       0.045470178 0.05116981 0.044829156 -0.020200333
0001f0 c0 09 0a bd d9 a7 95 bd c0 02 a8 3d 9d 9c 00 bd
       -0.033700705 -0.07307405 0.082036495 -0.031399358
000200 a5 1e 96 bd 85 4a 06 bd 93 60 b9 bd c1 79 88 bb
       -0.07330064 -0.03278591 -0.09051623 -0.004164905
000210 55 c6 8e 3c ea 90 65 bd c5 00 7c 3d 1f a5 4c 3d
       0.017428556 -0.056046404 0.06152417 0.04996216
000220 99 52 9a 3c e0 ea 6e bc 6d 65 d2 3d a8 ce 64 bc
       0.018838214 -0.014582366 0.10273252 -0.013965286
000230 c0 f0 1f bd ea 39 99 bd c6 ff 74 3d ad 7b 42 bd
       -0.039047956 -0.07481749 0.059814237 -0.047481228
000240 c2 f1 1e 3c 13 19 5b bd e3 79 59 bc fc f3 22 3d
       0.009701194 -0.05349071 -0.013273689 0.039783463
000250 04 bf 43 bd e1 55 0f bd d6 20 75 3d b0 e2 44 bc
       -0.04778959 -0.03499401 0.059845768 -0.012016937
000260 2e ab 18 bc d7 05 9d 3c ac 1a 3c 3d 08 d6 cd bb
       -0.009318156 0.019167824 0.045923874 -0.006281618
000270 e2 2c 0f bd 10 34 4d bd 4f 50 0d bd 4a eb 4e bc
       -0.034954913 -0.05009848 -0.034500416 -0.0126293395
000280 54 cc ed bd 62 7b ac bd 67 eb 81 3d 24 e9 9d 3b
       -0.11611238 -0.08421971 0.063437276 0.0048190523
000290 88 b6 27 b8 60 e4 25 bc dc be 4b bc bc 06 91 bd
       -3.99859e-05 -0.01012525 -0.012435641 -0.070813626
0002a0 7a 91 a4 3d 6e e3 8c 3d da 0c df 3c 5f ba 2f bd
       0.0803556 0.06879316 0.027227808 -0.042902347
0002b0 44 3f 3a bd 93 81 89 3d 93 d2 90 3c 0e ad d8 bc
       -0.04547049 0.067141674 0.017678535 -0.026449706
0002c0 d0 f0 e6 ba a1 ba 2d 3c 48 75 a2 bd af 76 91 bd
       -0.0017619375 0.010603578 -0.07932526 -0.07102715
0002d0 96 3a 5a 3d cf ef 8b bc 78 65 1f bd ae 2c 3f bc
       0.05327853 -0.017082123 -0.038915128 -0.011668367
0002e0 1f 14 c1 bb 10 71 b5 3d b7 6d f7 3c a2 b8 26 bb
       -0.005892291 0.088594556 0.030203683 -0.002543964
0002f0 4f 0b 84 bd db 89 ed 3b 78 44 aa bd 57 ec c5 3c
       -0.064474694 0.0072490997 -0.08313841 0.024160547
000300 5d 86 9f bd 84 be c0 bc 18 3b 13 3d 84 7a 0b 3c
       -0.077893 -0.023528345 0.035945028 0.008513097
000310 5f bd 38 bd b5 bb 93 bd ab 9f c7 bd fa c6 68 bd
       -0.045102473 -0.07213537 -0.09747251 -0.056830384
000320 d4 b5 8b 3c 97 6e 65 bd b0 4e 9c 3d 18 46 22 bc
       0.017054476 -0.05601367 0.07632196 -0.009904407
000330 48 a8 1e bd 69 fb 34 3d e3 b8 4b 3d 9f fb 68 3d
       -0.038734704 0.044185076 0.04973687 0.05688059
000340 04 bc 27 bd 84 df 93 3d 5c 45 1e bd f2 18 be 3d
       -0.04095079 0.072203666 -0.038640365 0.09282102
000350 68 11 a7 bd 28 62 69 3d bc b4 67 bd ad 3f a8 bd
       -0.08157617 0.056978375 -0.056568846 -0.0821527
000360 44 23 1a bd 0d ac 79 bb 89 91 d8 3c fd be aa bd
       -0.03763129 -0.0038096935 0.026436584 -0.083372094
000370 29 f0 1b 3d bf 30 13 3c 6b ba 85 3d dd 8a 03 bb
       0.03807083 0.00898379 0.06529697 -0.0020071783
000380 d1 ed 8e 3d 32 69 3c bd 5c ae 40 bd 0d 53 5b 3d
       0.06978954 -0.04599876 -0.047041282 0.053546
000390 cd bd b0 bc 86 d0 3a 3d 6f b2 2e bd b4 75 65 bd
       -0.021574879 0.04560902 -0.042650636 -0.056020454
0003a0 bb b1 47 bd 95 b6 b0 3c 09 22 78 3c a6 df 56 3d
       -0.04875348 0.021571437 0.015144833 0.05245938
0003b0 75 57 1e bd 66 00 f5 3c ed 5b 32 bc b9 65 52 3d
       -0.038657624 0.029907417 -0.010886175 0.05136654
0003c0 6c 26 b0 3d ea 15 83 3c 6d 31 85 3d 71 42 44 bd
       0.086010784 0.01600166 0.06503568 -0.047914926
0003d0 67 36 93 bc f1 b3 22 bd 36 e1 8f 3d 25 3f 93 bc
       -0.017970277 -0.039722387 0.070253775 -0.017974446
0003e0 76 00 e6 3b fb b4 ba 3c 31 1c c0 3d b6 dc 3e bd
       0.007019098 0.022791376 0.09380377 -0.046597205
0003f0 f2 9c 6d bb 9a cc 7c bb 98 78 82 bd 18 8c 55 bd
       -0.0036256877 -0.00385741 -0.06370658 -0.052135557

conv2.0.bias f4 [32]
000000 f1 ff 98 bd a0 2d c4 bb 21 15 88 bc fe 72 87 3d
       -0.07470692 -0.0059868842 -0.016611638 0.0661373
000010 e6 5c 41 bb a3 5d 8a bb 5b 87 ba bd 3f 7f ec 3b
       -0.0029504835 -0.004222588 -0.09107848 0.0072173174
000020 05 86 9a 3d 9b d7 f5 bc 9d 7c 88 3d 0b bb 1b bc
       0.075450934 -0.030010035 0.06664393 -0.009505044
000030 bd d8 4e 3d ee 63 85 3c 55 e2 a9 3d eb 85 04 3c
       0.050499666 0.016283002 0.082951225 0.008088569
000040 88 12 c4 3c 63 d6 2b bd 3b 6d f1 3b 41 f8 a9 3d
       0.023934618 -0.041952502 0.0073677576 0.08299304
000050 4e 4e 8b bb 19 c2 b6 bd dc ee d0 bc 56 9a 83 bc
       -0.004251278 -0.0892374 -0.025504522 -0.016064804
000060 eb ea 6c 3c cf 91 ea 3c b9 f3 17 3d 18 3d 8c bc
       0.014460306 0.02863398 0.037097666 -0.017118976
000070 7f 0c a6 3d e9 51 4b bc 0b 11 a0 3d ff 6a 38 bc
       0.08107852 -0.012409666 0.07815751 -0.011255979

conv3.0.weight f4 [64, 32, 3, 3]
000000 ca f4 90 3c 95 af 4c bd fa 11 9e bc 88 2e a9 bc
       0.01769485 -0.049972136 -0.019295681 -0.02065207
000010 7d da 20 bd 19 80 9b 3c 6d bc 02 bd 4a 53 43 bc
       -0.039270867 0.01898198 -0.031917978 -0.011921713
000020 f7 9f 25 bd 91 2c 25 3d 21 5c 57 3d 74 11 f9 3b
       -0.040435757 0.040325705 0.052578095 0.0076009575
000030 f3 13 24 3d 87 67 97 bd 53 76 84 bd 35 64 3a bd
       0.040058088 -0.07392793 -0.06467881 -0.04550572
000040 86 bb 41 3d 5e 37 22 bd 4c 59 39 bd 0e 51 22 bd
       0.047297977 -0.039603584 -0.045251176 -0.03962808
000050 61 b1 da bb b9 21 90 bc 40 ae 4b bd 90 c6 29 bd
       -0.0066739772 -0.017594205 -0.049726725 -0.04144913
000060 f7 95 e8 bb 7b 82 50 bb 19 45 23 3c 4c a3 67 bd
       -0.0070979553 -0.0031816054 0.009965205 -0.056552216
000070 26 17 54 3d 02 61 2e bd f1 f7 78 bd e7 cf 2f 3d
       0.05177989 -0.042572983 -0.06078333 0.04292288
000080 ba 10 78 bb 3a 2f e3 bc 41 d7 92 3c 91 23 e3 3b
       -0.0037851767 -0.02773248 0.017924907 0.00693173
000090 8a aa 05 bd 9a b3 44 3d 11 dc 62 bc 0f ad 2f 3d
       -0.03263334 0.048022844 -0.013846413 0.04288965
0000a0 55 9b 5a 3d 40 78 3f bc 66 ae 18 bd fc 2f f7 3c
       0.053370792 -0.011686385 -0.037275694 0.030174248
0000b0 e2 11 0c 3d ca 38 57 3d cd 40 1f 3d b8 12 e7 3b
       0.034196742 0.052544393 0.03888016 0.007051792
0000c0 02 33 42 3d e4 ad 0a 3d 2d cb 55 bd 11 2b 62 bc
       0.047411926 0.03385724 -0.052195717 -0.013804213
0000d0 d1 e6 de 3c 74 82 44 bd bb 5f 27 3c a6 b0 32 bd
       0.027209671 -0.047975972 0.010215695 -0.043625496
0000e0 21 05 06 bb 89 36 f0 3c f4 94 e3 b9 4a 97 8d 3c
       -0.0020449834 0.02932288 -0.00043407793 0.017284054
0000f0 ef 39 9c 3c 9f af 35 bd 89 47 87 3d 7d 0e 27 bd
       0.019070594 -0.04435694 0.06605441 -0.0407853
000100 79 df 3a bd 16 fd df 3c a2 52 a2 3a 8f 61 4a 3d
       -0.045623276 0.02734236 0.0012384246 0.049409445
000110 06 93 31 3c c0 0d a1 bc c3 c5 2b 3c a0 80 da bc
       0.010838276 -0.019659877 0.010484162 -0.026672661
000120 b6 61 68 3d f3 67 43 bd a6 f4 a1 3b 4e fe 08 3d
       0.05673381 -0.047706556 0.0049424944 0.03344565
000130 f1 9c c5 3c ae de 4f 3d dc a1 f4 bc fb 76 34 bc
       0.024122687 0.050749473 -0.029862337 -0.011014695
000140 d7 96 03 bc c3 30 55 bd 7c c4 b0 bc 21 00 a2 bc
       -0.0080315685 -0.052048456 -0.021578066 -0.019775452
000150 76 99 e7 3b 18 e2 30 bc db 7c f8 3c 0a 54 95 bc
       0.0070678545 -0.010796092 0.030332973 -0.01822855
000160 f5 a5 07 bc 4c 89 44 3d 46 e7 38 3d 75 5e 79 bc
       -0.008279313 0.0479825 0.045142435 -0.015220274
000170 ef 1b 67 bd 11 4f 13 3d 03 7b 49 3d 2c 7e 97 bc
       -0.056423124 0.035964075 0.04918958 -0.01849278
000180 cc 48 32 3d c8 3f 11 3d 6d 35 22 bc 2d c6 3b bd
       0.043526456 0.035461217 -0.009900433 -0.045843292
000190 12 a6 43 bd 36 2c 30 3c 7f fb da 3c 4a e0 42 bb
       -0.0477658 0.010752728 0.02673125 -0.0029735737
0001a0 e1 6c 8e 3c eb 41 ac bc 59 fd 8e 3c 6a 6f b9 bc
       0.017385902 -0.021027526 0.01745479 -0.022636134
0001b0 ac 39 8a bd 29 d8 aa 3c d0 e9 3a 3d ed 17 01 3d
       -0.06749281 0.020855026 0.045633137 0.031516958
0001c0 c0 33 cc 3c 8c b5 90 3c 4b b8 27 bd 21 3a dd 3c
       0.02492702 0.017664693 -0.04094724 0.027005257
0001d0 30 6d a2 3c 4e ce d0 bc 50 ae 31 bd 95 0c 97 bd
       0.019827455 -0.025488999 -0.043379128 -0.07375447
0001e0 65 ae 83 bd 91 d5 c2 bc 68 4a 3c bd dc f9 e1 3a
       -0.064297475 -0.023783477 -0.045969397 0.0017240602
0001f0 9a 4a 01 bd ca d5 84 3d f5 12 46 3d a6 14 28 bd
       -0.031565286 0.064860895 0.048357923 -0.041035317
000200 d5 28 26 3d 4c 5f 38 3d 43 1a b4 3c 56 7a 10 3d
       0.040566284 0.045012757 0.021985179 0.03527292
000210 5b b7 a2 bc 94 d8 da bc 0f ed 2f 3d 8d aa 16 3c
       -0.019862821 -0.0267146 0.042950686 0.009195936
000220 aa 36 08 3d 30 86 39 bd 3a 05 18 3d 24 45 20 bd
       0.033255257 -0.045293987 0.03711436 -0.039128438
000230 f4 95 68 3c c8 72 69 bd e5 01 fb bc e0 3d 83 3d
       0.014195908 -0.05699423 -0.030640552 0.06408286
000240 0d 43 30 3d 48 df 5e bd 4c 48 0e bc 99 bf 90 bd
       0.043032695 -0.054412156 -0.008684229 -0.07067794
000250 f6 a8 b8 bc 57 2f 4a 3d fd 4e 96 3c 8e 55 4d bd
       -0.022541504 0.049361553 0.018348211 -0.05013042
000260 80 6d 17 3b cd 41 b0 3c 68 d1 17 bd ad 9a 1a bd
       0.0023106039 0.021515751 -0.03706494 -0.037745167
000270 6b 23 55 bc 78 ba 36 3c 8b 44 3b bd f4 69 f6 bc
       -0.013008933 0.011152856 -0.045719665 -0.03007982
000280 01 ca 8f bd b0 78 62 3d 6e 55 1a 3c 91 af 2b 3c
       -0.07020951 0.055290878 0.009419782 0.01047887
000290 57 1a 2f 3d 8b 6f a8 3c ec e5 8b bd 5f 4c 72 3d
       0.04274973 0.020561 -0.068309635 0.059154864
0002a0 1d 48 f8 bc f5 0e 28 bd 6b ff dc bc c8 b8 ea bc
       -0.030307824 -0.04102989 -0.026977262 -0.028652564
0002b0 22 ab 7c 3d 84 12 ad 3d 20 b8 07 3d 3b 53 1f bd
       0.061686642 0.08450797 0.03313458 -0.038897734
0002c0 ee fb ed bc af 10 17 bd 84 c2 35 bd 6d 1b cf bc
       -0.029050793 -0.036881145 -0.044374958 -0.025281632
0002d0 96 03 43 3d fa d6 1d bc b3 40 5a bd b3 65 26 bc
       0.04761084 -0.009633774 -0.05328436 -0.010156083
0002e0 f3 08 45 bd cc 6a fb 3c cd 96 82 bc 64 e9 21 bd
       -0.048104238 0.030690573 -0.015941048 -0.03952922
0002f0 a1 4b 6f bc c3 f6 ed 3c 1b 31 41 bd 8c 93 c6 bc
       -0.014605434 0.02904833 -0.04716597 -0.024240278
000300 32 90 30 bd ce 31 39 bd ab d1 18 bd b4 cd 04 3b
       -0.043106265 -0.045213513 -0.03730933 0.002026421
000310 07 93 eb bb d3 ea c6 ba a2 df 4f bd f3 71 95 3b
       -0.007189158 -0.0015176184 -0.050750382 0.004560703
000320 67 25 78 bc 26 97 62 bd bc fe 22 3d f9 2b 1b bd
       -0.015145636 -0.055319928 0.039793715 -0.037883732
000330 3a 8d 7a bc 7d 8d 34 bb 17 17 6e 3d 0d 90 0d 3c
       -0.01529246 -0.0027550154 0.05812749 0.008640301
000340 8c 90 92 3b 9c 89 1d bc 37 b4 76 bd 48 09 2f bd
       0.0044727977 -0.009615328 -0.06023046 -0.04273346
000350 09 49 34 bd f3 97 72 bc 30 5f f7 3c e4 f0 3b 3d
       -0.044014964 -0.014806735 0.030196756 0.045884028
000360 60 d0 9a bc 76 75 34 3c a9 81 85 bd df 47 34 3d
       -0.018898189 0.011014333 -0.06518871 0.044013854
000370 ab 49 4f bd 8e b1 41 bc 8d 1b 0a 3d f6 9f 3a bd
       -0.050607365 -0.0118221175 0.03371768 -0.045562707
000380 32 37 23 bd cd 28 26 3d 63 2d 3b 3c f4 d0 a3 3b
       -0.03984756 0.040566254 0.011424395 0.0049992744
000390 dc e1 03 bd 3e 45 cc 3c 68 bc 25 3d 39 8b f1 3b
       -0.03219782 0.024935361 0.04046288 0.007371333
0003a0 14 43 05 bd d6 c0 50 3d 91 d4 ba 3c d0 bc 05 bd
       -0.032534674 0.050965153 0.022806438 -0.03265077
0003b0 25 16 2a bd 10 36 69 3c 11 ea e0 bc b9 62 26 bd
       -0.041525025 0.014234081 -0.027455362 -0.040621493
0003c0 a2 f4 7a bc 94 29 f4 3c 01 3d 43 bd 54 55 2c bc
       -0.015317114 0.029804982 -0.0476656 -0.010518391
0003d0 b1 db b3 3c 9b 43 0e 3c 45 7c e0 3c 11 e4 54 bc
       0.021955343 0.008683111 0.027403006 -0.012993828
0003e0 cd f2 ae bc 3c 23 80 bb bc ab 84 bd 36 34 51 3d
       -0.02135601 -0.0039104503 -0.06478068 0.051075183
0003f0 2d 13 2e bb 92 bf 27 3c bb 18 89 bd 62 50 eb ba
       -0.0026561723 0.010238545 -0.0669417 -0.0017953033

conv3.0.bias f4 [64]
000000 9c b7 19 bd bc 81 9f bb 3e d6 2a bb 5b 7b 61 3c
       -0.03752862 -0.0048677605 -0.002606764 0.01376232
000010 8c 98 81 bc a5 53 22 3b 32 9d 07 3d 83 6b 1f 3c
       -0.01581981 0.0024769094 0.033108898 0.009730223
000020 3e c3 be 3c ac 13 f2 3b 88 a4 06 bc 2f 26 1c bd
       0.023286458 0.007387599 -0.008217938 -0.038122352
000030 77 87 d3 3b 7d c2 0e bb 68 08 45 3d a7 a1 c2 3c
       0.0064553577 -0.0021783405 0.04810372 0.023758722
000040 b6 5a 7b bd 8c 8f bd bc ac 2c 0d 3d ac 90 f6 bc
       -0.061365806 -0.023139738 0.03446643 -0.030098282
000050 26 ae 36 3d 1c 9c 38 3c 1a c1 53 3c d0 27 df b7
       0.044599675 0.011267688 0.012924457 -2.660221e-05
000060 28 cb 8a bc db 79 48 3d 5c 71 cd 3c e6 86 00 bd
       -0.016942576 0.048944335 0.025078468 -0.03137865
000070 28 d6 7d 3d 2e d9 90 3b 5c 37 56 3c a9 27 1f bd
       0.061971813 0.004420421 0.013074722 -0.038856182
000080 fe fe 61 3b 0a c5 60 bc 10 13 42 3d 69 fe 3b 3d
       0.0034484263 -0.013718853 0.04738146 0.04589692
000090 6c 47 cf bc 62 de 7f 3b b1 70 24 bc 67 87 41 bc
       -0.025302611 0.0039042463 -0.010036633 -0.011812068
0000a0 0c 3e bf 3c 76 ea 56 bc f4 de a0 3d b3 0c 71 3b
       0.023345016 -0.013117423 0.07855025 0.003678125
0000b0 b8 55 54 bd a0 5b ec 3c 45 bf 30 3d 3e 22 63 3d
       -0.05183956 0.028852284 0.04315116 0.055452578
0000c0 2c 0d 61 bd 18 d4 81 3d fb d2 c6 3c 28 71 83 3d
       -0.054944202 0.06339282 0.024270525 0.06418067
0000d0 5c 26 3d bc a2 23 dc bc 0e 81 a3 b8 90 93 e5 3c
       -0.01154479 -0.02687246 -7.796484e-05 0.028024465
0000e0 d7 f9 0f 3d 5e dc b9 3c 6e 94 87 3a 9b d9 54 bc
       0.035150375 0.022688087 0.0010343918 -0.012991334
0000f0 8b a2 58 bd b3 f2 c2 3c d2 f9 9e 3c fb 76 1a 3b
       -0.052889388 0.023797369 0.019406233 0.0023569453

conv4.0.weight f4 [128, 64, 3, 3]
000000 de d7 00 3c e9 c1 4d 3d f5 06 26 3d 89 88 2a bd
       0.007863967 0.050233755 0.04053398 -0.041634116
000010 8b af 0e 3d 78 f5 07 bd 30 f4 0e bd 9a cd ce 3c
       0.03483538 -0.03319308 -0.034900844 0.025244523
000020 c5 7a 57 3a b4 31 9a bc 94 db cf bc 0f 9f f3 bb
       0.0008219893 -0.018822528 -0.025373258 -0.0074347327
000030 53 89 1c bc e4 55 3b bc cb bc 1a 3c 8e 80 c2 bc
       -0.009554225 -0.011434052 0.009444426 -0.02374294
000040 7d 92 03 3d e0 2c 5e 3c a0 76 6a bc 59 f0 dd bc
       0.032122124 0.013560504 -0.014310509 -0.027092146
000050 ae 47 a8 3c 35 05 7d bb 41 36 10 3d 98 1e 11 3c
       0.020541992 -0.003860784 0.03520799 0.008857392
000060 3e 7b 61 3d c5 3b 33 bc 6a ff 9f bb ba 6f c7 3c
       0.055049174 -0.010939543 -0.0048827427 0.024345268
000070 52 8b 04 3d a4 70 e9 3c 1d ff 5e 3a d8 13 e0 3c
       0.03235943 0.028496094 0.0008506643 0.027353212
000080 97 86 e3 3c a6 64 39 bc 40 71 8a 3d 51 23 fc bc
       0.027774138 -0.0113155 0.06759882 -0.030778559
000090 b2 b4 db 3c 6f 98 64 bc 89 be b5 bb 9d a4 17 bc
       0.02681956 -0.013952359 -0.005546395 -0.009255555
0000a0 e4 e0 9b bc da d7 47 3c b7 ea 1d 3d e0 f5 22 3d
       -0.019028135 0.012197459 0.03855392 0.039785266
0000b0 df 91 b5 bc 12 f6 31 3d 6e fd c1 3c 99 a1 1d 3c
       -0.022164283 0.04344756 0.023680415 0.009621047
0000c0 0e 0c 16 3d a7 11 19 3d e9 4f 48 bd be 20 98 3c
       0.03663259 0.03737035 -0.048904333 0.0185703
0000d0 79 db 3b 3c c4 36 30 bd 1e 7d 2f bc 82 34 0e 3d
       0.011465901 -0.04302098 -0.010710983 0.034718044
0000e0 12 50 13 3d 1a 7c a8 bc 47 8b fe bc 01 dc 14 bd
       0.035965033 -0.020566989 -0.031072272 -0.036342625
0000f0 cb 37 95 3c f4 f7 4e 3c 82 07 89 3c 15 2d 37 bc
       0.01821508 0.012632359 0.016727213 -0.011180182
000100 7a e7 80 3d 0d 39 81 3c d2 41 f9 bb 3e 9c 8e b9
       0.06294151 0.015774274 -0.0076067233 -0.0002720076
000110 78 37 f0 3c 41 43 10 bd 3c e2 86 bb de a9 20 ba
       0.029323325 -0.03522039 -0.0041163247 -0.0006128828
000120 d7 1d d4 b9 36 cb 37 3c 0c 5d 91 3b 31 22 3a bd
       -0.00040458023 0.011217883 0.004436141 -0.045442764
000130 43 4b bb bc 47 43 33 bd e5 fb 5e 3d c2 c0 9e 3c
       -0.022863036 -0.043765333 0.054439444 0.019379023
000140 49 66 d0 bb a6 80 92 3c 6f 8d cb bc b0 51 8a 3c
       -0.0063598496 0.01788361 -0.024847714 0.016884655
000150 c7 47 1c bc e3 bc 1a 3d fc 9b 52 3d ac 6f f2 3c
       -0.009538597 0.037777793 0.05141829 0.029594265
000160 fe 4d ab bc a5 23 e5 3b 1b 08 5f bc 1f d1 35 bd
       -0.020911213 0.0069927745 -0.013612772 -0.044388887
000170 6a 5a a9 3c d0 82 cd 3b b7 20 10 bd d8 69 28 bd
       0.020672996 0.0062716976 -0.03518745 -0.041116565
000180 ae a4 cd 3c 32 f1 a4 bc e3 77 db 3c 7c 53 8e 3c
       0.02510294 -0.020134542 0.026790565 0.017373793
000190 93 4b 0d bd d8 9c 1c bd 11 d5 a8 3c 08 ab 2f 3d
       -0.0344959 -0.038235515 0.02060941 0.042887717
0001a0 fd e7 bf bb 66 4d 2b 3d 3e 6e e9 ba d9 65 b5 3b
       -0.0058565126 0.04182186 -0.0017809344 0.005535823
0001b0 9e 09 67 bc e6 d8 06 3c 3e e4 0d 3c 44 65 11 3a
       -0.014101414 0.008230424 0.008660374 0.0005546401
0001c0 61 38 80 3c 27 26 a0 bc b0 21 e6 3c 2e 89 1d bd
       0.015651884 -0.019549442 0.028092235 -0.038460903
0001d0 5a e5 09 3d ac fb bd 3b e8 5b 2a bd 45 c2 c6 bc
       0.033665992 0.005797824 -0.041591555 -0.024262557
0001e0 32 10 f1 3c 70 81 74 3c 35 f9 cc 3c 37 56 19 bb
       0.029426668 0.014923438 0.025021175 -0.0023397335
0001f0 02 fb 9d bc 4f 24 22 3d 4e e3 a1 bc 3a 26 25 3d
       -0.019284729 0.039585408 -0.019761708 0.04031966
000200 fa b0 2d bd 37 a7 a4 3c b5 54 92 bc 65 ff 0c 3d
       -0.042405106 0.020099266 -0.017862657 0.03442325
000210 a0 63 5c 3d 59 1d 87 3c 38 5e 1f bc 19 64 c6 3c
       0.053805947 0.016493486 -0.009727053 0.024217652
000220 fa d9 41 3d 43 bf b8 bc d0 98 11 3d 8c 0a 0a 3d
       0.04732702 -0.022552138 0.035546124 0.033701465
000230 be ec 70 bc 2f 02 8a bb 24 fb 71 38 a8 44 2d 3d
       -0.014704881 -0.004211686 5.769277e-05 0.042301804
000240 53 36 2c 3d 5d cf f0 3c d4 fc ec bc ba 2b c4 bc
       0.042043995 0.029395754 -0.028929152 -0.023946632
000250 0b 0f 96 3c 6b 67 22 3d a0 24 41 3b b6 07 cc 3c
       0.01831772 0.03964941 0.0029471293 0.02490602
000260 34 88 19 3d 56 88 b6 3c 6c 67 0f 3d c6 19 f2 3c
       0.03748341 0.022281807 0.03501074 0.029553305
000270 a8 51 eb 3b 74 b8 83 3c 29 65 ca 3c 86 ee c9 3b
       0.007181365 0.016079165 0.02470644 0.0061624674
000280 09 4b bb bc 07 b2 63 3c 12 72 01 3c 14 83 33 bc
       -0.022862928 0.0138974255 0.007900732 -0.010956544
000290 4a 9b db bc 18 8e 6f 3c 84 99 49 3c 7b 41 c4 bc
       -0.026807446 0.01462128 0.012304667 -0.023957005
0002a0 b8 18 cd 3c a1 7c 88 3c 3f b9 a7 3b 91 d1 9b bb
       0.0250362 0.01666099 0.0051185186 -0.004755207
0002b0 a9 81 17 bd 82 d3 1a 3c aa 08 04 3d a7 0a 15 bd
       -0.036988888 0.009449841 0.032234825 -0.036387112
0002c0 ac 85 ee bb 14 0f 04 3d b2 6a 99 bc 92 4a 11 3b
       -0.0072791185 0.032240942 -0.018727634 0.0022169692
0002d0 8b 82 61 bb 5c 89 d6 bc 75 96 3e bd 52 4f 9a bc
       -0.0034410085 -0.026188545 -0.046530206 -0.018836651
0002e0 58 e2 75 bb 46 a8 1c bd df 6f 63 3b 22 45 a0 3c
       -0.0037518945 -0.038246416 0.0034704132 0.019564215
0002f0 2c c1 73 3a b7 70 08 3d 7d 23 0f bb 72 b2 61 bd
       0.0009298499 0.03331062 -0.002184122 -0.05510182
000300 f8 4a 39 bc 56 9f 8f 3c 9b de 1c bd e8 dc 6a 3d
       -0.011309378 0.017532032 -0.03829823 0.05733958
000310 55 8f 70 3b e0 f3 30 bd b5 d1 2a bb dc 52 d4 3c
       0.0036706526 -0.043201327 -0.0026064937 0.025918417
000320 5d 4e 09 bd 74 53 36 3c fd d7 d1 bc fe b8 09 bd
       -0.033522 0.011128295 -0.025615687 -0.033623688
000330 74 ac 08 3d 1a 83 21 bd 3e aa 9c bc 37 a6 cd bc
       0.03336759 -0.03943167 -0.019124147 -0.025103671
000340 65 cf 32 bc 1e b9 5b bc c7 8a 69 bc 67 f3 50 bc
       -0.0109137045 -0.013410835 -0.0142542785 -0.012753344
000350 95 c0 4a bd ca cf 6e bc 03 38 2e 3c 40 86 f3 bc
       -0.049500067 -0.014575908 0.010633471 -0.029727101
000360 10 24 bf bc ea 49 2b bd 90 6c e2 3c eb 00 e4 3c
       -0.023332626 -0.041818537 0.027639657 0.027832469
000370 04 c1 57 bc ff 35 64 3b f1 52 25 3d a8 80 e1 3c
       -0.013168577 0.0034822223 0.040362302 0.027527168
000380 be 2a 23 bd 50 4d 2e 3b f0 81 bb bc a2 59 21 3c
       -0.039835684 0.0026596375 -0.022889107 0.00984803
000390 96 2d 0b bc 9a f3 41 3d 3d 19 d0 3a 1a 51 b7 3c
       -0.008494755 0.047351457 0.0015876662 0.02237754
0003a0 59 2a 72 3c 60 08 41 bd 1e dd 4e bd d7 d6 89 3c
       0.014780604 -0.047127128 -0.050503843 0.016826076
0003b0 a4 d1 e7 3c d1 26 69 3c af 49 c1 bb 6e 34 3f 3c
       0.028298207 0.014230446 -0.0058986763 0.011670215
0003c0 63 59 41 3d 78 96 ab 3c 57 8e 64 bd 50 f6 b7 38
       0.047204386 0.020945773 -0.05579981 8.771999e-05
0003d0 9a a8 53 3d 7e 61 80 bc a9 ac 1f bd 11 c3 3a 3d
       0.051674463 -0.015671488 -0.03898302 0.045596186
0003e0 32 6d ee 3c 14 26 2c bc 96 af bf 3c 7b 6f a3 bc
       0.029104803 -0.010507125 0.023399156 -0.019950619
0003f0 f2 f8 e0 3c da 29 d1 bc 91 17 ff 3c 12 5e 80 3c
       0.027462456 -0.025532652 0.031139167 0.015669856

conv4.0.bias f4 [128]
000000 68 e6 1c 3d 9a e2 08 3c 53 98 73 bd ae c9 d0 bc
       0.03830567 0.008354807 -0.05947144 -0.025486793
000010 73 17 bd bc 93 6b 77 3c 54 ee c0 3b 74 27 a5 3a
       -0.02308247 0.015101331 0.005887786 0.0012600259
000020 a6 12 af bc 57 d0 3c 3d b8 71 69 bb 71 54 fd 3b
       -0.021371197 0.046097126 -0.003562076 0.0077310135
000030 8f c4 f9 3c 50 ab bf bc f0 33 64 bd 46 5f ae 3b
       0.030489234 -0.023397118 -0.055713594 0.005321416
000040 a2 8b af bc 1c 4e 0b bc cb 6d 30 bd 70 ce 23 3d
       -0.021428887 -0.008502509 -0.043073457 0.039991796
000050 a5 f4 b2 3b e5 d0 30 bc a0 65 8f bc fc 25 af bc
       0.005461293 -0.010791992 -0.017504513 -0.021380417
000060 25 be ae bc bb 7c 16 bd f7 21 8e bc da 81 de bc
       -0.021330902 -0.036740046 -0.01735018 -0.027161527
000070 f9 c9 03 3d 9e a7 59 bd af 8f e6 3b 50 4e 40 bd
       0.032175038 -0.053138368 0.0070361714 -0.046949685
000080 65 35 83 bc dc ad f3 3b ea b1 af bc f0 22 60 3c
       -0.016016671 0.007436497 -0.02144714 0.013680205
000090 40 1e 25 bd 30 69 ca bb be 0d a1 bc 75 73 e1 3b
       -0.04031205 -0.00617709 -0.019659873 0.0068802186
0000a0 81 2c 1f bd b0 5f 07 3c 94 27 ea bc 76 6b 44 bb
       -0.0388608 0.00826256 -0.028583325 -0.0029971278
0000b0 a1 77 d5 bc 06 b7 5a 3d 6d 5d 02 bd ca 5c 1f bd
       -0.02605802 0.0533972 -0.03182738 -0.03890685
0000c0 84 d5 4a 3d 0f 43 22 bd ee 1d 25 bc 71 7f 99 bc
       0.04952003 -0.039614733 -0.010077937 -0.018737527
0000d0 9c a7 0b bc 26 cf 86 bb 26 76 15 bb 6b f4 24 bd
       -0.008523848 -0.0041140495 -0.0022806018 -0.040272158
0000e0 62 57 22 bd c8 6f 9b bc e6 37 dc 3c 03 d3 1b 3c
       -0.039634116 -0.0189742 0.026882123 0.009510758
0000f0 17 bd d2 bc 3a 3b c0 bb d9 69 b0 bc 91 d6 15 bd
       -0.02572493 -0.0058664354 -0.021534847 -0.03658158
000100 0e 97 17 bd 5c 78 90 bc 73 7c 89 3b e8 0b ad 3b
       -0.03700929 -0.017635517 0.0041957437 0.0052809604
000110 ce 91 2a 3d 63 2c 57 3c 35 a3 d7 ba 2b 46 88 3c
       0.041642956 0.013133141 -0.0016451838 0.016635021
000120 93 ad 5f bd f2 2d 0a bd f5 1e 86 ba 39 e3 d7 3b
       -0.054608893 -0.033735223 -0.0010232615 0.0065883663
000130 cd f2 eb 3a ae 88 14 3c 2b eb e4 3c f1 c9 6b bc
       0.0018001437 0.00906579 0.027944168 -0.014391408
000140 72 a1 99 3c f1 e2 b5 3c 5c 46 aa bc e4 a7 fc bc
       0.018753741 0.02220294 -0.020785503 -0.030841775
000150 d4 8e 2c 3c d5 f6 11 bd d9 0e 76 3c 0e a0 06 3c
       0.0105321 -0.035635788 0.015018188 0.008216871
000160 7d d6 85 bb c0 7f 0f bc f5 d5 22 bd 9d cd 37 bd
       -0.004084407 -0.008758485 -0.039754827 -0.044873822
000170 46 13 19 3c 5d 70 32 bd 36 d5 5e bc 50 19 60 bc
       0.009342974 -0.04356419 -0.013600638 -0.01367791
000180 04 ad 34 bd ee 08 dd bc 29 7d c1 3b d1 3e 83 3c
       -0.044110313 -0.026981797 0.005904813 0.016021164
000190 8d 88 9f bc d0 4a e8 bc 7f cd 5d bd 4e e8 ff bc
       -0.019474292 -0.028355986 -0.054151054 -0.031238701
0001a0 5a 43 59 3c ed 0f 15 bc 5a f7 23 bd bd ab 81 bb
       0.013260687 -0.009098035 -0.040030815 -0.0039572404
0001b0 f8 2b 9c 3c 6d 40 18 bd 36 03 b5 bb c9 65 4c bd
       0.019063935 -0.037170816 -0.0055240644 -0.049901757
0001c0 fb 0b b4 bc ad 5e 14 bc d6 61 34 bc 5a 6e a5 3c
       -0.021978369 -0.009055776 -0.011009654 0.020194221
0001d0 b7 62 11 bc 09 b5 18 3b 25 78 fc 3b 54 52 65 ba
       -0.008873633 0.0023301265 0.007704752 -0.00087479246
0001e0 be 41 d3 bc 7e 2f 1e bd 25 ef c8 3b 19 3b cb ba
       -0.025788184 -0.03861951 0.006132024 -0.0015505283
0001f0 0a 0b 3d bd 85 29 23 bd 59 7d 68 bc 5e 77 4c bd
       -0.046153106 -0.039834518 -0.014190041 -0.049918525

linear.weight f4 [3, 21888]
000000 95 0c 27 bb fd 0c c2 3c 22 91 05 3b af 36 2d bc
       -0.0025489677 0.023687834 0.0020380695 -0.01057212
000010 89 22 c9 bb 8d 7e 9e 3c 02 3b 10 bc 76 b4 37 3c
       -0.00613815 0.019347453 -0.008803131 0.011212459
000020 c8 71 e5 3a 8a cd 9b 3b dc 46 3b 3c 81 d2 55 bc
       0.0017505223 0.004754727 0.011430468 -0.013050676
000030 43 19 a2 bb 8f 72 07 3c 7b ff 4c 3c 12 2a 49 3c
       -0.004946859 0.008267059 0.012512083 0.012278097
000040 83 b8 93 bc df e8 c3 bc 15 38 14 ba 40 16 9a 3b
       -0.018032318 -0.023914753 -0.0005654109 0.0047023594
000050 7e cd c9 ba 13 4e 51 bb af d6 04 bc c6 54 64 b8
       -0.0015396324 -0.0031937405 -0.008107825 -5.4438387e-05
000060 d5 13 e9 3c d8 03 a4 bc b0 89 17 3c 16 a2 9d bb
       0.02845184 -0.020021364 0.009249136 -0.004810582
000070 c8 26 c5 3b d2 dc 80 3b 1f af ac bc fe a8 78 3c
       0.006016586 0.003932574 -0.021079598 0.01517701
000080 df d5 f0 3c e0 14 cd 3b 30 e3 b6 3a 8b 80 32 bd
       0.029398857 0.006258592 0.0013953205 -0.04357962
000090 15 7c 0c bd eb ac a0 3c de 4f a8 bb a8 0e a7 3c
       -0.03429802 0.019613704 -0.005136474 0.02039273
0000a0 8d 8d 3d bc b3 fb 90 3c 66 f9 a8 3c b0 e3 d7 3c
       -0.011569393 0.017698145 0.020626735 0.026353687
0000b0 05 9c 39 bd 3b 5b 80 3c 4b f8 70 3b 65 02 a3 3c
       -0.045314807 0.015668502 0.0036769088 0.019898603
0000c0 7f 9e 19 3c 30 7e 95 bc d4 79 0e 3c 86 d0 d1 3c
       0.009376167 -0.018248647 0.008696038 0.025612127
0000d0 32 a1 94 bc 42 55 87 3b d4 41 15 bd 5a dd ee bc
       -0.01814327 0.0041300366 -0.03643973 -0.029158283
0000e0 22 a9 92 3c 2c d6 25 3a 40 95 a7 bc 36 c8 ae 3c
       0.017902914 0.00063261646 -0.02045691 0.021335702
0000f0 4c fe 44 bb 42 06 45 3a 04 f0 1e bb ce ed 2d bd
       -0.00300588 0.0007515886 -0.0024251947 -0.042463116
000100 b4 11 98 3c 11 0c 11 bc 70 7c d3 3c 9c d8 95 3c
       0.018563129 -0.0088529745 0.025816172 0.018291764
000110 85 e5 00 bd 91 6d b2 3c f0 c1 82 3c b5 f7 23 3d
       -0.031468887 0.021780761 0.015961617 0.040031154
000120 e3 43 53 3c 64 7f 7f bd e6 0f 93 bc 4d e0 15 3d
       0.012894603 -0.06237735 -0.017951917 0.036590863
000130 a0 67 64 3b f5 8f 14 bc 40 51 2f 3d 79 51 15 3d
       0.0034851804 -0.009067525 0.042802095 0.03645465
000140 30 d4 a4 bb c7 78 96 3c ea 68 20 bd df 34 10 3d
       -0.0050301775 0.018368138 -0.039162554 0.03520667
000150 f0 56 86 bc 04 57 d2 3c cd 5b 20 3d 2a df 11 bc
       -0.016398877 0.025676258 0.039150048 -0.008903304
000160 6d a9 af 3c 4f 61 10 3d 54 cd 0c 3d 9f 31 21 3c
       0.021443093 0.03524905 0.034375504 0.009838491
000170 e1 1e cc bc 00 4e e6 bc b1 92 b0 3b 7e 01 a9 bb
       -0.024917068 -0.028113365 0.0053885807 -0.0051576486
000180 7b 2a 4b bc e2 4f 40 bb 77 42 1f 3d e0 9e 82 3a
       -0.012400265 -0.002934449 0.038881745 0.0009965561
000190 4b 38 4a bc ba 07 b9 3b c5 ec d6 3c 95 06 15 bd
       -0.012342523 0.005646673 0.026235947 -0.03638323
0001a0 7c 52 ec 3a 00 c1 77 3c 34 bc 34 bc 99 13 9f 3c
       0.0018029953 0.015121698 -0.011031199 0.019418525
0001b0 51 8b fe 3b 58 7a 95 3c f3 54 83 bb 4f 17 c5 bc
       0.0077680727 0.018246815 -0.0040079295 -0.024058966
0001c0 c4 3f f5 bc c6 3e d1 bb 20 df fd bb 15 1c 26 3c
       -0.029937632 -0.006385657 -0.007747546 0.010138531
0001d0 9e 5d 8d 3b c2 16 9a 3c dc fa 03 3b 18 ad f1 3a
       0.0043141386 0.01880968 0.0020138538 0.0018438427
0001e0 f8 1c ff 3b 8a f3 17 3c 40 4c 9a 3c 66 4e 88 3c
       0.0077854358 0.009274373 0.018835187 0.016638946
0001f0 d7 54 40 3c be 6b 07 bb e1 70 2f 3b 79 41 16 3c
       0.011738977 -0.0020663585 0.0026770162 0.009170883
000200 2e 53 34 bb 81 e7 97 3b 64 89 6a 3a 76 e7 90 bc
       -0.00275154 0.0046357517 0.00089468644 -0.017688494
000210 00 5e 06 38 1f 9c 3e 3b 1c cc d6 3b c2 2d 1f 3c
       3.2035634e-05 0.0029084755 0.0065550935 0.009715499
000220 98 ad 95 3b 56 2a cf bb c8 89 35 bc 82 83 48 3b
       0.004567813 -0.0063221855 -0.011080213 0.0030595963
000230 e4 58 4b 3a 0f 9a 96 3b 81 a8 13 3c c4 27 4e bb
       0.0007757081 0.004596002 0.009012342 -0.0031456808
000240 0b 0a 06 bc 33 51 b4 3b f9 3a 67 3b 0d f8 87 ba
       -0.008181105 0.0055028438 0.0035282953 -0.0010373608
000250 fe 74 e4 b9 6f c5 cc 3b 4a 90 3f bc 4a 9a b2 bb
       -0.00043574715 0.006249122 -0.011692116 -0.0054505216
000260 40 9d 15 3b 94 96 d4 3b 00 66 cf ba 30 a5 13 3c
       0.0022829324 0.006487677 -0.0015823245 0.009011552
000270 a2 eb b6 bb ab 59 06 bc fe ca 84 3c 9c fe c7 b9
       -0.005582289 -0.008200089 0.016210075 -0.00038145937
000280 a4 94 a2 3c f1 d0 b4 3b ff ae 11 3b ab 65 08 3c
       0.019846268 0.005518072 0.002222955 0.008325021
000290 f7 a8 c3 3b 18 bf d7 b7 29 b1 24 3c 9e 42 15 3b
       0.00597107 -2.5718982e-05 0.010052004 0.0022775303
0002a0 d9 d2 c8 ba 3b ff 87 bb 1b 84 94 39 96 bc 81 ba
       -0.0015321627 -0.004150299 0.00028327186 -0.0009898122
0002b0 8f fe 42 3b ce 73 2a bc e3 3d ee ba fa 25 78 3b
       0.002975378 -0.010403587 -0.0018176403 0.0037864433
0002c0 0e 0b 55 bc 7e 45 21 bb a5 52 4f 3c f7 70 8a 3b
       -0.013003124 -0.002460807 0.012653981 0.0042248922
0002d0 51 02 d4 3b b6 9d 97 bc ce 65 6e bc d2 66 18 3b
       0.0064700027 -0.01850782 -0.014550639 0.0023254645
0002e0 15 39 00 3c 82 82 4c ba 14 2e 88 3c 65 72 c4 3a
       0.007826109 -0.00078014296 0.016623534 0.0014987706
0002f0 a0 3f 09 b7 fd 5c ec 3c 5d 09 3e ba d5 15 3a bc
       -8.18065e-06 0.028852934 -0.000724932 -0.011357744
000300 d3 23 96 b9 93 5d 3f 3b a3 64 d1 bb 1b 06 b8 bb
       -0.0002863692 0.0029200062 -0.0063901707 -0.005615962
000310 7c 93 ac 3b 16 8d d7 ba 6e f2 69 b9 fd 45 f1 3b
       0.005266605 -0.0016445245 -0.00022310924 0.0073630796
000320 1e cc 37 bc 1a 27 0a 3c 6e af 99 3c 88 54 b1 3b
       -0.011218099 0.008432174 0.01876041 0.0054116882
000330 fa e0 9b bb 50 da 6f bc 49 e1 80 3b 29 ff 79 ba
       -0.004757044 -0.014639452 0.003933106 -0.0009536618
000340 0e 87 20 3d c0 6d 16 bc 5c 37 a3 bc 61 c4 70 3b
       0.0391913 -0.00918144 -0.019923858 0.0036738145
000350 e4 c3 13 bc 19 91 bb bb 14 bd 1b bc e7 b2 ef 3a
       -0.009018872 -0.005724084 -0.009505529 0.001828757
000360 6b 58 12 bb ef fa 01 3c 10 35 99 bb cb fb 81 bc
       -0.0022330533 0.007933362 -0.004675515 -0.015867135
000370 1b 35 91 bc 13 dd 75 3c 97 17 ad 3b 88 27 92 3b
       -0.017725518 0.0150063215 0.005282353 0.004460279
000380 8b 1e 93 bb a6 e1 bc 3c 72 d2 1e 3c e7 72 cd 3c
       -0.004489725 0.023056816 0.009693729 0.025079204
000390 08 f0 d6 bc 57 2d 6d 3c ae 46 0d bb 95 92 90 3b
       -0.026237503 0.014476142 -0.002155702 0.004412005
0003a0 ff cc 75 3b 0e 5a 92 39 33 91 da 3b 30 51 59 b8
       0.003750622 0.00027914386 0.006670141 -5.1812443e-05
0003b0 86 dd 46 3c af c1 79 3c f6 00 76 bc 41 10 41 3b
       0.012137776 0.015243932 -0.015014878 0.002945915
0003c0 b8 9f 46 3c 40 7f 8e 3c f4 4d b9 3c 10 b6 48 3b
       0.012123041 0.017394662 0.022620179 0.0030626096
0003d0 0b d1 22 3c 9d 5c de 3c 2b 9c a1 3c 4f cf 97 bc
       0.009937535 0.02714377 0.019727787 -0.01853147
0003e0 20 79 2e 3c 06 ca ef bb ee 13 5e 3a 18 e2 4b bb
       0.010648996 -0.0073177842 0.00084715977 -0.0031110104
0003f0 06 b3 99 bc 25 3b b7 3c 8a 2a ff bb cf d1 13 3c
       -0.018762123 0.02236707 -0.0077870535 0.00902219

linear.bias f4 [3]
000000 22 86 0f bc 4d 2e 68 3c 6e ee 6c bc
       -0.008760007 0.014171195 -0.014461143
