models/aisf/void_20230517_113634.pth (torch, 655075 bytes, 10 tensors)

conv1.0.weight f4 [16, 1, 3, 3]
000000 62 21 8d be 7d d1 6b 3e f4 02 0c 3e d3 6c ee 3b
       -0.27564532 0.23029132 0.13673002 0.0072761565
000010 89 92 15 be 21 2a bc 3b ef 8f e5 3d 51 26 18 bd
       -0.1460668 0.005742327 0.11209094 -0.037145916
000020 28 90 9c 3e 46 00 ac be 8f 84 6c bd ed cf cb bd
       0.30578732 -0.3359396 -0.057743605 -0.09951768
000030 0c f4 96 3c 93 2b 45 be 1f 8d 25 be e4 d3 51 be
       0.018426917 -0.19254903 -0.16167115 -0.20490986
000040 b1 13 6a 3e c1 48 07 3e e0 76 1f bd 12 f9 2a bd
       0.22859074 0.13211347 -0.038931727 -0.04174144
000050 0c 31 05 3e 67 76 72 3e e2 ee ab bd 74 2c a7 3e
       0.13006991 0.2367798 -0.08395173 0.32651103
000060 1d 5f 40 bd 9b 23 09 be 42 40 07 3e fb 7b 0d 3e
       -0.046965707 -0.13392489 0.13208106 0.13816826
000070 fb bd 17 be 56 7a 34 3e 6e f4 28 be f8 1f 1c 3e
       -0.14818566 0.17624792 -0.16499493 0.1524657
000080 64 2b 1e 3d d2 4a bf 3d d0 dc 96 3e 2c 11 8c be
       0.0386156 0.09340443 0.29465342 -0.2735685
000090 20 e6 e1 3d 95 4c 8d be 9f 7e db bd a7 3b 97 be
       0.11030221 -0.2759749 -0.107175104 -0.295377
0000a0 06 0c 0d be 38 e1 a7 3e b5 49 a2 be 45 85 8f be
       -0.13774118 0.32789016 -0.3169686 -0.28031364
0000b0 33 fa 0f be ca 40 85 be e3 56 9b 3d 35 9f 22 3e
       -0.14060287 -0.26025993 0.07584932 0.15881045
0000c0 19 24 56 be 1e 77 85 3e 93 57 38 3d 67 f2 4f 3e
       -0.20912208 0.26067442 0.045005392 0.20307313
0000d0 93 2c 23 be 64 68 92 be 25 dd 5a be b3 49 49 3e
       -0.15934972 -0.2859527 -0.21373422 0.1965702
0000e0 4d 79 29 be 93 14 31 3e 61 0e 84 3e 69 e3 88 be
       -0.16550179 0.17293005 0.2579222 -0.26736
0000f0 6f 37 9e 3e e1 8c 0d 3e ba 04 a6 3e a1 7e e4 3c
       0.30901667 0.13823272 0.3242548 0.027892413
000100 9b 31 5a 3e 3e cc af 3e 8f 6c 2c 3d 1e 4e ab bb
       0.21307985 0.34335512 0.042095717 -0.005227818
000110 f8 12 fc bd 8d 1f 1e 3e ae b2 39 3d a3 e5 32 3d
       -0.123083055 0.15441723 0.045336418 0.04367603
000120 32 d9 38 be 6a a9 6e be fd 38 7a be 89 06 03 be
       -0.18051603 -0.23306814 -0.24435802 -0.12795462
000130 e8 54 12 be 52 e5 8d bd 1f 2d 8a 3e f1 29 9c be
       -0.14290202 -0.06928505 0.2698755 -0.3050075
000140 42 f6 81 3c 73 40 3a be af d7 a0 be 08 d4 59 be
       0.015864495 -0.18188648 -0.31414554 -0.2127229
000150 18 01 1d 3d 18 4e 79 3d 0e 95 90 be ae aa a3 be
       0.03833112 0.06086549 -0.2823872 -0.31966156
000160 20 e5 33 bc 20 b3 ff bd 80 11 6d be fe a3 27 bd
       -0.010979921 -0.12485337 -0.23151207 -0.04092788
000170 d9 ba 2b be 80 fd 54 be 29 9f 23 be e4 15 57 3e
       -0.16770495 -0.20799828 -0.15978684 0.21004444
000180 5e a2 35 3e a9 08 72 3e 9a 43 1f 3e db 64 84 3e
       0.1773772 0.23636116 0.15553132 0.25858197
000190 30 66 99 be b3 35 2d 3e 48 3a d5 bd 70 13 c1 3c
       -0.29960775 0.16915016 -0.10411507 0.023568839
0001a0 e1 fc 43 bd 4b 56 43 be b3 ca 22 3d 12 72 02 3e
       -0.047848586 -0.19075887 0.03974409 0.12738827
0001b0 b6 1c 09 be 7e fb d5 bc 7a f7 3e 3e 05 8c 58 3e
       -0.13389859 -0.026120897 0.18649092 0.21147163
0001c0 86 57 10 be 33 14 98 be 99 ad 49 3c 01 a3 98 3e
       -0.14095888 -0.2970291 0.012309455 0.29811862
0001d0 2a f5 f0 3d 8a 17 a6 ba 99 ab 67 be 8b af 57 3e
       0.11765511 -0.001267181 -0.22624053 0.21063058
0001e0 a2 b4 91 be 6d 9c 2c be f5 95 a6 be 64 62 96 3e
       -0.28458124 -0.16856547 -0.32536283 0.2937194
0001f0 f4 6f 60 3e 0d 7b b4 3e 3c 8e 9b 3e 55 1d 38 be
       0.21917707 0.3525013 0.30381954 -0.1797994
000200 c3 24 95 be 4d b3 8b 3e a2 c7 7b 3e 1b d1 1f 3e
       -0.2912961 0.27285233 0.24587873 0.15607111
000210 8b b5 92 3e 4a 97 7e be 7a 2b 8a 3d e2 6b 68 be
       0.2865413 -0.248624 0.06746574 -0.22697404
000220 6b df 8c be 70 fb da bc 17 98 a3 be de 30 d4 bd
       -0.27514204 -0.026731223 -0.31951973 -0.10360883
000230 89 14 91 3e 8b 7b 8a 3e 84 a7 1a be 5c 5b 51 bd
       0.2833598 0.2704738 -0.15102965 -0.051112518

conv1.0.bias f4 [16]
000000 04 ae 9d ba 2f 58 31 be 11 95 7e 3e 15 6d 2c be
       -0.001203001 -0.17318796 0.24861552 -0.16838486
000010 eb 2c 89 be 2d 2b fd 3d 87 9e a8 be 7f 73 07 be
       -0.26792082 0.12361751 -0.32933447 -0.13227652
000020 29 c8 20 be e8 48 0e be 5b e7 d7 bd c5 a1 a1 be
       -0.15701355 -0.13894999 -0.105421744 -0.31568733
000030 da b6 46 3e 40 58 60 3e d8 b0 ff 3d fb 53 4d 3d
       0.1940569 0.21908665 0.12484902 0.05012892

conv2.0.weight f4 [32, 16, 3, 3]
000000 af 23 db 3c ff ac 36 bd 60 f1 38 3b 17 af 5a bd
       0.026750414 -0.044598576 0.0028220043 -0.053389635
000010 e7 bc 19 3d 6c 2e 9d bd 93 18 aa bd 3b 9c 2c 3d
       0.037533667 -0.0767487 -0.083054684 0.04214118
000020 3f 57 8d 3d 13 5f 80 3d 02 ec 84 bb a0 a0 15 3d
       0.069014065 0.06268134 -0.0040564546 0.036530137
000030 6e ee 87 bc af 3b 6f bc 43 cb 8f 3d f5 03 28 3d
       -0.016593184 -0.014601632 0.07021191 0.0410194
000040 58 24 69 3d 36 23 b1 3d 79 80 20 bc dd d2 03 3d
       0.056919426 0.08649294 -0.009796255 0.032183517
000050 8e 8a 90 3d 3b 85 9f 3b f1 70 98 bd 1a 9f 31 bd
       0.07057677 0.004868177 -0.07443417 -0.04336462
000060 2b f7 34 bd 90 60 e4 bc 54 45 7c bd f2 d9 81 bd
       -0.04418103 -0.027878076 -0.061589554 -0.06340398
000070 b4 53 4c 3d 5f ad 65 3d 24 05 23 bc ba 79 1a bd
       0.049884513 0.056073543 -0.009949956 -0.037713744
000080 ca 82 0e bd 40 a3 4d 3d c5 a2 84 3d 59 08 19 3a
       -0.0347927 0.050204515 0.06476358 0.0005837731
000090 c2 96 71 bd c2 ae 9d bd 73 0f 02 ba e5 88 80 3d
       -0.058981664 -0.07699348 -0.00049614086 0.062761106
0000a0 7c 69 62 3c 0d b5 09 3d 31 da 29 3d 97 5b cc 3c
       0.013819095 0.03361993 0.04146785 0.024946017
0000b0 25 95 c4 bc 60 2d 1e 3d 19 77 95 bd d3 92 89 3c
       -0.023996899 0.03861749 -0.07298107 0.016793644
0000c0 43 cc 68 bd c9 de 2c bb db ca 81 3d 6f ef e9 3c
       -0.056835424 -0.0026377907 0.0633752 0.028556554
0000d0 cd c4 33 bd 37 3e 9f 3c 8f f6 06 bc d1 0a 6d 3c
       -0.043888856 0.019438846 -0.008237495 0.014467911
0000e0 59 63 b1 bd 4d 2b a3 bd 86 32 30 3d 06 c7 32 3d
       -0.08661527 -0.07967243 0.043016933 0.043646835
0000f0 9c 89 bb 3c d8 0f 54 bd 2b f8 94 bd c8 fc a2 bc
       0.022892766 -0.051772922 -0.07273897 -0.019895926
000100 e4 93 db 3c 5b f1 b4 bd 7c 9e 56 3d 44 ff 86 bc
       0.026803918 -0.088350974 0.052397236 -0.016479142
000110 e6 47 86 3d c4 3f 80 bd 17 9e 77 bd c1 61 80 bd
       0.06556682 -0.06262162 -0.0604535 -0.06268645
000120 e4 a3 9e 3c 2b 0e 76 3d e9 a2 d4 3b e9 02 03 3c
       0.019365259 0.060072105 0.006489147 0.007996299
000130 00 dc 49 3d 6d b3 68 3d 9f dc b0 bd 32 fe 9c 3d
       0.049282074 0.05681174 -0.0863583 0.076656714
000140 06 d2 96 bd 9c 41 92 3c 75 87 96 3d 78 99 2a bd
       -0.073642775 0.01785355 0.07350055 -0.041650265
000150 f8 da 51 bd 8e 11 7b bd b5 96 93 3d c0 59 ad 3b
       -0.051234215 -0.06129604 0.072064795 0.00529024
000160 0b ee 4e bd 60 98 7e bc a6 66 aa bc 0e 66 5f bd
       -0.050519984 -0.015539259 -0.0208009 -0.054540686
000170 39 eb db 3c c8 f3 99 bb 2e 48 41 bd de 57 4c 3d
       0.026845561 -0.0046982504 -0.047187977 0.049888484
000180 88 72 41 3b 70 53 13 3d 9d 3d 89 3d b1 44 6a 3d
       0.0029517729 0.035968244 0.06701205 0.057194415
000190 be a6 3e bd 1e dd 21 bd 61 c2 1c 3c 9b 06 af bd
       -0.046545736 -0.039517514 0.009567828 -0.08546182
0001a0 9f b7 08 3d f1 1e 0f 3d ff f1 42 3c 7e 13 af 3d
       0.03337824 0.034941617 0.011898517 0.0854864
0001b0 d6 3f 83 bd 7a 57 de bc 41 9c 91 bd 8a 3b 8e bd
       -0.0640866 -0.027141321 -0.07109881 -0.0694495
0001c0 ec f8 af 3b 70 38 c0 3a 66 e9 36 bd 51 54 48 bd
       0.00537025 0.0014665257 -0.04465618 -0.048908535
0001d0 16 11 91 bd 7c d3 a6 bd ea 1c a7 bd 4d 3a 87 3c
       -0.07083337 -0.08145806 -0.08159812 0.016507292
0001e0 f9 f1 16 bd d3 4c 36 bd f0 c7 57 bb 33 80 65 bc
       -0.036851857 -0.04450686 -0.0032925569 -0.014007616
0001f0 d5 62 be bc f2 ec 07 bc 70 83 89 bd 42 c3 d6 3c
       -0.023240486 -0.008296238 -0.06714523 0.026216153
000200 31 f0 08 3d ce 45 94 3d 1c 26 99 3c f2 22 4f 3d
       0.03343219 0.07239877 0.01869493 0.050570436
000210 fc b2 47 bd 29 25 2e 3c a4 7e ec 3c 86 67 9d b9
       -0.048754677 0.010628977 0.02886898 -0.00030022505
000220 c2 a6 7a bd da 99 f3 3c 85 7d 88 3d dc bd c2 bc
       -0.06119419 0.029736448 0.06664566 -0.023772173
000230 cf d7 91 3c f4 2f 83 bd 07 50 1a 3d e1 bc d8 3c
       0.0178031 -0.06405631 0.037673976 0.026457252
000240 43 47 00 3d ec 73 5e 3d 6b 31 52 bc 97 d0 47 bd
       0.03131796 0.05430977 -0.012829165 -0.04878291
000250 6b af 70 3c 24 88 df 3c bd 95 39 3d 92 50 f8 3c
       0.01469026 0.027286597 0.045308817 0.030311856
000260 51 a2 17 bd c7 52 19 bd f3 ce 22 3d 42 08 e9 3a
       -0.03702003 -0.03743246 0.039748143 0.001777895
000270 ae 0a e7 bb 24 53 2c bc d6 e0 45 3d 5e 22 63 3c
       -0.0070508337 -0.010517869 0.048310123 0.013863174
000280 0f b9 86 bc 93 32 ae 3c 4a 33 3e 3d 14 1d 0f bd
       -0.016445665 0.02126435 0.04643563 -0.03493984
000290 e9 31 d9 bd 1c 91 c2 b9 18 1d 77 bd b5 0f 1c bd
       -0.10605223 -0.00037110678 -0.06033048 -0.038100917
0002a0 08 5b da bc c5 ab 8e bd dd 46 89 3d e5 84 cc 3d
       -0.026654735 -0.06966356 0.06702969 0.09986285
0002b0 93 1c 57 bd bd e5 d0 3c f5 89 24 3d 66 6f 89 bb
       -0.052517485 0.025500173 0.04017063 -0.004194188
0002c0 55 37 9e 3a 94 47 f0 bb 26 8a 0f bd 73 bf 68 bd
       0.0012070934 -0.0073327515 -0.035043858 -0.056823205
0002d0 2d 4f f9 bc d6 9c 06 3d 6b 43 f1 3b 25 d8 6b 3d
       -0.030433262 0.032864414 0.007362773 0.05757918
0002e0 92 7a 0e 3d 61 8f 82 3d f1 0d 32 bd 5b de 68 3d
       0.03478486 0.063750036 -0.043470327 0.05685268
0002f0 25 40 8c 3c f5 b2 c4 3d a8 26 ac 3b 74 68 64 3c
       0.01712043 0.09604446 0.0052536316 0.013940919
000300 31 7b 12 3d 27 03 a6 3d ba 7a 9f bd 18 ae 1f bd
       0.035762016 0.0810607 -0.0778708 -0.038984388
000310 1e f8 e8 3c 37 bf c0 3c 54 c1 83 bc 56 85 3b 3d
       0.028438624 0.023528678 -0.016083397 0.045781456
000320 69 59 6b bd 54 6e 89 bd 9b 38 0e bd 28 ec 82 3d
       -0.057458315 -0.067104965 -0.034721952 0.063926995
000330 87 25 01 3d 6b 31 8f bd ac 44 2f 3d 1a 13 58 ba
       0.03152993 -0.069918476 0.0427901 -0.00082425924
000340 c4 db b9 bc 57 1b aa bc 86 de c9 bc e0 e9 a1 3b
       -0.0226878 -0.02076499 -0.02464224 0.00494121
000350 ff 46 05 3d ba 32 f7 bc 80 50 19 bd 69 0f 13 bd
       0.03253841 -0.030175555 -0.037430286 -0.03590337
000360 18 77 99 3d df 16 d2 3c 76 ab 7d 3d 03 61 73 3d
       0.074934185 0.025645671 0.061931096 0.05941869
000370 3a e5 08 3d a3 9b 18 bd 47 fd 88 bc a7 c7 a6 bd
       0.033421732 -0.0372578 -0.016722335 -0.081435494
000380 51 62 8a 3c 7c ec 82 bc 9b 2a 24 bd 8e 51 25 3d
       0.016892584 -0.015981905 -0.040079694 0.04036098
000390 b6 4a 14 3d d8 d1 0d bc 86 cb 63 bd 5d bb a8 3d
       0.036204062 -0.008655988 -0.055614017 0.08238862
0003a0 58 34 0f bd f2 4b 35 3d 7d 40 93 3b 28 39 96 3d
       -0.03496203 0.04426188 0.0044937716 0.073351204
0003b0 9a e0 d7 3c 79 be 60 3d 16 da cb 3c 20 36 e1 bc
       0.026352216 0.05486915 0.024884265 -0.02749163
0003c0 e1 c6 bb bd e8 7e e3 bc 4e d6 ba bd f0 0f 9b 3d
       -0.091687925 -0.027770475 -0.091229066 0.07571399
0003d0 c5 b6 18 bc 9f 9d ed bc 37 62 17 bd 7b 49 97 3d
       -0.009320919 -0.029005824 -0.0369589 0.07387062
0003e0 50 c6 9f bd e8 6d 99 3d 85 bd 74 bc b5 b2 64 3d
       -0.07801497 0.07491666 -0.014937763 0.05583449
0003f0 99 fb d4 bc 59 35 01 bd 2d 8e 41 3d 56 54 ac 3d
       -0.025998877 -0.031545017 0.04725473 0.08414523

conv2.0.bias f4 [32]
000000 ec ec 82 bd 4a 45 4c 3d 85 de bd bd 09 10 36 bd
       -0.063928455 0.049870767 -0.09270958 -0.044448886
000010 c1 85 8f bd ec 90 be 3d 5d 19 81 bd 16 01 49 bd
       -0.070079334 0.093049854 -0.06303666 -0.0490733
000020 b4 25 11 bd 2f 4c 2b 3d 5e 4b 0e 3d c7 76 b2 bc
       -0.035436347 0.0418207 0.034739845 -0.021785153
000030 0c 97 bb bc 64 07 ca 3c 55 97 8c bd 4f a9 0c 3d
       -0.022899173 0.024661727 -0.06864802 0.034341153
000040 f8 4b 20 bb b7 16 05 3d 0d f5 51 3d 61 29 80 3c
       -0.0024459343 0.032492366 0.05125909 0.015644731
000050 da ed 8d bd 29 7b 19 3d c1 0a 6d 3d a9 48 a7 bd
       -0.06930132 0.03747097 0.057871584 -0.08168156
000060 90 91 2e 3d 41 3b b0 3d 3c 19 d7 bc 4c d0 2e 3d
       0.042619288 0.08605052 -0.02625715 0.042679116
000070 f8 ed b7 3d e1 40 c8 bd fb a6 bd bd 7d fb c1 bc
       0.08980936 -0.09778 -0.092603646 -0.02367949

conv3.0.weight f4 [64, 32, 3, 3]
000000 6f 7e 63 3d 08 e2 d2 3b 93 96 91 bd c9 0e 58 bd
       0.0555405 0.0064356364 -0.07108798 -0.052748475
000010 8c ae 2b 3d 8c 65 81 3d 39 2e 7d bb fc 2a 15 3d
       0.041914508 0.06318197 -0.0038632287 0.036417946
000020 af 69 a8 bb 32 2a 04 3c d2 d2 10 bd 22 da 98 bc
       -0.0051395516 0.008066701 -0.035357304 -0.018658701
000030 31 e7 e1 bc fc aa 8a 3a ff 9a a8 bc 98 57 12 3d
       -0.027576061 0.0010579522 -0.02058172 0.035728067
000040 89 e3 f4 bc 74 60 2a bc cb f8 ef 3c 36 bd 1f bd
       -0.029893653 -0.010398973 0.029293438 -0.038998805
000050 91 d4 60 bc 9f 34 31 3c 0c d5 8c 3d 1d b3 b1 3b
       -0.013722555 0.0108157685 0.06876573 0.0054229633
000060 67 26 0b bd 9d 4d d8 bc 7d 2c de 3a 4f b9 10 bb
       -0.03397217 -0.026404196 0.0016950514 -0.0022083109
000070 00 5d 22 3d 62 d8 0c bd cf 58 ba 3c 3f ad 83 3d
       0.039639473 -0.034386046 0.022747425 0.064295284
000080 73 65 78 3c 72 0d 9c 3c be 85 47 3d 2a 79 79 3d
       0.015160906 0.01904938 0.04871153 0.060906567
000090 1c 82 83 bd 2d a0 51 3d 81 c5 d8 bb 16 77 2f bd
       -0.06421301 0.051178146 -0.006615341 -0.04283818
0000a0 c2 d3 6b 3c dc 24 3f 3d 2e 25 fc bc ee c0 46 bc
       0.014393749 0.04666601 -0.030779447 -0.012130959
0000b0 16 37 01 bd 2f fc a9 3d 1b 4c ba 3b e5 06 c6 bc
       -0.031546675 0.08300053 0.005685342 -0.02417321
0000c0 e7 84 1c 3d 74 e5 cf 3c ad 78 e6 bc 1e 82 f8 3b
       0.038212683 0.025377966 -0.028133715 0.0075838706
0000d0 b3 3b d9 ba 85 4f c4 b9 86 09 57 bd 9a fb ae 3c
       -0.0016573578 -0.0003744328 -0.052499317 0.021360207
0000e0 a1 fe 26 bc b6 b3 b3 3b 0d 9f af bc c9 03 9e bb
       -0.010192544 0.0054840697 -0.021438146 -0.0048222286
0000f0 57 97 31 3d be d0 8f 3c 29 e9 69 3d 07 0c dd bc
       0.04335722 0.01755559 0.057107124 -0.026983274
000100 c7 06 2e 3d ee 99 f6 3c 25 1f 41 3d 39 39 86 3c
       0.042486932 0.030102696 0.047148842 0.016384708
000110 b2 df cc bc f6 ed 49 bd 5a 6b 65 bd 3b 71 1a bd
       -0.02500901 -0.049299203 -0.05601058 -0.03770564
000120 9b fd f2 3c 2f 0f 84 3d c9 cb 07 bd e8 15 e4 3b
       0.029661944 0.064482085 -0.03315333 0.0069606192
000130 51 da 8b 3d 49 60 36 bc ed 45 2f bd 3c 2e f7 bc
       0.0682875 -0.011131355 -0.042791296 -0.030173413
000140 1a d5 ac 3c df fd 56 bd 01 c0 1a bd b5 b7 8b bd
       0.021097708 -0.052488204 -0.037780765 -0.06822149
000150 a0 27 39 3d 4e ad f2 bc d3 4f 27 3d d8 a2 b3 3c
       0.045203805 -0.029623654 0.04084761 0.021928236
000160 0a 10 24 bc 9f f9 86 3c 3d c1 c3 3c 18 cc 9c 3c
       -0.01001359 0.01647645 0.023895854 0.019140288
000170 f7 c6 64 3c 93 39 5e 3d 06 fa 91 3b e6 53 72 3d
       0.013963453 0.054254126 0.004454854 0.059162043
000180 58 50 89 bd 94 1b 94 3b 85 f2 7d 39 36 ec 85 bd
       -0.067047775 0.004519889 0.00024218306 -0.06539194
000190 7e 59 05 bd 93 d9 c3 bc 34 f5 e5 bb a0 ef 53 bc
       -0.03255605 -0.023907458 -0.007017756 -0.012935549
0001a0 0a 31 df bc 51 d0 4d bc d7 1e 90 bc e4 f2 41 3d
       -0.027245063 -0.0125618735 -0.01759283 0.04735078
0001b0 de ec 02 bd 0b ad e0 bc 70 74 f8 bc 8b 19 6e 3d
       -0.031964175 -0.027426263 -0.03032896 0.05812983
0001c0 1b 0a b5 3c 90 bc 2c 3b 9a 41 1c bd 18 c4 02 3d
       0.022099545 0.002635751 -0.0381485 0.03192529
0001d0 e0 2e b3 3c a2 d4 be 3c 31 31 60 bc 6c d6 df 3b
       0.021872938 0.02329475 -0.013683603 0.006830981
0001e0 1d 0f 93 bc 27 56 91 bc 4f cf fb 3c 52 db 9e bd
       -0.017951543 -0.017741276 0.0307385 -0.07756676
0001f0 83 83 80 bc 24 69 10 bd af ce df 3b a3 86 04 3d
       -0.01568771 -0.03525652 0.0068300585 0.032354962
000200 f6 58 1a 3d 96 a3 6f bc 64 be 62 3d 05 5b c8 3c
       0.037682496 -0.014626404 0.055357352 0.024457464
000210 0a a9 79 bd 73 bc bd bc f6 cd fc 3c d4 91 60 bd
       -0.060952224 -0.023161149 0.030859929 -0.054826573
000220 99 97 2e bd 05 b4 27 3d d4 1c 6a 3c f0 e8 05 3d
       -0.042625044 0.040943164 0.0142891 0.03269285
000230 0b 62 6e bd 18 72 10 3d b5 02 cf 3c 29 7e 00 bd
       -0.05819897 0.03526506 0.025269846 -0.031370316
000240 fa 8d c5 bc 87 85 3b bc 92 0b 32 bc 40 b8 d9 3c
       -0.024115551 -0.01144541 -0.010867016 0.026577115
000250 90 f4 02 bd fe 0a 11 3d 3d b9 2a bd b1 df ae 3b
       -0.031971514 0.035410874 -0.041680563 0.0053367247
000260 25 6e 51 bd 7f 2e 6c bd 98 17 ba 3c 7a b2 3a bd
       -0.051130433 -0.05766153 0.022716329 -0.045580365
000270 b8 1c 25 3d df a8 3f 3d bd 6c 70 3b 42 73 46 3c
       0.04031059 0.046791907 0.0036685907 0.012112441
000280 1a be 98 39 d3 10 7c 3d 0d 50 00 3d 73 3a 42 bb
       0.00029133336 0.061539482 0.031326342 -0.002963689
000290 81 a4 01 bd 1d 9f 86 bc 2b 68 21 bc b4 a9 2b 3d
       -0.031651024 -0.016433293 -0.009851496 0.04190989
0002a0 f3 77 06 3c 8b 1f e6 3a 7e 58 3c bc ec d9 c4 3a
       0.008207309 0.0017557008 -0.011495708 0.0015018559
0002b0 4d 8c 9e bc 7e 6c a2 3d 6e da d9 3b fe 5e 36 3d
       -0.01935401 0.079308495 0.0066483533 0.044524185
0002c0 2e aa ad 3c 60 05 43 bb ae 0f e9 bc ef e2 81 bc
       0.021199312 -0.0029757842 -0.02844986 -0.01585528
0002d0 e8 64 89 bc 57 b2 82 bd 88 17 b1 3c 70 c8 c2 bc
       -0.016771749 -0.06381672 0.021617666 -0.023777217
0002e0 0c a2 26 3d eb e3 a4 3c 8d 6d 1c bd f7 00 23 3d
       0.040681884 0.020128211 -0.038190413 0.039795842
0002f0 58 a9 1f bd dc b8 2f bb 1d 1f 94 3c 5b d1 82 bd
       -0.03897986 -0.0026813066 0.018081242 -0.06387588
000300 95 45 0b 3c 12 12 2e 3d 8d 6d ef bc b2 4d 5c bd
       0.008500476 0.042497702 -0.029227043 -0.053785034
000310 c5 7b 3c 3d dd 9c 85 3d 19 0f 03 3d 8c ac 80 bd
       0.046016473 0.0652406 0.03199682 -0.06282911
000320 b2 a6 d7 bc 12 db 01 3a 7c ba 98 bc b5 a3 ec 3c
       -0.026324604 0.00049536035 -0.01864361 0.028886655
000330 e0 17 20 bd 51 27 a8 bc d1 9a 2d bd c7 cb 0d 3d
       -0.03908527 -0.02052656 -0.042383973 0.034618165
000340 11 64 94 bc a5 17 ac bc 14 66 10 3d 41 fb 8d 3d
       -0.018114122 -0.021007368 0.0352536 0.069326885
000350 42 99 1e 3d 16 4f 89 bc 29 4b 08 bd 35 9a df bc
       0.038720377 -0.016761344 -0.033274803 -0.027295211
000360 90 5a d9 3c 66 5a 73 3d a3 41 1c bd c4 17 eb bb
       0.026532441 0.059412383 -0.038148534 -0.007174464
000370 73 16 32 3c cb 05 d5 bc 34 f4 87 bd d2 d9 10 bd
       0.01086961 -0.026003739 -0.06638375 -0.03536398
000380 7d d5 07 bc 60 d7 23 bd 10 26 ce bc 5b 29 05 bd
       -0.008290646 -0.04000032 -0.025164634 -0.032510143
000390 9c e0 70 bd e8 e0 62 bc 1a 4b 5f 3d 13 43 1c 3c
       -0.058807954 -0.013847567 0.05451498 0.009537476
0003a0 82 f3 46 3d 01 d4 3d 3c c4 93 d3 bc e1 d7 86 3c
       0.04857207 0.01158619 -0.025827296 0.016460361
0003b0 3e dd b0 3c 23 45 92 bc bf fb 84 3d dc d0 99 3d
       0.021589871 -0.017855233 0.06493329 0.0751054
0003c0 88 16 85 ba 47 9d 9a 3b 06 9e 17 3c e1 13 47 3d
       -0.001015381 0.004718456 0.009253984 0.048602942
0003d0 eb 46 9f 3c 0c 6e 58 bd 0c f2 45 bc 08 87 10 bd
       0.019442996 -0.052839324 -0.012081634 -0.035285026
0003e0 a9 2c c4 bc 05 5f f3 bb 21 04 b1 3c 6e b7 ad bc
       -0.023947077 -0.0074270987 0.021608414 -0.02120563
0003f0 e0 fa 77 bd fa 77 c2 3b 86 b4 01 bd 83 00 5b bc
       -0.060541987 0.0059347125 -0.0316663 -0.013366821

conv3.0.bias f4 [64]
000000 a9 3f a2 bc bd 92 c1 3b 20 f3 ae 3c ed 27 19 3c
       -0.019805746 0.005907385 0.021356165 0.009347898
000010 13 a3 86 3b cd a2 af bc 34 27 70 bd 4c 0a 91 3a
       0.0041087954 -0.021439934 -0.058631137 0.0011065691
000020 1d e8 67 bd 4a e2 19 3d cd 59 44 3c 5d 4b 75 bd
       -0.056617845 0.03756932 0.011984301 -0.059886325
000030 a1 ad c0 bc b4 ee 95 bc 13 3a 80 bd 59 2d c2 bc
       -0.023520293 -0.0183023 -0.06261077 -0.023703264
000040 a6 30 26 bd d6 00 da bb 84 25 22 3d 78 6d 3c 3c
       -0.04057374 -0.0066529317 0.03958656 0.011500709
000050 2a 86 74 3d 73 f3 54 bd 51 04 3f bd a0 28 61 bc
       0.05969826 -0.051989984 -0.046634976 -0.013742596
000060 ac 65 60 bc 02 f5 3a bc bd 58 f7 3c b6 fb 25 3d
       -0.013696115 -0.0114109535 0.03019368 0.040523253
000070 d9 5c f8 3c 04 43 8a 3c e7 4c a9 3c 40 8e dd 3c
       0.03031771 0.016877659 0.020666553 0.02704537
000080 eb c7 8c bc 7e c6 50 3b 48 8b a8 3c 61 4f 03 bc
       -0.017185172 0.0031856592 0.020574227 -0.008014531
000090 08 55 8b bc 2e a3 8d 3d 43 5b 03 3c 3a 86 d3 bc
       -0.01700832 0.0691589 0.008017364 -0.02582084
0000a0 a7 b4 b5 bc 54 97 48 bd 85 0e 0b bd 4a de 7c bc
       -0.022180868 -0.048972443 -0.033949394 -0.015433857
0000b0 e6 3f 10 bc 10 30 20 bd 81 ae 0a ba 27 fc a4 bc
       -0.008804297 -0.039108336 -0.00052902853 -0.020139767
0000c0 2b 1f b7 bc 29 5f 09 bd 76 b5 1d 3d 51 a3 8e ba
       -0.02235373 -0.033538017 0.038503133 -0.0010882412
0000d0 2c 0c ab bd 1f a0 5e b8 ba 84 83 3c d5 da fe bb
       -0.08351931 -5.307805e-05 0.0160545 -0.0077775517
0000e0 77 f6 86 bd ac 95 b8 3c 1c b3 2b 3b 67 b6 6c bd
       -0.06589978 0.022532307 0.0026199287 -0.05779114
0000f0 79 94 5e bd c4 5a 15 3d b8 d3 ce 3c 1d 79 b7 bb
       -0.054340813 0.036463514 0.02524744 -0.0055991546

conv4.0.weight f4 [128, 64, 3, 3]
000000 8e b6 25 3c 83 03 02 3c c6 d3 6e bc 00 f7 96 3c
       0.010114325 0.007935408 -0.014576858 0.018428326
000010 66 b3 24 bd 48 89 f9 bc 4f 56 38 3d 5b 3f 63 bc
       -0.04021015 -0.030460969 0.045004185 -0.013870086
000020 f5 c5 2f bd aa 28 16 bb 6d 29 de 3c 31 71 0a 3d
       -0.042913396 -0.0022912421 0.027119363 0.033799354
000030 44 f8 8a 3c e8 f3 5a bc ac 39 de 3c 4b f7 d9 3a
       0.016964085 -0.013363816 0.02712711 0.0016629485
000040 37 42 a2 3c b7 8a dd bc a3 a9 58 bc c1 d1 a8 bc
       0.019806964 -0.027043683 -0.013224038 -0.020607831
000050 25 09 02 3d 82 e4 ce bb 3a 36 ef bb fe 27 08 bd
       0.031747002 -0.0063138613 -0.0073001655 -0.033241265
000060 9d c4 20 3c 82 7e 08 3d 26 7c 31 3d 60 cf e3 3c
       0.009812501 0.033323772 0.043331288 0.027808845
000070 af f0 15 bd 28 7c 46 bc 66 73 1c bc e3 8e d9 3c
       -0.036606487 -0.012114562 -0.0095489975 0.026557392
000080 8c b6 c6 bb ed 40 56 3c 03 6c 90 3c 38 c9 a2 3c
       -0.0060642418 0.013077003 0.017629629 0.01987134
000090 e5 06 69 bc b4 fc 41 bc 66 01 73 bc d1 be 9a bc
       -0.014222835 -0.011840034 -0.014831876 -0.018889816
0000a0 dc f5 7e 3b ee 91 53 bc 91 39 ea bb 31 fa 88 bc
       0.0038903868 -0.01291321 -0.0071479757 -0.016720863
0000b0 c4 18 21 3d c7 6c f1 3c 11 c1 e2 3c 80 a1 d0 bc
       0.03933026 0.029470814 0.027679952 -0.025467634
0000c0 6e 44 0c 3c 18 09 5b 3c 2b d1 b8 3c ae dc b9 bc
       0.008561237 0.013368867 0.022560677 -0.022688236
0000d0 a3 af 06 3d 82 36 28 3d 29 a4 9b 3c d1 43 01 bd
       0.032882344 0.041067608 0.018999176 -0.031558815
0000e0 92 b0 5c 3c 31 17 f3 bc 46 0e e6 ba 9e 9b 30 3d
       0.013469832 -0.029674144 -0.0017551861 0.043117158
0000f0 7c f7 b3 bc 59 7a c7 bc 0f 4f fe 3c 45 50 d5 bb
       -0.021968596 -0.024350332 0.031043557 -0.006509813
000100 fd b9 2b 3c 6e 84 9d 3a f3 13 ff 3c c2 e4 cc bc
       0.010481355 0.0012017617 0.031137442 -0.025011424
000110 54 00 2e bd cd b2 1e 3d 07 f2 94 3c 90 7b 03 bc
       -0.04248078 0.038744736 0.018181814 -0.008025065
000120 c1 45 88 3c cb a6 e5 3c 55 e3 b7 3b 2a da 24 3d
       0.016634824 0.028033635 0.005611817 0.04024712
000130 6e e1 96 3b a3 d7 4a bc 29 81 ab bc d5 f3 15 bd
       0.00460451 -0.012380513 -0.020935612 -0.03660949
000140 94 4f 51 bd dc b9 bc bb 7d a4 29 bc 57 87 b7 bb
       -0.051101282 -0.005759461 -0.0103541585 -0.0056008506
000150 57 7a 42 bc b1 aa 8f b8 84 67 95 3c 6b 90 b6 bc
       -0.011869988 -6.850565e-05 0.018237837 -0.02228566
000160 82 66 3b 3d 66 dd ce 3c c9 76 f0 bc b2 5f b0 bc
       0.045752056 0.025252055 -0.029353516 -0.021530006
000170 72 39 0e bd 47 cf 1c bd 23 c3 e0 3c a0 70 96 bc
       -0.034722753 -0.038283613 0.027436798 -0.01836425
000180 7d 34 f6 ba 99 ea a4 3c be 22 ec 3b a5 29 2d bd
       -0.0018783953 0.020131396 0.00720629 -0.042276043
000190 b8 03 1a bd 8b d2 5d bc 3e f2 0e 3d f2 3d 23 bd
       -0.037601203 -0.013538967 0.03489899 -0.039853998
0001a0 6f 96 a1 3c 77 cf 3c bc 99 de 2d bd 9c 71 00 3d
       0.019725053 -0.011524073 -0.042448614 0.031358346
0001b0 d8 41 c7 bc fb f2 18 bd 74 b1 5a bd 4e 48 d7 bc
       -0.024323389 -0.0373411 -0.05339189 -0.026279595
0001c0 e7 e0 ac bc 43 22 9c bc 2e 14 24 bc b2 44 28 3d
       -0.021103336 -0.019059306 -0.010014577 0.041081138
0001d0 09 bc a5 bc 83 e2 1f bc fc 6d 81 3c 3b 9b 9f bc
       -0.020231264 -0.009758594 0.015799515 -0.0194832
0001e0 5c 26 88 bc 66 ab e5 3b e9 d6 0e bd dc 8b 33 3c
       -0.016619854 0.0070089577 -0.034872923 0.010958638
0001f0 36 4b 92 ba b8 50 29 bc ed d8 19 bd e3 6d c2 3c
       -0.0011161331 -0.010334186 -0.037560392 0.023734039
000200 ce 64 33 3b 75 58 d9 bb 85 03 92 3c c5 5c dd bc
       0.0027373317 -0.0066328594 0.017823944 -0.027021775
000210 f6 90 25 bd 74 af 19 bd e1 53 0b 3c 32 e4 0e 3d
       -0.04042145 -0.03752084 0.008503885 0.034885593
000220 f4 8a e8 bc 9a 5b 49 bd 60 2d c4 bc ee a1 b9 bc
       -0.02838657 -0.049159624 -0.023947418 -0.022660222
000230 d4 07 22 bd 91 71 fd bc 20 c9 3d bd bd 5e dc 3b
       -0.039558247 -0.030937942 -0.046334386 0.006725161
000240 4b 12 9e 3c 55 28 18 bd 22 5a b7 bc 5e 7a 10 bc
       0.019295832 -0.03714784 -0.022381846 -0.008818237
000250 13 a6 89 3c ac 79 9f bc f0 88 b5 bc a9 43 91 3c
       0.016802823 -0.019467197 -0.022160023 0.017732458
000260 19 38 10 bc cf 9a 5f 3c 33 16 f9 bc fe 40 45 bd
       -0.008802437 0.013647749 -0.030406093 -0.048157685
000270 c2 11 53 3d bc a3 44 3d 5d eb 9f 3c ac 4d b2 bc
       0.051530607 0.04800771 0.01952141 -0.021765552
000280 d2 57 37 bd 73 91 f0 bc 97 73 1b bd 73 35 a0 3c
       -0.044761486 -0.02936623 -0.037952032 0.019556737
000290 8c 3c 8c bc 89 15 4c 3c 56 2e 2e bc 0e cf ca bc
       -0.017118715 0.012456306 -0.010631165 -0.024756934
0002a0 53 b6 12 3d 95 39 49 3d 53 d6 0e bd cb 62 0b 3d
       0.03581841 0.04912718 -0.034872364 0.034029763
0002b0 fe 09 f3 3c f2 6b 0a bd 73 09 fd 3c 73 4e da b8
       0.02966785 -0.03379435 0.030888295 -0.00010409662
0002c0 ca 7c 0a 3c ac cb 9a 3c 74 c4 06 bc 09 6b 0d bc
       0.008452604 0.018895946 -0.008225549 -0.008631476
0002d0 18 62 50 bc f7 cc 05 3d 83 76 10 3d 2e 49 06 3c
       -0.0127187 0.032666173 0.03526927 0.008196158
0002e0 39 c3 06 bd 4a 20 82 3d cf f4 72 3d 17 6c 15 3d
       -0.032901023 0.06353815 0.0593155 0.036480036
0002f0 f6 be 76 3d e0 97 d2 bc 6b 35 14 bb 40 e4 9d 3c
       0.06024071 -0.025707185 -0.0022614847 0.019273877
000300 c8 a9 ad 3c 35 ef 1f bd 31 18 12 bd 58 63 bc bc
       0.021199122 -0.039046485 -0.035667602 -0.02299659
000310 bc 85 5b bd 95 a3 fd bc ef 05 d5 3c a0 f6 93 3c
       -0.053594336 -0.030961791 0.026003806 0.018061936
000320 08 2b e0 bc de 33 df bc 7f 4b f6 3c da 93 c2 bc
       -0.027364269 -0.027246412 0.030065296 -0.023752142
000330 6f e7 0c bd d3 35 87 bc ad 4c e9 3b c2 95 e2 bc
       -0.0344004 -0.016505158 0.007119736 -0.0276593
000340 d8 2b ce bc 7c 2c 4f bd 70 4e b9 3c 73 0c 33 3c
       -0.02516739 -0.050579533 0.02262041 0.010928261
000350 11 23 31 bd 02 e4 7e bc af 43 13 bb b2 cf c1 3c
       -0.043246333 -0.015557291 -0.0022470762 0.023658607
000360 84 dd ac 3c 66 07 d7 bb 46 40 65 bc d4 4d a8 3c
       0.02110172 -0.0065621613 -0.013992375 0.020544924
000370 62 ac eb 3c 42 dc 02 3c e4 0f 99 3b 1a bb 6d 3d
       0.028768722 0.007987084 0.0046710838 0.058039762
000380 50 f5 2f 3c 61 96 37 bc d5 19 6a bb d1 23 03 3d
       0.010739639 -0.011205287 -0.0035720963 0.03201658
000390 04 3a e4 bc fc c8 c3 bc 70 f8 0b bd 7d 2d f1 bc
       -0.027859695 -0.023899548 -0.034172475 -0.029440636
0003a0 4f e4 80 bc aa 61 2b bc 35 f9 62 bc 7d 92 ea bc
       -0.015733866 -0.010460297 -0.013853361 -0.028634304
0003b0 52 9b f5 bc 58 df 05 bd b4 d4 26 bd d2 c7 0c bc
       -0.029981289 -0.0326837 -0.040730193 -0.008592563
0003c0 51 ff e0 3c 20 5b ed 3c 12 8e f2 bc c1 0c 94 bc
       0.027465494 0.028974116 -0.02960876 -0.018072488
0003d0 31 c8 9a 3b 06 cb d1 3c 98 67 f0 3c f8 f0 3b 3c
       0.0047235717 0.025609504 0.029346272 0.011471026
0003e0 c9 2f 13 3d 25 b6 2a 3c cd 2c c5 3a 8f d3 43 3d
       0.035934243 0.010419403 0.0015043259 0.04780918
0003f0 c7 87 62 bc 5a b2 04 3c 18 1f 01 3d 52 41 03 3d
       -0.013826317 0.008099163 0.031523794 0.032044716

conv4.0.bias f4 [128]
000000 66 3a 8d 3d 31 92 06 bc 5c 4a 65 3b 55 0b 3a bb
       0.06895904 -0.008213566 0.0034986949 -0.0028388102
000010 4e 69 3a bc 5c 20 eb bc ba a2 ce bc 41 65 b8 39
       -0.011377646 -0.028701954 -0.025224078 0.00035170655
000020 e3 c8 1f bd 26 35 31 3d 29 5e 3d bd d3 2a 9d bc
       -0.03900994 0.043263577 -0.046232376 -0.01918546
000030 fa 3e 6c 3b c7 f1 b6 3c e2 cb fd bb 47 c0 57 bc
       0.003604828 0.022332085 -0.007745252 -0.013168401
000040 a8 20 92 3c 21 a0 bb bb 23 dc 9d bc b5 b2 a5 3b
       0.017837837 -0.005725876 -0.019270008 0.005056704
000050 13 f6 5a bc 63 ca 10 3d 6f 17 a3 bc 5a 3a 1a 3d
       -0.013364333 0.03534926 -0.019908635 0.037653305
000060 67 22 d5 bc 2e d1 02 bd 22 28 04 bd 72 9c 8f bc
       -0.02601738 -0.03193777 -0.032264836 -0.017530654
000070 2a 44 8d 3d cf 02 97 bb 51 59 aa bc c0 3a da bc
       0.06897767 -0.004608489 -0.020794543 -0.026639342
000080 d0 93 20 3d 6f 5f 24 3c 65 a5 1c 3d 13 91 fb bb
       0.039203465 0.010032519 0.03824367 -0.0076772063
000090 fb 5d 41 3d 1c 40 7f 3d f4 27 f4 39 49 31 0d bb
       0.047208767 0.062317 0.00046569074 -0.0021544269
0000a0 ff cc 10 3a fa 50 37 3d 8c 4a 60 3d 6e 6f ae bc
       0.0005523711 0.04475496 0.054758593 -0.021293368
0000b0 43 0b 56 3d b7 74 46 3b c9 12 c5 bc fd 88 fc 3c
       0.052256834 0.003028197 -0.024056809 0.03082704
0000c0 c4 40 05 3b 67 c9 65 3d d9 6b 58 3c 0a be 22 bd
       0.0020332793 0.056100275 0.013209307 -0.039732017
0000d0 24 2c 93 bc 69 3c 23 3c c4 1f 39 bd 77 61 32 bc
       -0.017965384 0.009963133 -0.04519631 -0.010887495
0000e0 40 9b 82 3d 99 53 90 bc 34 97 97 3d 85 4c 30 bd
       0.06377268 -0.017617987 0.074018866 -0.043041725
0000f0 99 ab 41 3c 42 7d 60 bc c3 13 90 bc 44 92 38 3c
       0.011820697 -0.013701739 -0.017587548 0.011265341
000100 5f e1 92 bb 01 40 71 3d 3a 9c 63 bd 74 ce 05 bc
       -0.0044824327 0.05889893 -0.05556891 -0.008166898
000110 c0 92 7a 3d ff 8e 91 3d 5f bf 07 3c 4c 70 26 3c
       0.061175108 0.071073525 0.0082853725 0.01015861
000120 e7 a9 cd 3b 17 23 9e bb 96 b4 b4 bc be 12 d8 bb
       0.0062763575 -0.0048259604 -0.022058766 -0.006594031
000130 2e 89 97 3c 37 3c 56 3d b1 7c 22 bc 06 82 f4 bc
       0.01849803 0.05230352 -0.009917424 -0.029847156
000140 76 17 f4 bc a9 7c e1 bc d8 8e c0 bc 1b 46 78 3c
       -0.029796343 -0.027525263 -0.023505613 0.015153433
000150 8d 5c d6 bc d4 9a 64 3d 3a 26 f6 3c 66 dd 5d bc
       -0.026167179 0.055811718 0.030047525 -0.013541555
000160 17 09 4f bb 7e 1a 8d 3b e9 a5 5b 3c d2 dc d1 bc
       -0.0031591111 0.0043061366 0.013406255 -0.02561799
000170 ce d5 e7 3c 72 0c 2f 3d d1 cf fe bb 06 e8 2a bc
       0.028300192 0.04273648 -0.0077762385 -0.010431295
000180 c1 a6 c5 bb 9c 22 72 3d 6c ed 33 bd 40 16 7b 3d
       -0.0060318415 0.059115037 -0.043927595 0.061300516
000190 dc 2b ef 3b 65 40 42 bc 3c 63 9b bc ff b5 b9 3a
       0.0072989296 -0.011856173 -0.018968217 0.0014168619
0001a0 25 c3 9c bc 1a c7 bc 3c 43 a6 6a bd c2 91 6f bd
       -0.01913602 0.023044158 -0.057287466 -0.058488615
0001b0 c5 93 81 3d 73 6a 3a bd e8 81 1c bc 81 3f 60 bc
       0.06327013 -0.045511674 -0.009552456 -0.0136870155
0001c0 c3 10 c7 3c 82 c6 91 bc c4 ce df bc a0 d0 e3 bb
       0.024299985 -0.017794851 -0.027320273 -0.0069523603
0001d0 bb e9 82 3d 00 86 4b 3d 89 e6 1e 3d 34 de 2d 3c
       0.06392237 0.04968834 0.038794074 0.010612059
0001e0 62 41 c3 bc 9f eb 22 bd ff 59 04 bd 6e 28 8e bc
       -0.023834888 -0.039775487 -0.03231239 -0.017353263
0001f0 6d 00 f3 bc a7 ce f8 bb 91 2e 1d bd b2 ad d2 bb
       -0.029663289 -0.0075929943 -0.038374487 -0.0064293975

linear.weight f4 [3, 21888]
000000 0b 23 f4 bb 68 2b 27 bc 9b eb cb 39 65 1d 95 3b
       -0.0074504665 -0.01020322 0.00038894717 0.0045506232
000010 c1 a1 c0 ba 6c e4 2c bd 9d 8d 29 3b 5b 3b c9 bb
       -0.0014696644 -0.042210028 0.0025871762 -0.006141109
000020 07 29 f5 3a 34 7f ba bc 3d 3a e2 3a da e2 47 bc
       0.0018704244 -0.022765733 0.0017259788 -0.012200082
000030 01 a0 61 bc 86 e7 21 bb 3a d4 96 bc 25 58 d7 bb
       -0.013771058 -0.002470465 -0.018411744 -0.006571787
000040 ff cf 5c bc c5 b4 10 bc 9b 93 c8 bc 74 46 fc bb
       -0.0134773245 -0.008832161 -0.024484446 -0.0076988284
000050 dc ac 0f bd a1 b0 bb bc f1 18 0d bb 09 79 a9 bb
       -0.03507696 -0.022911372 -0.0021529759 -0.005171899
000060 c2 3e ff ba b6 60 46 bb 90 5a 25 bc 05 23 65 bb
       -0.0019473659 -0.0030270047 -0.010092393 -0.00349635
000070 e7 06 91 bb 4b 94 26 3c 90 91 db bb a7 8f 92 b9
       -0.0044258717 0.010167192 -0.006700702 -0.0002795432
000080 a3 a8 97 3c a6 30 d0 bb 50 b0 ec bb b9 09 12 bd
       0.01851303 -0.0063534556 -0.0072231665 -0.035653803
000090 8a 6b 85 bc ee 09 f9 3b be 4e 1e bc d6 35 72 bc
       -0.01628663 0.0076000607 -0.009662328 -0.014783343
0000a0 0f c9 aa bb aa 58 e7 ba 6b 91 36 bc f2 bd 0b bc
       -0.0052119563 -0.0017650325 -0.011143069 -0.008529173
0000b0 25 16 a6 ba 4c 2d 77 bb ba ca 76 3c 9a 5e 69 3c
       -0.0012671395 -0.0037716208 0.015062982 0.014243746
0000c0 a9 b3 4e 3c 4e 63 34 3c 31 97 1e bc 8c 92 47 3c
       0.0126160765 0.011010004 -0.0096796015 0.012180936
0000d0 1c 9c 0f bb 78 6b 5a 3c 89 a1 14 bc b3 14 21 bd
       -0.0021913117 0.013331287 -0.009071716 -0.03932638
0000e0 23 95 55 3b 30 02 9f bc 24 c2 9d bc 88 c7 9d 3b
       0.0032590113 -0.019410223 -0.019257613 0.0048150457
0000f0 1b 84 a3 bc 09 45 58 bc 24 b4 5f bb e3 80 17 bb
       -0.019960454 -0.013200053 -0.0034134472 -0.0023117594
000100 29 c5 8e 3c 0b 37 ed 3b ab 59 27 bb 64 58 e3 3b
       0.017427998 0.0072392276 -0.0025535624 0.006938027
000110 a0 f3 a6 3b 8b 79 a3 b9 0f f5 d7 3b d4 cc 43 bc
       0.0050949603 -0.0003118034 0.0065904926 -0.01195069
000120 d9 bc c7 bb fc 95 87 bc 21 10 3f bc ea 63 36 3c
       -0.0060955104 -0.01655101 -0.01166156 0.01113222
000130 3f bc d5 bc 19 0e 87 bc 7b df f7 bb 11 b6 28 bc
       -0.02609074 -0.016486214 -0.0075644827 -0.010297314
000140 85 49 62 bc 5a 25 28 bc d5 59 f3 ba 3f 56 cd 3a
       -0.013811474 -0.010262812 -0.0018566201 0.0015665962
000150 f0 6d 0c bc e3 42 43 3c 0f ff 80 3c a6 30 91 bb
       -0.008571133 0.0119178025 0.015746621 -0.004430848
000160 27 3f 73 3b a0 a9 05 3c a4 90 fe 3c c1 66 23 3c
       0.00371165 0.0081581175 0.03107483 0.009973229
000170 86 9d a8 bc d1 10 f0 bc 98 09 08 bd 8a 56 5b bc
       -0.020582926 -0.029304894 -0.033212274 -0.013387332
000180 cc 45 81 bc 24 4d 5f bc 04 5e 3e bc a4 ca 84 bc
       -0.015780352 -0.013629232 -0.011619095 -0.016209908
000190 49 9c 49 bc 6e c4 19 bc 73 11 27 bc f9 98 4b bc
       -0.012305328 -0.009385211 -0.010197031 -0.012426608
0001a0 f0 e1 cd bc c8 f6 bb bc d4 d5 9c bc e1 88 91 bc
       -0.02513215 -0.022944823 -0.01914493 -0.017765464
0001b0 eb fe 87 bc fc f1 ca bb dc a4 53 bc 8b 4f f5 bb
       -0.016601047 -0.0061933976 -0.0129177235 -0.007486289
0001c0 27 aa ad bb 20 d5 d3 bc 3a 0b b5 bc ac 17 ab bc
       -0.0052998248 -0.025858462 -0.02210008 -0.020885311
0001d0 ff b8 f7 bc 83 bf 8b bc 34 02 4e bc bf da 8f bc
       -0.03023958 -0.017059093 -0.012573767 -0.017560361
0001e0 40 56 8a bc d5 3d bd bc 6e 29 f8 bc a8 1e 91 bc
       -0.01688683 -0.023100773 -0.030293193 -0.017714813
0001f0 cd 73 ce bc cb c0 c2 bc 3f 92 dd bc 90 3a b7 bc
       -0.025201702 -0.023773571 -0.027047275 -0.022366792
000200 28 2d e1 bc 8b b3 c4 bc 5f 2c 06 bc f5 bf 9e bc
       -0.027487352 -0.024011394 -0.00818929 -0.019378642
000210 96 e0 a7 bc 22 45 da bc d8 84 f4 bc 88 05 f2 bc
       -0.020492833 -0.026644293 -0.029848501 -0.029543653
000220 8d eb c1 bc 93 2a da bc 8d 46 a1 bc fb 12 ee bc
       -0.02367189 -0.02663163 -0.019686962 -0.029061785
000230 3c 8a e6 bc 1f 94 cb bc 85 06 a6 bc 79 0b d4 bc
       -0.028142087 -0.024850903 -0.02026678 -0.025884377
000240 6b 48 98 bc 5f 00 92 bc 12 34 d7 bc 4e 87 c3 bc
       -0.01858922 -0.017822443 -0.026269946 -0.02386823
000250 60 dc 85 bc 2f 5f 80 bc 01 75 71 bc 92 f4 96 bc
       -0.016340435 -0.015670387 -0.014737369 -0.018427167
000260 d8 09 8f bc bc c8 d9 bc 22 dc ed bc bc 1e 98 bc
       -0.017460749 -0.026584975 -0.029035632 -0.018569343
000270 1b 76 cf bc b5 05 98 bc b2 d8 e4 bc b8 0d 91 bc
       -0.025324872 -0.018557409 -0.02793536 -0.017706737
000280 f8 6b e5 bc 29 1c ac bc d4 25 01 bd bd 2e ce bc
       -0.028005585 -0.021009522 -0.031530216 -0.02516877
000290 02 00 a1 bc c0 82 b7 bc 69 89 b1 bc 7f a6 ab bc
       -0.019653324 -0.022401214 -0.021671968 -0.020953415
0002a0 e8 15 8b bc 65 78 6d bc 90 6c 73 bc d7 c1 9a 3b
       -0.01697822 -0.014494036 -0.014857426 0.0047228145
0002b0 14 6a d5 ba 92 2d 11 ba b6 45 57 bb 7b 6f e3 ba
       -0.0016282224 -0.00055381015 -0.0032847947 -0.0017351949
0002c0 48 49 02 bc 25 01 87 bb 7c 52 d8 3b 54 0a 3b 3c
       -0.007952042 -0.0041200095 0.00660163 0.011416037
0002d0 70 ea d2 bb 6f 79 3c bc 9f 73 73 3b 46 66 0e 3c
       -0.0064366385 -0.011503561 0.0037147773 0.008691376
0002e0 85 7b a1 3b ed c4 af 39 ef c8 27 3c ec fb f0 3a
       0.0049280548 0.00033525322 0.010240777 0.0018385625
0002f0 d4 63 06 bb 1d ef 3e bb 86 8f 6d bb 4e 81 f6 bb
       -0.002050628 -0.0029134222 -0.0036248877 -0.0075227385
000300 e6 69 c9 bb c3 3a 13 bb fe 75 31 bc ab 12 8c bb
       -0.0061466573 -0.0022465445 -0.010831354 -0.0042746863
000310 1b ed 9e bb 1d bc cf 3a 3e 6a 37 bc db 6f de 3b
       -0.0048500425 0.0015848909 -0.011194764 0.0067882366
000320 da 78 e0 bb 01 a9 ad 3a 75 d4 40 3c 42 95 08 3c
       -0.006850344 0.001324922 0.011769404 0.008336367
000330 09 41 21 3c 28 11 8b 3b 0b 2d 25 3c 49 ad 98 b9
       0.009842166 0.0042439885 0.01008154 -0.00029120807
000340 71 01 a0 bb 03 ab 87 bb 6b 82 d6 bb 99 ce b6 ba
       -0.0048829843 -0.004140259 -0.0065463088 -0.0013947069
000350 2c 3f 31 bc 0d 5d 14 bc bd 57 1c bc cb df 1d bc
       -0.010818284 -0.009055388 -0.009542403 -0.009635876
000360 a5 27 bf 3b 09 81 2c bc 45 39 3b ba a3 a7 43 bc
       0.0058335834 -0.010528811 -0.0007142018 -0.011941823
000370 71 ff 88 bb d9 2c 59 3c 72 98 04 3b ef 7f d4 3b
       -0.0041808416 0.013255321 0.0020232466 0.0064849774
000380 84 e4 29 3a 11 b0 e9 3b 86 c9 a4 bb dc 7f aa 3a
       0.000648089 0.0071315845 -0.0050289063 0.0013008076
000390 e4 b6 b6 bb e3 ed 05 3c b9 89 27 bc b1 7b 37 bb
       -0.0055760015 0.008174392 -0.010225707 -0.002799731
0003a0 9e a8 88 bb b5 01 02 bc b4 00 f5 3b 31 01 af 39
       -0.0041704914 -0.007934977 0.0074768905 0.0003337949
0003b0 34 8e 3c 3a 6a 3e fc 3a 39 41 0a bc b7 d3 51 3c
       0.0007192821 0.0019244675 -0.008438402 0.012806824
0003c0 49 52 9a 3b f9 18 31 3a cf 3e b2 3b a2 3f e5 3b
       0.004709516 0.00067557354 0.0054396163 0.006996111
0003d0 58 9d f3 3b 20 8a 94 bb 92 1f 12 3b 3e fa 23 bc
       0.0074345283 -0.0045330673 0.002229665 -0.010008393
0003e0 1f a3 26 bc 75 d0 4f bc ee 9a 16 b8 7d f1 1b bb
       -0.010170727 -0.012683977 -3.5907076e-05 -0.0023795061
0003f0 a6 da 19 bc 74 64 7c 3b fe ae 20 3c 07 af fe 3a
       -0.009390509 0.0038512023 0.009807346 0.0019430824

linear.bias f4 [3]
000000 06 c5 a8 bc 40 2e 03 3d 1f ac 17 bc
       -0.02060176 0.03202653 -0.009257345
