models/aisf/void_20230517_112128.pth (torch, 655075 bytes, 10 tensors)

conv1.0.weight f4 [16, 1, 3, 3]
0	0x3ea36c1d	0.3191842
1	0xbe978272	-0.2959171
2	0xb94ab400	-0.00019331276
3	0x3dfe504f	0.124176614
4	0xbe34ae0a	-0.17644516
5	0xbea1d630	-0.31608725
6	0xbcd29dbe	-0.025709983
7	0xbde8e1b8	-0.113711774
8	0x3cd85259	0.026406454
9	0x3d3047c1	0.04303718
10	0xbd66d014	-0.056350783
11	0xbd220cc3	-0.03956295
12	0x3d96c5a4	0.07361916
13	0x3d1ba360	0.037997603
14	0xbe9c0c82	-0.30478293
15	0x3e4258d5	0.18979199
16	0x3e11ad9d	0.14226384
17	0xbe0953fa	-0.13410941
18	0x3e7e4091	0.24829318
19	0xbe1eba5a	-0.15500775
20	0x3e6c58af	0.23080705
21	0x3ea1e320	0.31618595
22	0x3e037097	0.12835918
23	0xbdc9dcb8	-0.09856552
24	0x3d9229ef	0.071369044
25	0xbe6cb5d9	-0.23116244
26	0x3e830894	0.25592482
27	0xbe96d473	-0.2945896
28	0xbd2d004e	-0.04223662
29	0x3d7fa06a	0.062408842
30	0x3e09ec9f	0.1346917
31	0xbe2d6b65	-0.16935499
32	0x3e6add46	0.22935972
33	0x3e67ed23	0.22649054
34	0xbe90294b	-0.28156504
35	0x3e28c575	0.16481574
36	0x3e824cf9	0.2544935
37	0x3ea1a412	0.31570488
38	0x3e45f772	0.19332674
39	0xbe030253	-0.12793855
40	0x3e4e90bd	0.20172401
41	0x3e66ef99	0.22552337
42	0xbe66b9dc	-0.22531837
43	0xbdabc53d	-0.083872296
44	0x3e7b4875	0.24539359
45	0x3d449750	0.047995865
46	0xbe269a46	-0.16269788
47	0xbe7d615d	-0.24744172
48	0xbcad9a78	-0.02119182
49	0xbe7c0ac7	-0.24613486
50	0xbc9c1d05	-0.019056806
51	0x3dece60c	0.115673155
52	0xbe9b3194	-0.30311263
53	0xbe10971d	-0.14120145
54	0xbda824c3	-0.08210137
55	0x3e4dbd14	0.20091659
56	0xbe73a568	-0.23793566
57	0xbe72d467	-0.23713838
58	0x3e8fdf7b	0.2810019
59	0x3e105b0a	0.14097229
60	0x3e0b756e	0.13619015
61	0xbe4a5e59	-0.19762553
62	0x3b362ce0	0.0027797744
63	0xbe90463c	-0.28178585
64	0xbe75a0ce	-0.23987123
65	0x3dab48a6	0.08363466
66	0x3e52155f	0.20515965
67	0xbde684c4	-0.11255792
68	0x3d7d3880	0.06182146
69	0xbcfec1cc	-0.031098269
70	0x3ea63c1d	0.32467738
71	0x3e973c94	0.29538405
72	0x3e758f9d	0.23980565
73	0x3cc71bfc	0.024305336
74	0xbd8a7fd8	-0.067626655
75	0xbe153457	-0.14570747
76	0xbccab1d1	-0.024742993
77	0x3e88b639	0.26701525
78	0x3d888dd8	0.066676795
79	0x3e96a536	0.2942292
80	0x3db55324	0.088537484
81	0x3e140a8b	0.14457147
82	0x3d868a84	0.065693885
83	0x3e89e435	0.2693192
84	0x3e8aad46	0.27085322
85	0xbdd5fd2a	-0.10448678
86	0x3d2beb09	0.041972194
87	0xbe756767	-0.23965226
88	0x3e43d431	0.19123913
89	0x3e9cb3d7	0.30605957
90	0xbdd78ef3	-0.10525312
91	0x3e253063	0.1613174
92	0xbcfd71e8	-0.030938104
93	0xbdb1e070	-0.08685386
94	0x3d88d77a	0.06681724
95	0x3e0630ed	0.13104601
96	0xbe38b0ee	-0.18036243
97	0xbe32580e	-0.17416403
98	0xbe7f02ac	-0.24903363
99	0x3e8a9be0	0.27072048
100	0x3df81a6b	0.12114414
101	0x3e0eba1d	0.13938184
102	0xbc02c522	-0.00798157
103	0x3d0e26bd	0.034704912
104	0x3df4f2a9	0.11960346
105	0xbd2f9560	-0.042867064
106	0x3d813f49	0.06310899
107	0x3d2272e0	0.039660335
108	0x3e85b86b	0.26117262
109	0x3e703d51	0.2346089
110	0xbd8cf474	-0.06882563
111	0x3e64bdbc	0.22338003
112	0xbc580fff	-0.0131874075
113	0xbdea3cd7	-0.114373855
114	0x3e82c54f	0.2554116
115	0x3c1b2f86	0.00947178
116	0x3e381124	0.17975289
117	0xbea05899	-0.31317595
118	0x3e1441ca	0.14478222
119	0x3e3e5b2b	0.18589465
120	0xbb88f031	-0.0041790237
121	0x3c07fc45	0.008299892
122	0xbe06c656	-0.13161597
123	0x3dd9c84d	0.106339075
124	0xbe40ac25	-0.18815668
125	0xbd991d24	-0.07476261
126	0xbe27ceef	-0.16387533
127	0xbe818565	-0.25297084
128	0xbe7af93e	-0.24509141
129	0x3e128998	0.143103
130	0x3e0d6c9c	0.13810962
131	0x3e62c17f	0.22144125
132	0xbe4ccdf7	-0.20000444
133	0xbe9f6965	-0.31135097
134	0xbe8f52f6	-0.27992982
135	0xbe9fc757	-0.31206772
136	0x3d3d3bf1	0.046199743
137	0xbea5d602	-0.32389838
138	0xbe590f77	-0.21197306
139	0xbea2bf2f	-0.31786487
140	0x3d9faf43	0.077971004
141	0xbe4cc445	-0.19996746
142	0x3e34402b	0.17602603
143	0xbab74de3	-0.0013985004

conv1.0.bias f4 [16]
0	0x3cf3f952	0.029781971
1	0x3e9431ed	0.2894434
2	0xbe23b415	-0.15986665
3	0xbdd80d62	-0.105494276
4	0xbe1a032b	-0.15040271
5	0xbdeec1a1	-0.116580255
6	0x3ea4642d	0.32107678
7	0xbe739b58	-0.23789728
8	0x3d88cac3	0.06679299
9	0x3e958642	0.29203993
10	0x3e43cd03	0.19121175
11	0xbdc14a66	-0.094380185
12	0x3e3cba41	0.18430425
13	0x3e954473	0.29153785
14	0xbe6b7df0	-0.2299726
15	0xbe108200	-0.14112091

conv2.0.weight f4 [32, 16, 3, 3]
0	0xbd811a6f	-0.0630387
1	0x3d30cd54	0.043164566
2	0x3d36b07e	0.04460191
3	0x3bbe4fca	0.0058078514
4	0xbda4ee0b	-0.080532156
5	0xbce506bb	-0.02795731
6	0xbd2d31bb	-0.042283755
7	0xbd7d21c3	-0.061799776
8	0x3d58237f	0.052768227
9	0x3d8d99c8	0.06914097
10	0xbd0aa05d	-0.03384434
11	0x3ce773ef	0.028253524
12	0x3c779ae4	0.015112612
13	0xbce81b1a	-0.028333236
14	0xbd50f52a	-0.051015057
15	0x3d836882	0.06416418
16	0xbd4e6dcf	-0.05039769
17	0xbcaa5d67	-0.02079649
18	0xbd8aff72	-0.067870036
19	0x3d3b5086	0.04573109
20	0x3cdb106d	0.02674123
21	0x3d332980	0.04374075
22	0x3d56047a	0.052250363
23	0x3cbae71f	0.022815285
24	0x3c992252	0.018693123
25	0x3da30b3b	0.079611264
26	0xbc9572c1	-0.018243195
27	0x3d56e9b9	0.05246899
28	0xbc5b9498	-0.013402127
29	0xbd7a7310	-0.06114489
30	0xbd1864c2	-0.037205465
31	0xbc99fcb4	-0.018797256
32	0x3d8e5c91	0.069512494
33	0xbd067fff	-0.03283691
34	0xbcbfb532	-0.02340183
35	0xbc345f10	-0.011008993
36	0x3cde402f	0.027130214
37	0xbc6c3aa9	-0.014418283
38	0x3af82ee1	0.001893487
39	0x3d05df55	0.03268369
40	0x3d83c389	0.0643378
41	0xbc5ab111	-0.01334788
42	0xbd2b1eee	-0.041777544
43	0xbd853bc0	-0.06505537
44	0xbd04e0cd	-0.03244095
45	0x3d933217	0.07187288
46	0xbd2fcf8e	-0.04292255
47	0x3ce5a3b9	0.02803217
48	0x3c8e6228	0.017380789
49	0x3d22f615	0.039785463
50	0x3d06ef53	0.03294308
51	0x3d4ba213	0.049715113
52	0xbc5c37d0	-0.013441041
53	0x3d36970b	0.04457764
54	0x3bb7e55d	0.005612059
55	0x3d47720e	0.048692755
56	0xbd7bd106	-0.061478637
57	0x3db1696d	0.086626865
58	0x3c9bba3b	0.0190097
59	0x3a9af17a	0.0011821233
60	0x3d94a0f2	0.072572604
61	0x3d4e3cdb	0.050351005
62	0x3db54993	0.08851924
63	0x3da73133	0.08163681
64	0xbc9137e2	-0.017726842
65	0x3ce18fce	0.027534392
66	0x3d92eb60	0.071738005
67	0x3d9a4379	0.07532401
68	0x3da6db3a	0.08147283
69	0x3c941a70	0.018079013
70	0x3d76c299	0.060244177
71	0xbd87b923	-0.06627109
72	0x3d84d382	0.064856544
73	0xbd20a940	-0.03922391
74	0x3cb7ca54	0.022435345
75	0xbd4827a3	-0.048865926
76	0xbc9dbd2b	-0.019255241
77	0xbc6aa0ea	-0.014320591
78	0x3b3f5c8c	0.002919945
79	0x3d7e932f	0.062152084
80	0xbc6aae3a	-0.014323765
81	0x3d2d0b0c	0.042246863
82	0xbd35c7f8	-0.04438016
83	0x3db06883	0.08613684
84	0x3d815a1c	0.06316015
85	0xbce490bf	-0.027901052
86	0x3d988ac2	0.07448341
87	0xbd993b0a	-0.07481964
88	0x3bf10013	0.007354745
89	0x3dba0efc	0.09084889
90	0x3d4fd4f3	0.050740194
91	0xbd9f49ca	-0.07777746
92	0x3d7c51b1	0.061601344
93	0x3cf52138	0.029923066
94	0xbb801df8	-0.0039098226
95	0x3d84052f	0.06446301
96	0xbc864824	-0.016391821
97	0xbc80df05	-0.015731344
98	0x3ca1099b	0.0196579
99	0x3cc2549b	0.023721984
100	0x3cdcf42f	0.026971905
101	0x3db23a97	0.087025814
102	0x3bdab7b7	0.0066747325
103	0x3bd2979c	0.0064267647
104	0x3dafb215	0.08578888
105	0xbd82debe	-0.06390141
106	0x3d90756a	0.07053645
107	0xbc11e37a	-0.008904332
108	0xbd477a73	-0.04870076
109	0xbd9bf871	-0.07615746
110	0x3d11aad2	0.035563298
111	0xbd385d6f	-0.04501098
112	0xbd2338c2	-0.03984905
113	0xbd279c9f	-0.04092085
114	0x3d934987	0.071917586
115	0xbac63b29	-0.0015123832
116	0x3d6c3407	0.057666805
117	0xbd0c0677	-0.034185853
118	0xbda2ef93	-0.079558514
119	0x3d68e1b8	0.056855887
120	0x3d671635	0.056417663
121	0x3d8eaf5c	0.06967041
122	0x3c3bb4bd	0.011456666
123	0xbd3c671e	-0.045996778
124	0xbcb71271	-0.02234766
125	0x3d412196	0.04715117
126	0xbda86be5	-0.08223704
127	0xbd2f6a7d	-0.042826165
128	0x3cb4b1e7	0.022057487
129	0x3d921a84	0.07133964
130	0xbcc9a46b	-0.024614533
131	0xbd3c91a6	-0.04603734
132	0x3d1d303e	0.038376085
133	0xbd0f2894	-0.034950808
134	0x3da43275	0.080174364
135	0xbd04dd97	-0.032437887
136	0x3d9b4879	0.075821824
137	0x3ca74ef8	0.020423397
138	0xbd51529f	-0.051104184
139	0xbd9b4bbf	-0.07582807
140	0xbc5bff15	-0.0134275155
141	0x3d71a41f	0.05899441
142	0xbc9a7253	-0.018853342
143	0x3da6c8cc	0.08143768
144	0xbd92247c	-0.07135865
145	0xbdb13287	-0.086522155
146	0xbd6073d2	-0.054797955
147	0xbd90f622	-0.07078196
148	0x3c4270e7	0.011867738
149	0xbd4e5410	-0.050373137
150	0xbd286d7e	-0.041120045
151	0xbca792bf	-0.020455716
152	0xbd0ca7c9	-0.0343397
153	0x3d804ff6	0.06265251
154	0xbd9e0295	-0.07715336
155	0xbd6f8eab	-0.05848567
156	0xbb052c61	-0.0020320641
157	0xbd4ee56c	-0.050511762
158	0x3d56296e	0.052285604
159	0xbd5507a1	-0.05200923
160	0xbd047290	-0.032335818
161	0x3cd4d75a	0.025981594
162	0xbcfeb761	-0.031093301
163	0x3bddb70b	0.006766205
164	0x3d629f48	0.055327684
165	0xbda3deec	-0.08001503
166	0xbd7c63e0	-0.061618686
167	0xbd9ccb4e	-0.07655965
168	0x3d99ab48	0.075033724
169	0xbd3a9b44	-0.04555823
170	0x3d052542	0.032506235
171	0xbd301b38	-0.042994708
172	0xbd7d276e	-0.06180518
173	0xbd8670b7	-0.065644674
174	0x3d634249	0.055483136
175	0x3b820667	0.0039680484
176	0xbdae7fca	-0.085204676
177	0x3bd5aba0	0.0065207034
178	0xbc9e38d5	-0.019314209
179	0x3d9e090b	0.077165686
180	0xbd2566ce	-0.040381245
181	0x3d7271e1	0.059190635
182	0x3d54819d	0.05188142
183	0xbd7621c0	-0.06009078
184	0xbd9061ad	-0.0704988
185	0x3c2bfefd	0.010497806
186	0xbd92788a	-0.07151897
187	0x3d0a54dd	0.03377234
188	0x3d752210	0.059846938
189	0xbd9f3c62	-0.07775189
190	0x3cd1aa36	0.025593858
191	0x3dab37fb	0.08360287
192	0xbc3e85f8	-0.01162862
193	0x3bc75fa9	0.0060844016
194	0x3d132e15	0.03593262
195	0x3c795d92	0.015220063
196	0x3d343992	0.044000216
197	0x3d6f9f3d	0.05850147
198	0xbda7551e	-0.08170532
199	0x3d90c521	0.07068849
200	0x3b58ea6a	0.0033098706
201	0x3d8416fc	0.064496964
202	0xbb281c63	-0.0025651685
203	0x3b8e1f91	0.004337259
204	0x3cc25256	0.023720901
205	0x3cdad130	0.026711076
206	0x3d1a4a77	0.03766867
207	0xbb577fb6	-0.0032882518
208	0x3c933e2d	0.017973984
209	0x3ccfc355	0.025361696
210	0x3b01267b	0.0019706774
211	0xbd543c28	-0.051815182
212	0xbd4ffbbf	-0.050777193
213	0x3c1ee36e	0.009697778
214	0x3c9380a0	0.01800567
215	0xbd02366c	-0.031790182
216	0x3d957504	0.072977096
217	0x3993c825	0.00028187144
218	0x3cadff6c	0.021239959
219	0xbbcf8c55	-0.0063338676
220	0x3d3a9791	0.0455547
221	0xbd6c7e36	-0.05773755
222	0x3d8b9579	0.06815619
223	0xbca09776	-0.019603472
224	0xbcc6b66a	-0.024256904
225	0xbd623bb3	-0.055232715
226	0xbc335a9b	-0.010946895
227	0xbd9241d9	-0.07141466
228	0x3d50cb6a	0.05097524
229	0xbd9bd527	-0.07609015
230	0xbd35bd3a	-0.044369914
231	0x3d8d7ac5	0.06908182
232	0x3d7497b7	0.059715
233	0x3bcb3240	0.0062010586
234	0x3cb730da	0.022362161
235	0xbc815102	-0.015785698
236	0x3d322786	0.043494724
237	0x3ae5c5aa	0.0017530222
238	0xbc94f39a	-0.018182565
239	0x3cbe8927	0.023258759
240	0xbdb27dee	-0.087154254
241	0x3d04bd4a	0.032407083
242	0x3d1f23be	0.038852446
243	0x3d485283	0.048906814
244	0xbd835888	-0.0641337
245	0xbd310e8f	-0.043226775
246	0xbd45f3b6	-0.048328124
247	0xbd3523dc	-0.04422365
248	0xbd49fc75	-0.049313027
249	0x3d8dd2d6	0.069249794
250	0x3d92b8ba	0.0716414
251	0x3cfbb3fa	0.030725468
252	0x3d3c8f53	0.046035122
253	0xbce3a55f	-0.027788816
254	0x3d06b25d	0.032884944
255	0xbc52bba3	-0.012862119

conv2.0.bias f4 [32]
0	0xbd646be0	-0.05576694
1	0x3d9ecf93	0.077544354
2	0x3d11156b	0.035420816
3	0xbd2d43f7	-0.042301144
4	0xbd5f5463	-0.054523837
5	0xbd500195	-0.05078276
6	0xbd8173de	-0.06320928
7	0xbd57e786	-0.052711032
8	0xbbbe1b7e	-0.005801617
9	0x3cb2ba67	0.0218174
10	0x3db70c8c	0.0893794
11	0xbd669853	-0.05629761
12	0x3d869df6	0.065730974
13	0x3d84dba0	0.06487203
14	0xbc706e71	-0.014674769
15	0xbd6d916f	-0.058000024
16	0x3d8f1f38	0.069883764
17	0x3c9a78dd	0.01885646
18	0x3d17cfe5	0.037063498
19	0xbd819538	-0.06327289
20	0x3bc84a10	0.0061123446
21	0xbca45afd	-0.020062918
22	0xbd5b7850	-0.053581536
23	0x3c1fdc20	0.009757072
24	0xbd7613cb	-0.06007747
25	0xbd87f88e	-0.06639205
26	0xbd5a0d9f	-0.053235646
27	0xbd16e2af	-0.036837276
28	0x3d8f655b	0.07001754
29	0xbd7c2b83	-0.061564934
30	0x3d9a8b09	0.0754605
31	0xbb300ee5	-0.0026864347

conv3.0.weight f4 [64, 32, 3, 3]
0	0xbc9912e3	-0.018685764
1	0xbc816c34	-0.015798666
2	0x3d1bb84a	0.03801755
3	0xbc329cab	-0.01090161
4	0x3d2216c7	0.039572503
5	0x3c30500b	0.010761271
6	0xbd2b52b1	-0.041826908
7	0xbcafd793	-0.021465098
8	0xbd26c736	-0.040717326
9	0xbd4bf184	-0.049790874
10	0xbbf7b912	-0.007559904
11	0x3c5bc31f	0.01341322
12	0x3d7e71ff	0.062120434
13	0xbd0760b9	-0.033051226
14	0xbd173aa5	-0.036921162
15	0xbb611ec1	-0.0034350606
16	0x3d130647	0.03589466
17	0x3d4f833d	0.050662268
18	0xbd457fef	-0.04821771
19	0x3c7f88ea	0.015596608
20	0x3cef3dad	0.029204214
21	0xbb463c3d	-0.0030248307
22	0xbb515da2	-0.0031946679
23	0xbd37b759	-0.04485259
24	0x3c26c1da	0.010178054
25	0x3d1bbb54	0.038020447
26	0x3ba971d6	0.005171041
27	0x3be698ec	0.0070372727
28	0xbd4ffc3f	-0.05077767
29	0x3d4b711a	0.04966841
30	0xbcfa2ce2	-0.03053898
31	0x3d26bbca	0.040706433
32	0xbc901622	-0.017588679
33	0xbd67a6aa	-0.056555428
34	0x3cea26aa	0.02858289
35	0x3d3de46b	0.046360414
36	0x3d3cc3b9	0.046085093
37	0x3cc8965f	0.024485765
38	0x3d62c6da	0.05536542
39	0x3cdbb008	0.026817337
40	0xbbeee37f	-0.0072903032
41	0xbca9e60a	-0.020739574
42	0xbcd2f6a2	-0.02575237
43	0x3d4f3e1e	0.05059635
44	0x3c2d1f96	0.010566613
45	0x3d269dc5	0.040677804
46	0x3d21cbe1	0.039501075
47	0x3cb96915	0.022633115
48	0xbc439f6d	-0.011939866
49	0xbcca2b18	-0.024678752
50	0xbc9d221a	-0.0191813
51	0x3d3fd664	0.04683532
52	0x3c5216b6	0.0128227975
53	0xbcc6cabb	-0.024266591
54	0xbd1f0db5	-0.03883143
55	0x3d17335f	0.036914226
56	0xbd42de37	-0.0475752
57	0xbcf9e186	-0.030503046
58	0x3d2ce640	0.04221177
59	0x3d019adf	0.031641837
60	0x3d0386e6	0.03211107
61	0xbbfbd515	-0.0076853135
62	0x3cdfc976	0.027317744
63	0xbc8cd146	-0.017189633
64	0x3d72647c	0.05917786
65	0xbcbeac92	-0.023275647
66	0xbaed29dd	-0.0018094141
67	0x3d4fbab4	0.050715163
68	0xbd419e28	-0.04726997
69	0x3d1f0aa2	0.0388285
70	0xbc6edbbf	-0.014578759
71	0xbd3ca019	-0.04605112
72	0x3d3fbdef	0.046811994
73	0xbd47cc63	-0.048778903
74	0xbc31fb7f	-0.010863184
75	0x3c88ab60	0.01668328
76	0x3d5b2b0b	0.053507846
77	0xbd6b6378	-0.057467908
78	0x3d2f6d7a	0.042829014
79	0xbd0b6082	-0.034027584
80	0xbba16f37	-0.004926588
81	0x3d5f3c4f	0.054500874
82	0xbcc98f0a	-0.02460434
83	0x3d39468d	0.045233298
84	0xbc5b5357	-0.013386569
85	0xbc33ebb2	-0.010981487
86	0xbd18e9ea	-0.037332453
87	0x3cb646fa	0.022250641
88	0x3cb744b1	0.022371622
89	0x3d903628	0.070415795
90	0xbbafa2cd	-0.0053599835
91	0xbbfbdcc2	-0.0076862285
92	0xbd0d9242	-0.03456331
93	0xbd30ece8	-0.04319468
94	0x3c719c29	0.014746704
95	0x3d2d26e3	0.042273413
96	0x3ce70e36	0.028205018
97	0x3c4bf837	0.012449316
98	0x3c469299	0.012119913
99	0x3d3042b3	0.04303236
100	0x3c84818b	0.016175052
101	0xbd071ffe	-0.032989495
102	0xbd3f3238	-0.04667875
103	0xbcca2794	-0.024677075
104	0x3cb029bc	0.021504276
105	0x3ced42f9	0.0289626
106	0xbd509f27	-0.05093303
107	0x3cb6de73	0.022322869
108	0xbcc5e015	-0.024154702
109	0xbc972efb	-0.01845502
110	0x3d32e01c	0.04367076
111	0xbc2182e5	-0.009857868
112	0xbd4c3417	-0.049854364
113	0x3d789144	0.06068541
114	0xbc41c4e6	-0.011826729
115	0x3cbbb703	0.022914415
116	0xbd537eda	-0.051634647
117	0x3c094efc	0.008380648
118	0xbd255b25	-0.040370125
119	0x3d21ed4b	0.03953294
120	0x3d3a0128	0.04541126
121	0x3cda8334	0.02667389
122	0x3d388e70	0.045057714
123	0xbce9b620	-0.028529227
124	0x3d6e1792	0.058127947
125	0x3c3dae6c	0.01157723
126	0xbd3ce2f9	-0.046114895
127	0xbd13b16b	-0.03605787
128	0x3d0971f5	0.033555944
129	0x3c4149c9	0.011797377
130	0xbd64bee0	-0.055846095
131	0x3cfa4784	0.03055168
132	0xbd330754	-0.04370816
133	0x3d6b5cb5	0.05746146
134	0x3cc7d803	0.024394995
135	0xbd595840	-0.053062677
136	0x3c47124d	0.012150359
137	0xbcd42d4f	-0.025900511
138	0x3c1b4bca	0.009478519
139	0xbd6ec638	-0.058294505
140	0xbced8b8a	-0.028997201
141	0x3c7d1d10	0.015448824
142	0xbcdf32e4	-0.027245946
143	0xbbb1fcc6	-0.0054317443
144	0x3c91c5d2	0.017794523
145	0xbd62baa3	-0.055353772
146	0x3c0513ea	0.008122424
147	0xbd109bd5	-0.035304863
148	0x3b0b3b8d	0.0021245212
149	0x3d29ddd0	0.041471303
150	0xbd0f5b56	-0.034999214
151	0xbd1d43b0	-0.03839463
152	0x3d7a33c9	0.061084542
153	0xbb6a2ed6	-0.0035733483
154	0xbc227b60	-0.00991711
155	0x3c67d90f	0.014150872
156	0x3ce39d72	0.027785037
157	0xbabebd2a	-0.0014552225
158	0x3b0b2aa9	0.0021235144
159	0x3d741ca0	0.05959761
160	0x3b1a9640	0.002358809
161	0x3d0f6e10	0.035017073
162	0x3d24da54	0.040247276
163	0x3cefdf2d	0.029281223
164	0xbced4471	-0.0289633
165	0xbbe77ce7	-0.00706445
166	0xbd13c4ab	-0.03607623
167	0xbc8a9d97	-0.016920848
168	0x3d62e591	0.055394713
169	0xbd34f06c	-0.044174597
170	0x3d5a926b	0.05336229
171	0xbca1bfa3	-0.0197447
172	0xbd08effb	-0.03343199
173	0x3d4e073a	0.05029986
174	0x3d691847	0.05690792
175	0x3d261ed0	0.04055673
176	0xbc0340fc	-0.008011099
177	0x3d17d58f	0.0370689
178	0xbd4d0f3c	-0.050063357
179	0x3d2023c4	0.03909661
180	0xbb5c2a6a	-0.0033594617
181	0xbd628ffd	-0.0553131
182	0xbd432249	-0.04764012
183	0xbd608d63	-0.054822337
184	0xbcdb2bb9	-0.026754247
185	0xbce02c67	-0.027364923
186	0x3d4b4d05	0.049634
187	0xbcdd56ec	-0.027018987
188	0xbceec12d	-0.029144848
189	0xbcd7fbe7	-0.026365234
190	0xbd6c1329	-0.05763546
191	0xbb0e588a	-0.0021720254
192	0xbd055397	-0.03255042
193	0xbd525219	-0.051347826
194	0xbaeef2ee	-0.0018230358
195	0xbbc9197c	-0.006137071
196	0xbccbc2cf	-0.024873165
197	0xbd1da06a	-0.03848306
198	0x3c4c2167	0.012459136
199	0xba052c94	-0.000508019
200	0xbd3ce5d7	-0.04611763
201	0xbd20fb28	-0.03930202
202	0xbca2c8a7	-0.01987107
203	0x3d048a79	0.03235862
204	0x3d67ff77	0.056640115
205	0x3d52f386	0.051501773
206	0xbcfd16cc	-0.03089466
207	0x3d353686	0.04424145
208	0xbd630006	-0.055419944
209	0x3d0128b9	0.031532977
210	0xbd449679	-0.047995064
211	0x3d38e80f	0.045143183
212	0xbd183f96	-0.037170015
213	0xbc69d4bd	-0.014271912
214	0xbd0f187e	-0.034935467
215	0x3d77e2da	0.060519077
216	0xbcfe7699	-0.031062411
217	0x3d6b2b90	0.05741459
218	0xbc3a2fe0	-0.011363953
219	0xbc9e89c9	-0.01935281
220	0xbcf64762	-0.030063335
221	0xbc1c0cd0	-0.009524539
222	0x3d5be43f	0.05368447
223	0x3c4b51dc	0.0124096535
224	0x3cd73914	0.026272334
225	0xbd2bcb86	-0.041942142
226	0xbd09c300	-0.033633232
227	0xbc1d6b19	-0.009608054
228	0x3d31a10e	0.043366484
229	0x3bc507e5	0.006012904
230	0x3cc6af5f	0.024253545
231	0xbd534338	-0.051577777
232	0x3cd996d2	0.026561175
233	0xbd0158ed	-0.031578947
234	0x3c195bca	0.009360263
235	0xbce2bc25	-0.027677605
236	0xbcdbe994	-0.026844777
237	0x3d116b46	0.035502695
238	0xbd1281d2	-0.035768338
239	0xbd3ccaa3	-0.046091687
240	0xbd0651b2	-0.032792754
241	0x3c0f73e9	0.0087556625
242	0x3cb801be	0.022461768
243	0xbd641160	-0.055680633
244	0x3c6fe675	0.014642348
245	0xbd657bb2	-0.05602617
246	0xbc350ac7	-0.011049933
247	0xbcd11dfe	-0.025526997
248	0xbd19daee	-0.037562303
249	0x3d4722fa	0.04861734
250	0xb9bba0c0	-0.00035787188
251	0x3a8e862c	0.0010873727
252	0x3c164924	0.0091727115
253	0xbd07ce53	-0.03315575
254	0xbcc7e3b4	-0.02440057
255	0x3cfdecc5	0.03099669

conv3.0.bias f4 [64]
0	0x3afeba27	0.001943414
1	0x3d076c1e	0.033062093
2	0x3c61bfef	0.013778671
3	0xbc70dd5f	-0.0147012165
4	0x3d1c8003	0.03820802
5	0xbd4f034e	-0.05054026
6	0xbc15cab8	-0.00914257
7	0x3c14b6b8	0.009076767
8	0xbcefe65b	-0.029284647
9	0xbd202592	-0.03909833
10	0xbd413502	-0.047169693
11	0x3d40cc00	0.04706955
12	0xbc8a7cd0	-0.016905218
13	0xbce4b498	-0.027918145
14	0xbcf7f154	-0.030266441
15	0xbd06cbc3	-0.032909166
16	0x3cdcbb69	0.026944833
17	0xbd0b2a7c	-0.033976063
18	0xbcbe0b8c	-0.023198865
19	0xbd36f7a4	-0.044669762
20	0xbc992ae6	-0.018697213
21	0x3d27a4b6	0.040928565
22	0x3d34a048	0.04409817
23	0x3c16ad48	0.009196587
24	0xbd206530	-0.039159
25	0x3cf3d0f2	0.029762719
26	0xbd393166	-0.045213126
27	0xbd102b86	-0.035197757
28	0xbd851ee0	-0.065000296
29	0x3c8d53c9	0.017251866
30	0xbc7afaf3	-0.01531862
31	0xbd53530d	-0.051592875
32	0xbd58b56e	-0.0529074
33	0xbd523c29	-0.051326904
34	0xbd2bdaba	-0.04195664
35	0x3d29ba3b	0.04143737
36	0x3ca18377	0.019716008
37	0xbd72ae8a	-0.059248485
38	0x3cbc702c	0.023002706
39	0x3d4cdcbf	0.050015207
40	0x3d1199b5	0.035546977
41	0x3d3d64bc	0.046238646
42	0x3d3ecdf8	0.046583146
43	0xbd0215c0	-0.031759024
44	0xbc5c573e	-0.0134485345
45	0x3d40b3c1	0.047046427
46	0xbd16ca44	-0.03681399
47	0xbd2fe4f8	-0.04294297
48	0xbcc20dfe	-0.023688313
49	0x3babb4f9	0.0052400795
50	0x3c4fce58	0.0126834735
51	0x3b5581c0	0.0032578558
52	0xbcfcbef5	-0.030852774
53	0xbd1f24fa	-0.038853623
54	0x3d36094a	0.044442452
55	0xbcfbe66a	-0.030749518
56	0x3d2a3cf2	0.04156203
57	0xbc7b161f	-0.015325098
58	0xbd2ce838	-0.04221365
59	0xbd344549	-0.044011388
60	0x3cbb6f7a	0.022880305
61	0xbd42ece4	-0.047589198
62	0xbcc9ecd3	-0.02464906
63	0x3b0aa0d4	0.002115299

conv4.0.weight f4 [128, 64, 3, 3]
0	0xbc30fc58	-0.010802351
1	0x3cb65ccd	0.022261048
2	0xbd10c3cf	-0.035342988
3	0x3ceabcfb	0.028654566
4	0x3cd1c0c1	0.025604608
5	0x3c9a240a	0.018816013
6	0xbd316fe0	-0.043319583
7	0x3cd187c3	0.025577432
8	0x3ce66f2f	0.028129188
9	0x3bdb8995	0.0066997507
10	0x3cc48075	0.023987034
11	0xbb0bd906	-0.0021339073
12	0x3c79a833	0.015237856
13	0x3c42b4f6	0.011883965
14	0x3cb8356d	0.022486413
15	0x3c42e99d	0.011896518
16	0x3d0ab554	0.033864334
17	0x3d01e6de	0.031714313
18	0x3c72106a	0.014774421
19	0xbc416b30	-0.011805341
20	0x3d229edb	0.039702278
21	0x3c5c939e	0.013462929
22	0xbca820e2	-0.020523492
23	0xbd1202cc	-0.0356472
24	0xbbce55f7	-0.006296869
25	0x3cc9ad7a	0.024618853
26	0xba3ef320	-0.0007284153
27	0xbd120030	-0.03564471
28	0xbb758247	-0.0037461685
29	0xbcf2a6ce	-0.029620554
30	0x3c925578	0.01786302
31	0x3b6d985e	0.0036254148
32	0x3ca385af	0.019961206
33	0x3c3e13e4	0.011601422
34	0x3c91c8d3	0.017795956
35	0x3baaa351	0.005207457
36	0xbc99e2c4	-0.018784888
37	0x3d33db40	0.043910265
38	0x3ca1400d	0.019683862
39	0xbc5bf9ad	-0.013426227
40	0x3b74f091	0.0037374834
41	0xbd17b4d1	-0.037037674
42	0xbbf64123	-0.007515089
43	0xbcb80daa	-0.022467453
44	0xbb77cee9	-0.0037812537
45	0xbc6f6e94	-0.014613766
46	0xbc9c1d38	-0.019056901
47	0xbd281fa8	-0.041045815
48	0xbc7f137e	-0.015568612
49	0x3b7e9120	0.0038843825
50	0x3cc5dcae	0.02415308
51	0xbd07341b	-0.033008676
52	0xbccf7166	-0.025322627
53	0x3cff7977	0.031185849
54	0x3c9aa1af	0.018875925
55	0xbc615454	-0.013753016
56	0x3d185740	0.037192583
57	0x3c9c1805	0.019054422
58	0xbd0a570f	-0.03377443
59	0xbc4a2949	-0.012338945
60	0xbca6f73f	-0.020381568
61	0x3ce804ec	0.02832266
62	0x3b3345f9	0.002735494
63	0xbcbe4808	-0.023227707
64	0x3cd3dc8b	0.025861999
65	0x3ba495d7	0.005022745
66	0xbc0bf3f5	-0.008542051
67	0xbd318a16	-0.04334458
68	0xbd193835	-0.03740712
69	0x3c57f2ab	0.013180415
70	0xbce8278c	-0.02833917
71	0xbc054ea5	-0.008136426
72	0x3d065ed5	0.032805283
73	0x3c82fa16	0.01598839
74	0xbd00d4e9	-0.031453047
75	0xbcc61d3d	-0.024183864
76	0xbcb2ad37	-0.02181111
77	0x3ab3dbb1	0.0013722089
78	0x3c9270e7	0.017876102
79	0x3c09584a	0.008382866
80	0x3d25ee55	0.040510494
81	0xba9c88e3	-0.0011942651
82	0x3cd38f1d	0.025825078
83	0x3d238aa5	0.039927144
84	0xbc782198	-0.015144728
85	0x3d1bcbac	0.038036034
86	0xbc865235	-0.016396621
87	0x3d0a759b	0.033803564
88	0xbcfebd9d	-0.031096274
89	0x3cc91ff0	0.024551362
90	0xbc2fa664	-0.010720823
91	0x3cde8c09	0.027166383
92	0x3cebe8de	0.028797563
93	0x3bd30fbe	0.0064410856
94	0x3b10fec0	0.00221245
95	0xbcea59e4	-0.028607316
96	0xbd37221a	-0.044710256
97	0xbbc7262d	-0.006077549
98	0xbd19a937	-0.03751489
99	0xbc9fdbb9	-0.019513952
100	0x3d465baf	0.04842728
101	0xbcd000e6	-0.025391053
102	0x3b62cd83	0.0034607358
103	0xbd177843	-0.036979925
104	0x3aeac10a	0.0017910313
105	0x3b47aa62	0.0030466546
106	0xbc05f7d8	-0.008176766
107	0x3d1bbd7b	0.0380225
108	0x3cd7e367	0.026353551
109	0x3b066295	0.0020505537
110	0x3d1217c3	0.035667192
111	0xbcdafb7c	-0.026731245
112	0x3c883a48	0.016629353
113	0xbcc7559f	-0.02433282
114	0x3c7e310b	0.015514622
115	0x3c46d89a	0.012136603
116	0xbd1cacfc	-0.03825091
117	0x3c45cfd2	0.012073474
118	0x3c94e6f9	0.018176543
119	0xbd06354f	-0.032765683
120	0xbc27b9ba	-0.010237152
121	0x3c9af84e	0.018917229
122	0xbc0164ca	-0.007897565
123	0x3c5ec4a9	0.013596692
124	0x3cf28e0c	0.029608749
125	0xbd0f60c2	-0.035004385
126	0xbc1b896a	-0.009493211
127	0xbc3c1f79	-0.011482113
128	0xbd079b0d	-0.033106852
129	0xbcd99d64	-0.026564308
130	0x3b6fae62	0.0036572446
131	0xbca4c8f6	-0.020115357
132	0x3ce5c6de	0.028048929
133	0xba33f1a5	-0.0006864316
134	0x3cdc52c6	0.026894938
135	0xb9319ec1	-0.00016939176
136	0x3ca8c14c	0.020599984
137	0x3d183f4d	0.037169743
138	0x3cb28b83	0.02179504
139	0xbd01f10e	-0.03172403
140	0x3c8950c5	0.016762147
141	0xbc2d7451	-0.010586814
142	0xbbf92fe2	-0.007604585
143	0xbc6f6ec5	-0.014613812
144	0x3d2a1f85	0.041533966
145	0xbb17ffca	-0.0023193234
146	0x3d082281	0.03323603
147	0x3c3eb995	0.011640926
148	0x3b17f6c3	0.0023187853
149	0xbc81cd36	-0.015844923
150	0xbaf10cee	-0.0018390694
151	0xbd2f4e73	-0.042799424
152	0xbd336338	-0.043795794
153	0x3ceef237	0.029168231
154	0x3cacc762	0.021091167
155	0xbc0c12b0	-0.008549377
156	0xbd026aec	-0.03184025
157	0xbd1613ea	-0.036640085
158	0x3d1b4cee	0.037915163
159	0x3ca621d9	0.020279812
160	0xbc4fe512	-0.012688892
161	0x3c2802a6	0.010254538
162	0x3cef25b6	0.029192787
163	0x3d2ea8ec	0.042641565
164	0xbc1321bd	-0.008980212
165	0xbc5332ec	-0.012890559
166	0x3c75ba4b	0.014998029
167	0xbd151905	-0.036400814
168	0xbbc55daf	-0.006023131
169	0x3c12e359	0.008965337
170	0xbc781a4a	-0.015142987
171	0xbd38586f	-0.04500621
172	0xbc5e5684	-0.013570432
173	0xbd13b941	-0.036065344
174	0xbc64bc91	-0.013960973
175	0x3d00e782	0.031470783
176	0xbd169273	-0.03676076
177	0xbcb4f4ae	-0.022089329
178	0x3bb449f8	0.005501982
179	0xbd358147	-0.04431274
180	0x3d294fb3	0.041335773
181	0x3c960731	0.018313976
182	0xbbc63b3d	-0.006049542
183	0x3c04e0ef	0.008110269
184	0x39acae30	0.00032936176
185	0x3d0f1f37	0.03494188
186	0x3cd8601a	0.026413012
187	0x3ce98215	0.02850441
188	0x3c5eba08	0.013594158
189	0xbc7e42ec	-0.015518885
190	0xbc983074	-0.018577792
191	0xbb7f609c	-0.0038967496
192	0x3c8ecf7a	0.017432917
193	0x3d315034	0.04328938
194	0x3d2d8c11	0.042369906
195	0x3c8c8c78	0.017156824
196	0xbc1fcad0	-0.009752944
197	0x3d17ad7e	0.03703069
198	0x3ccfeac8	0.025380507
199	0x3cce98d0	0.025219351
200	0xbcce59ca	-0.0251893
201	0xbbb7cb76	-0.005608971
202	0x3cb49fc1	0.022048833
203	0xbcd08b3a	-0.025457013
204	0xb9e1dd50	-0.00043080235
205	0x3c171f64	0.009223793
206	0xbc9ff906	-0.019527923
207	0x3d32fc0a	0.043697394
208	0x3c91061f	0.017703114
209	0xbcf56594	-0.029955663
210	0x3d235656	0.03987726
211	0x3b41a6fd	0.0029548996
212	0xbc86db0c	-0.016461872
213	0x3d1071de	0.035264842
214	0x3cf9b7f0	0.030483216
215	0xbd2bb06d	-0.0419163
216	0x3d0fe207	0.035127666
217	0xbc672e00	-0.014110088
218	0x3cb24509	0.021761434
219	0xbcef5d32	-0.029219244
220	0x3cd91e99	0.026503848
221	0x3c3a30e0	0.011364192
222	0x3bc38870	0.0059671924
223	0xbcaa1bdb	-0.020765236
224	0x3cfa9def	0.030592887
225	0xbd2da74e	-0.042395882
226	0x3c9d1931	0.019177051
227	0xbccffeb9	-0.025390016
228	0x3bdc68ea	0.006726374
229	0x3c364ed8	0.011127196
230	0xbca7335d	-0.020410234
231	0x3cd8cae9	0.026463943
232	0x3cbd24e0	0.023088872
233	0x3cddcda3	0.027075594
234	0xbc88361b	-0.016627362
235	0xbd0a3144	-0.03373839
236	0xbd1f5089	-0.038895164
237	0x3c3e29f6	0.011606684
238	0x3d077dcb	0.03307895
239	0x3cfff947	0.031246794
240	0xbbc20fa0	-0.005922273
241	0x3c141252	0.009037571
242	0x3d26b179	0.040696595
243	0xbcd74c56	-0.026281517
244	0x3c4da245	0.012550895
245	0xbc2eb729	-0.010663786
246	0xbc760688	-0.015016206
247	0x3b592cf4	0.0033138366
248	0x3d2ae317	0.041720476
249	0x3bc6c1ce	0.006065584
250	0xbd0cc178	-0.034364194
251	0xbbba1c40	-0.005679637
252	0xbc7a22a8	-0.015267052
253	0x3d334c4c	0.043773934
254	0x3cedaa2b	0.029011806
255	0xbd0e5ef5	-0.034758527

conv4.0.bias f4 [128]
0	0xbd2ac1b8	-0.04168865
1	0x3c8fde4e	0.017562058
2	0xbcd19772	-0.02558491
3	0xbccd5c73	-0.025068497
4	0x3d05df31	0.032683555
5	0x3b806b5d	0.0039190487
6	0x3c7b3957	0.015333495
7	0xbc13b8f5	-0.009016265
8	0xbcb13d12	-0.021635566
9	0x3c4f9dc8	0.012671895
10	0xb9221f7b	-0.00015461251
11	0xbc1c3881	-0.009534956
12	0xbc06f83f	-0.008237897
13	0x3d0093db	0.031391006
14	0x3a6e0564	0.0009079783
15	0xbb81a942	-0.0039569447
16	0xbcbea02f	-0.02326974
17	0xbd10c287	-0.035341766
18	0x3c7db73a	0.015485579
19	0xbd22f86b	-0.03978769
20	0x3b1a12f3	0.002350983
21	0x3cb7e8c2	0.022449855
22	0xbc7ab2d0	-0.015301421
23	0x3cb8b250	0.022545964
24	0xbc17eb5f	-0.009272425
25	0xbcdc599a	-0.026898194
26	0x3b87f362	0.0041488865
27	0xbce248a9	-0.027622538
28	0x3d0274ff	0.031849857
29	0xbd0964bc	-0.033543333
30	0x3cf2433f	0.029573081
31	0xbc518c4e	-0.012789799
32	0x3cc0b593	0.023524081
33	0xbc019cba	-0.007910902
34	0x3b44ed1e	0.003004856
35	0x3d1b6cdf	0.037945624
36	0x3b0079b0	0.0019603781
37	0x3d2b8fa5	0.041885037
38	0x3c9f6e2e	0.019461717
39	0xbca14c35	-0.019689659
40	0xbc8666df	-0.016406475
41	0x3cadaabb	0.021199575
42	0x3d166dcb	0.0367258
43	0x3c5b6ab7	0.013392142
44	0xbd1ecd05	-0.03876974
45	0xbacfa053	-0.0015840627
46	0xbcaa5ba5	-0.020795653
47	0xbc9f424e	-0.019440796
48	0xbd2d74a2	-0.042347558
49	0x3d00ae4d	0.031416226
50	0x3ca196c4	0.019725211
51	0x3cb50b71	0.022100182
52	0x3d188997	0.03724059
53	0xbcf03284	-0.029320963
54	0x3cb6a488	0.022295251
55	0xbd064471	-0.032780115
56	0xbd0d2398	-0.034457773
57	0x3d04efbb	0.032455187
58	0x3af6f867	0.001884234
59	0xbc9ce5f4	-0.019152619
60	0x3cf8d242	0.030373696
61	0xbca2b11f	-0.019859849
62	0x3d0761a1	0.03305209
63	0x3c504df1	0.012713895
64	0xbd2ccbb2	-0.042186446
65	0xbceb4740	-0.028720498
66	0x3c5a9862	0.013341995
67	0x3aa4b47a	0.0012565993
68	0x3ae1a4c6	0.0017215244
69	0x3b5f62e4	0.0034086043
70	0x3d0f3120	0.03495896
71	0xbd0485b7	-0.032354083
72	0x3cedf970	0.029049605
73	0xbc80339d	-0.015649611
74	0xbd1cb0c9	-0.038254533
75	0x3b9c0a3e	0.004761963
76	0x3c9a972c	0.018870912
77	0x3c35e099	0.011100912
78	0x3bc0a2af	0.0058787684
79	0x3c8e7d12	0.017393623
80	0xbc06a03a	-0.008216912
81	0xbd0922da	-0.033480503
82	0x3ceabfc9	0.028655903
83	0x3cbe1a69	0.023205953
84	0x3bbda384	0.005787315
85	0xbc630bb0	-0.013857767
86	0xbbebe139	-0.0071984795
87	0xbc4532b2	-0.0120360125
88	0xbc5222ac	-0.012825649
89	0xbcd740e4	-0.02627606
90	0x3c162492	0.0091639925
91	0x3cea5582	0.028605226
92	0xbc1c2bde	-0.009531943
93	0xbd0ab7d0	-0.033866704
94	0xbc42b5d4	-0.0118841715
95	0x3c08b36b	0.008343558
96	0x3caa0b0b	0.020757219
97	0xbc655c3d	-0.013999042
98	0x3d0d9ca6	0.03457322
99	0xbcec36f4	-0.028834797
100	0xbc86f3c1	-0.016473653
101	0xbc3c7cab	-0.011504333
102	0x3a702be1	0.0009161812
103	0x3cb580ec	0.022156201
104	0xbad03b9a	-0.0015886903
105	0xbb125581	-0.0022328796
106	0x3d23e296	0.04001101
107	0x3cfac9b7	0.030613763
108	0xbcd55178	-0.026039824
109	0x3b5d3dfd	0.0033758872
110	0x3cde87d1	0.027164372
111	0xbccebcd6	-0.025236528
112	0xbcca7548	-0.024714127
113	0xbbdf5617	-0.0068156826
114	0xba87a246	-0.0010348044
115	0x3c8fd631	0.01755819
116	0xbc2f056e	-0.010682447
117	0x3cb6c369	0.022309976
118	0xbbd28e9a	-0.006425691
119	0x3c11824f	0.008881166
120	0x3c984d78	0.018591627
121	0xbd2755ba	-0.04085324
122	0xbc6f2191	-0.014595405
123	0x3c0f5742	0.008748831
124	0xbd004a34	-0.031320766
125	0x3cdd4555	0.0270106
126	0xbcd5b1e0	-0.026085794
127	0xbb92ca10	-0.004479654

linear.weight f4 [3, 21888]
0	0x3b8c5272	0.004282289
1	0xbace8362	-0.0015755708
2	0x3b8a7dba	0.0042264136
3	0xbc30b1d5	-0.010784586
4	0xbc61fff8	-0.013793938
5	0xbbc4965e	-0.0059993705
6	0x3c12b6ef	0.008954748
7	0x3ad8356b	0.0016495412
8	0x3ba96028	0.0051689334
9	0x3c23b8a2	0.00999275
10	0x3b8a7e5a	0.004226488
11	0x3c57567a	0.013143176
12	0xbbcd89b7	-0.0062725204
13	0x3b86c7d8	0.0041131787
14	0x3c04e73c	0.008111771
15	0x3bdf5804	0.006815912
16	0xbadef10d	-0.0017009095
17	0x3c48c082	0.012252929
18	0x3b64aab2	0.0034891781
19	0xbbf761b7	-0.0075494903
20	0x3be076d9	0.0068501052
21	0xbbbe4f8e	-0.0058078235
22	0xbc721e32	-0.014777707
23	0xbc56d0da	-0.0131113175
24	0xbb304d6a	-0.002690161
25	0xbb679cd6	-0.0035341284
26	0x3bd67c1f	0.006545558
27	0xbb0e03d3	-0.002166976
28	0x3c077862	0.008268448
29	0xbc063470	-0.008191213
30	0xbbe56bf3	-0.007001394
31	0xbb1cdcb2	-0.0023935256
32	0xbb960b4d	-0.004578984
33	0x3c3289f5	0.010897149
34	0x3c2a6a2e	0.010401292
35	0x3b5bd687	0.0033544616
36	0xbb6ba606	-0.0035957112
37	0x3c441a73	0.011969197
38	0xbac764de	-0.0015212556
39	0xb991e0a8	-0.00027823937
40	0x3af2a2e1	0.0018511676
41	0xbc182865	-0.009286975
42	0xbbc41c5c	-0.005984826
43	0xba9277e4	-0.0011174646
44	0x3b5cf908	0.003371777
45	0x3a742e2b	0.0009314741
46	0x3bc83728	0.0061100908
47	0x3bb7c585	0.005608263
48	0x3bab82a7	0.005234081
49	0x3b9ccb1e	0.0047849556
50	0xb93643ca	-0.00017382126
51	0x3c045d46	0.008078879
52	0x3b52539a	0.0032093287
53	0x3c0d20e7	0.008613802
54	0x3c29444a	0.010331223
55	0x3b9a8644	0.0047157127
56	0x3c1fe996	0.009760281
57	0x3b8f33c6	0.0043701855
58	0x3c0c7def	0.008574947
59	0xba08e756	-0.000522246
60	0x3bdceda3	0.0067421957
61	0x3ba48b86	0.0050215153
62	0xbb86e001	-0.004116059
63	0x3ab1dbac	0.0013569496
64	0x3b658c57	0.0035026276
65	0x3c080857	0.00830277
66	0x3c1ac53b	0.0094464375
67	0x3bcd782c	0.006270429
68	0x3c60256f	0.0136808
69	0x3b3fcc61	0.0029266106
70	0x3c0e12ac	0.008671444
71	0x3ada97ae	0.0016677284
72	0xbaa489f7	-0.0012553324
73	0xbb8ef705	-0.004362943
74	0x3c3c4a98	0.011492394
75	0x3c4e2a34	0.012583304
76	0x3bc91baa	0.006137331
77	0xbb5ab3ab	-0.003337125
78	0x3bdd618f	0.0067560147
79	0xba4823de	-0.0007634739
80	0xbb023333	-0.0019866943
81	0xbb96ad0c	-0.0045982655
82	0x3c141623	0.009038481
83	0x3c58cc2a	0.01323227
84	0x3b2955e2	0.0025838544
85	0x3c6f79c9	0.014616438
86	0x3c107853	0.00881775
87	0x3b28da52	0.0025764895
88	0x3c2f5e0f	0.010703578
89	0x3c46d44d	0.012135577
90	0x3c089613	0.008336562
91	0xbbf8270f	-0.0075730155
92	0xbbaf8ce2	-0.0053573707
93	0xbbcc6421	-0.0062375222
94	0x3b46ee63	0.0030354492
95	0xbbbfef62	-0.005857394
96	0x3bfc70a2	0.0077038566
97	0x3bb691f1	0.005571597
98	0x3c427eea	0.011871079
99	0xbb6304e0	-0.0034640357
100	0x3b1a3d64	0.0023535127
101	0xba4c9921	-0.00078048004
102	0x3b436ded	0.002982016
103	0x3bbdbfa5	0.005790668
104	0x3c4b33fa	0.012402529
105	0x3c029111	0.007969157
106	0x3c826013	0.015914952
107	0x3bef2479	0.007298049
108	0x3c6dcab1	0.014513657
109	0x3c20878c	0.009797942
110	0x3b7528ed	0.0037408427
111	0xbb8b4ca9	-0.004251082
112	0x3b4367ad	0.0029816434
113	0x3bd92d44	0.0066277105
114	0x3bc888c5	0.00611982
115	0x3b49272e	0.003069352
116	0xbbeb606d	-0.0071831257
117	0xbc0c89e9	-0.008577802
118	0x3b686c8c	0.003546509
119	0xbbdd72f3	-0.006758088
120	0x3c5447ec	0.012956601
121	0x3b398eff	0.0028313992
122	0x3c5572ff	0.0130279055
123	0x3c576dce	0.013148738
124	0x3a738fdb	0.00092911505
125	0x3c5e0678	0.013551347
126	0xbba44a8c	-0.0050137695
127	0x3ba7ffa2	0.0051269094
128	0x3bb2fbf6	0.005462165
129	0x3b1fbd72	0.0024374393
130	0xbaeb0e12	-0.001793327
131	0xbbf5997a	-0.0074951025
132	0x3b2903ca	0.0025789612
133	0xbb3475a8	-0.002753595
134	0x3bc097ed	0.005877486
135	0x3a955995	0.0011394495
136	0xbc14679d	-0.009057906
137	0xbbafd93e	-0.0053664735
138	0x3c46b9ff	0.012129306
139	0xbba6855d	-0.005081816
140	0xbba66da9	-0.0050789905
141	0xbb54863d	-0.0032428645
142	0x3bcb388b	0.006201809
143	0x3c308a49	0.010775157
144	0x3bd37ac3	0.0064538433
145	0xbbd0c36a	-0.0063709514
146	0xbb54c28b	-0.003246459
147	0x3bb81793	0.0056180446
148	0xb9e93eb0	-0.0004448793
149	0xbba6e009	-0.005092625
150	0xbae8426c	-0.001771999
151	0x3b6c526e	0.0036059874
152	0x3adfc13c	0.0017071138
153	0x3ad9370f	0.0016572195
154	0x3bc20493	0.0059209554
155	0xbb7ca65b	-0.0038551304
156	0x3aecc2a9	0.0018063384
157	0xbb406488	-0.0029356796
158	0xbb1a934e	-0.0023586336
159	0x3ab504ec	0.0013810671
160	0xbb4dac1d	-0.0031383105
161	0x3b4ed0ea	0.0031557628
162	0xbb35d0c6	-0.0027742847
163	0xbac56ff4	-0.0015063272
164	0x3bb8415f	0.005623027
165	0x3bc7fc15	0.0061030486
166	0x3ab7ba8c	0.0014017387
167	0xbbcfa401	-0.0063366895
168	0x3b453f22	0.0030097445
169	0xbbc5941b	-0.0060296184
170	0xba97fcbc	-0.0011595706
171	0x3c36965d	0.011144248
172	0xb9429438	-0.00018556498
173	0xb903ebf5	-0.00012581034
174	0xbb4fb612	-0.0031694216
175	0xbbee7976	-0.007277663
176	0xbc00287f	-0.007822155
177	0x3bca9ad7	0.006183009
178	0xbb8e35bb	-0.0043399013
179	0x3bbeab97	0.005818795
180	0xb92a1b2b	-0.00016222584
181	0xbbae0528	-0.0053106733
182	0x3bd87a6f	0.006606392
183	0xb84e6a4c	-4.9213224e-05
184	0x3b1aec58	0.0023639407
185	0x3b7defb0	0.0038747601
186	0x3c4b2fc9	0.01240153
187	0x3bc3d9a9	0.005976875
188	0x3b32cae6	0.0027281581
189	0xbb151de5	-0.0022753414
190	0x3b64da04	0.0034919987
191	0x3c4bf700	0.012449026
192	0x3b3d8a8b	0.002892169
193	0xbb8f4432	-0.004372143
194	0xbbe05235	-0.0068457373
195	0xb9c60eb8	-0.0003777647
196	0x3c2d03d3	0.010559994
197	0xbbbe9287	-0.0058158073
198	0xba1d8d18	-0.00060100993
199	0x3c1ee196	0.009697339
200	0x3c4617c9	0.012090632
201	0x3c4b4e96	0.012408873
202	0xbb55930c	-0.0032588867
203	0x3c18e34c	0.009331536
204	0x3c437e90	0.01193203
205	0x3a5e491b	0.00084795215
206	0xbadc37bd	-0.0016801279
207	0x3a490b07	0.00076691847
208	0xbb96b4df	-0.0045991982
209	0x3c2c6c48	0.010523863
210	0x3bdfd36d	0.006830624
211	0x3c22b964	0.009931896
212	0xbb6d882e	-0.00362445
213	0xbba606d0	-0.00506673
214	0xbc45ec3a	-0.012080247
215	0xbbcf71fb	-0.006330726
216	0x3b9c40a8	0.00476845
217	0xbb0a1dd3	-0.0021074906
218	0xbbfe5662	-0.0077617625
219	0xbb9775c9	-0.0046221954
220	0xbc36aa62	-0.011149021
221	0xbbfe79e3	-0.007765995
222	0x3c73538d	0.014851463
223	0x3bdf99b1	0.0068237414
224	0x3c28fe59	0.010314547
225	0x3ae0dcf1	0.001715569
226	0xbb125b6e	-0.0022332328
227	0xbb31762e	-0.0027078497
228	0x3b1ee038	0.0024242532
229	0x3c268613	0.010163802
230	0xbb58fc9b	-0.003310955
231	0xbb5efae8	-0.0034024063
232	0xbbe37af0	-0.0069421455
233	0xbbe8d1a0	-0.0071050674
234	0xbb0abecc	-0.0021170853
235	0xba957b4e	-0.0011404546
236	0x3bf3526c	0.007425597
237	0x3a021a78	0.00049630506
238	0xbc37592b	-0.011190693
239	0xbc1fb8b0	-0.009748623
240	0x3ad02e63	0.0015882965
241	0xbbc632c5	-0.0060485327
242	0x3c0c6bc7	0.008570618
243	0x3b8be1e8	0.0042688735
244	0xbbb35e6c	-0.0054739024
245	0xb989bcdc	-0.00026271387
246	0xbbec4fb6	-0.0072116507
247	0x39a78ee8	0.00031959196
248	0x3c63f816	0.013914129
249	0x3bcc47b6	0.0062341345
250	0x3c390cdd	0.011294571
251	0x3c102537	0.008797935
252	0x3b29110d	0.0025797517
253	0x3c451145	0.012028043
254	0x3c37d118	0.011219285
255	0x3bad2dc2	0.005284996

linear.bias f4 [3]
0	0x3c2ac01e	0.010421781
1	0xba41c6eb	-0.0007392007
2	0xbb817558	-0.003950756
