models/aisf/void_20230516_193200.pth (torch, 820963 bytes, 10 tensors)

conv1.0.weight f4 [16, 1, 3, 3]
000000 a0 85 5c bd 2c 77 f1 3d f8 f9 63 3e 33 a6 1f 3e
       -0.053838372 0.11790308 0.22263324 0.15590744
000010 dc fc a5 3d c9 22 3f 3e f8 2c e0 3d 6b 9b 26 3e
       0.0810487 0.18665613 0.10946077 0.16270225
000020 cb 94 65 be 47 66 19 3e 74 f2 af bc 37 ab 23 bd
       -0.22420041 0.14980422 -0.021477915 -0.039958205
000030 c9 b2 84 3c 98 73 a9 be 77 38 37 be 64 0e 2e 3e
       0.016198533 -0.33096004 -0.17892633 0.16997677
000040 12 b1 bd be 45 06 c5 be f3 a7 8a be 35 93 20 be
       -0.37049156 -0.38481346 -0.2708126 -0.15681155
000050 21 57 b8 be e6 21 1e be 5e f0 be be f4 c3 c3 be
       -0.36003974 -0.15442619 -0.3729276 -0.38235438
000060 c8 a7 96 3d 97 12 02 be 4c 8d a0 bd 6f d0 2d bc
       0.073562205 -0.12702404 -0.0783945 -0.0106087765
000070 79 6c 16 be d5 e9 21 be af a6 9f bd 9a a1 a0 3a
       -0.14689817 -0.15811856 -0.07795464 0.0012255192
000080 8d b8 56 be 8e 81 5f 3e fb cc 19 3e 2a 3a b2 3d
       -0.20968838 0.21826765 0.150196 0.087025
000090 3b 75 c7 bc 3b 65 0f 3e 13 cc a3 3e fb 7d 97 3e
       -0.024347892 0.1400346 0.31991634 0.29588303
0000a0 c2 1f 94 3e 01 23 26 3e ba fc 87 3e 92 2e 75 3e
       0.2893048 0.1622429 0.26560003 0.23943546
0000b0 a2 48 50 be 68 1c 6c 3d bd 3e 6f be 6b d2 9e bd
       -0.20340207 0.057644278 -0.23363777 -0.07754978
0000c0 8d 80 95 3e 62 54 78 3d 7c c4 96 3e 35 9b 5f 3d
       0.2919964 0.06062735 0.2944678 0.054591376
0000d0 66 b2 f6 bd fb 9a ae be 6e 13 76 3e 4b 31 13 3e
       -0.120457456 -0.34102616 0.2403085 0.14374273
0000e0 d3 70 b0 be 80 64 7b 3e 9e a9 b0 3e 50 ac aa be
       -0.34461078 0.24550056 0.34504408 -0.3333459
0000f0 5d cb 66 3e 1c 1c 95 3e f3 b1 2b 3d b9 c2 6a 3e
       0.22538514 0.29123008 0.041917752 0.22925843
000100 4d e2 6d 3e 43 31 13 bc 59 18 b0 3d 90 e9 99 3e
       0.23230858 -0.008983913 0.08598394 0.30061007
000110 cd 08 34 be eb c4 6d 3d 83 24 37 be 35 0b 9d 3e
       -0.17581482 0.058049124 -0.17885022 0.30672613
000120 7d b1 b7 bc e2 cd 8a bd c8 9b 25 3e aa 80 a3 bd
       -0.0224235 -0.0677755 0.16172707 -0.07983525
000130 9c a2 40 be 10 1e 9a bd 56 93 83 bd ff db 23 bc
       -0.1881203 -0.07525265 -0.064245865 -0.010001182
000140 24 1d 32 be 9d 16 cb bc e5 08 5d be be 9e ac 3c
       -0.17393929 -0.024791056 -0.21585424 0.021071788
000150 ec a4 7e 3e cc 6a 52 be b6 14 dc 3d 82 83 c0 be
       0.248676 -0.20548552 0.10746138 -0.37600332
000160 d1 0f 6f 3e 03 31 05 3e 49 54 15 3e 58 4f 8b 3e
       0.23345877 0.13006978 0.14582933 0.27208972
000170 c1 b0 c6 3e 7b d3 57 be d4 56 d5 3d 7a 38 55 3b
       0.38806728 -0.21076767 0.10416952 0.0032534883
000180 24 79 ca bb 5b 6e 83 be 1b 2b b6 be df a3 16 3e
       -0.006178992 -0.25670132 -0.35579762 0.1471095
000190 dd c6 2e 3e 8a 8a ac 3e 9a 8c 67 3d 7e a8 11 3d
       0.17068048 0.33699447 0.056530572 0.035561077
0001a0 62 f6 0e bd 83 07 c2 3e 32 e7 47 bc 35 26 bc 3e
       -0.034902938 0.37896356 -0.012201117 0.367479
0001b0 e1 6c d2 3c a4 e3 e2 bd cf eb f7 bc 26 40 1c 3d
       0.025686683 -0.11078575 -0.03026381 0.038147114
0001c0 f1 8d 0d 3e aa 31 92 3e a7 01 82 3e 2c e1 9b bd
       0.13823678 0.28553516 0.25391886 -0.076113075
0001d0 ee b2 1b 3d 01 0e 8b be 11 f0 f2 3d 86 7b 63 bd
       0.038012438 -0.27159122 0.11862195 -0.055537723
0001e0 f3 06 53 be 87 e1 8d be 8a 4b 27 be fc e5 a8 3d
       -0.2060812 -0.27711126 -0.1633741 0.08246991
0001f0 a3 a2 38 be b0 fb b5 be 11 de 0c 3e 74 03 3d be
       -0.18030791 -0.35543585 0.13756587 -0.18458349
000200 3e da 4a be 81 04 5a 3c 1a 11 41 3d 3a ab 5d 3e
       -0.19809815 0.013306738 0.04713545 0.21647349
000210 e7 a1 0c be 2a 85 00 3d e1 dd 95 be a7 a7 29 3e
       -0.13733636 0.031376995 -0.29270843 0.1656786
000220 89 1d 94 3c 85 15 4a 3e 1b d8 a4 3e 9c 2d 87 be
       0.01808049 0.19734772 0.32196125 -0.26401985
000230 e2 03 8f 3e 41 b2 58 3e 60 4b 08 3e eb cb 2c 3d
       0.2793265 0.21161748 0.13310003 0.04218666

conv1.0.bias f4 [16]
000000 a3 c9 35 3c 40 97 14 be 05 28 26 3e 8e a1 bf bd
       0.011095437 -0.14510822 0.16226204 -0.09356986
000010 ed 10 ae 3d 7d 4f 98 be c9 ff 91 be 4f c7 08 be
       0.08499322 -0.29748145 -0.2851546 -0.1335728
000020 21 b8 7d be b7 7b 8b be d8 86 77 3d f4 2d 66 be
       -0.24777271 -0.27242824 0.06043133 -0.22478467
000030 f7 38 ae bd 4b 13 00 be de f2 1a 3e 63 e0 88 3e
       -0.08506959 -0.1250736 0.15131709 0.26733693

conv2.0.weight f4 [32, 16, 3, 3]
000000 b4 03 ca bc 3f b2 ad bd 54 cb 47 bd 3d b6 e2 bd
       -0.024659969 -0.08481263 -0.048777893 -0.110699154
000010 f2 41 b8 bc d4 12 76 bd 9b a8 69 3c bd 6c a6 3c
       -0.022492383 -0.06007655 0.01426139 0.020315522
000020 52 03 70 bd 95 67 ec bd 37 bb e1 3c ef cb 90 bd
       -0.058596916 -0.11543194 0.027555091 -0.07070147
000030 c0 36 9a 3c 48 ff d1 bd ca 23 a6 3c ac 11 bc bd
       0.018824935 -0.10253769 0.020280737 -0.09183058
000040 dd d6 00 be 69 93 69 3b 06 c9 8b bd 1d f0 b4 3d
       -0.12581964 0.0035640842 -0.068254516 0.088348605
000050 1a 2e 09 3e 30 4d 72 3d f0 8a d7 bd f0 ef cb 3d
       0.13396493 0.059155643 -0.10524547 0.09957874
000060 f8 7f 93 bd 8f 1f 17 3c 4a 7b be 3a e5 c7 9b bd
       -0.072021425 0.009223833 0.0014532593 -0.07606486
000070 99 6f 9d bd d2 64 ac 3c 1f 5a b2 bc 52 9a c5 3d
       -0.07687301 0.021044169 -0.021771489 0.09648575
000080 45 bf 6f bc 0a 8a 6c 3c ea a3 9f bd f4 f5 a0 bd
       -0.014633005 0.014437208 -0.07794936 -0.07859412
000090 84 27 a4 bd ce 67 07 3c 43 39 89 bd de 5e f7 bd
       -0.080153495 0.008264495 -0.06700375 -0.12078641
0000a0 53 36 e0 3d 68 09 b0 3c 7d 97 08 bd ce 24 ba 3d
       0.109478615 0.02148886 -0.033347595 0.09089051
0000b0 70 f4 86 3c 94 40 11 be 3e c0 fa bd 2b 47 9d bd
       0.016473979 -0.14184791 -0.122436985 -0.0767959
0000c0 c8 28 08 bd 59 d1 35 bb 43 b7 82 bc ca 07 dd 3c
       -0.033242017 -0.002774319 -0.015956527 0.026981253
0000d0 f8 15 5a bd 21 c7 eb 3d 22 dc 33 3c 3a 0d 10 be
       -0.053243607 0.1151259 0.010977777 -0.14067546
0000e0 f8 d5 b6 3b 73 71 a9 bd 10 b2 50 bb 40 ae b1 3c
       0.0055797063 -0.08273592 -0.0031844415 0.021689534
0000f0 df ca a2 bd d0 a5 a5 bb 8a e0 de bd 3d 4c 56 bc
       -0.07948851 -0.005055167 -0.10882671 -0.0130797
000100 db 6a ad 3c 96 00 f5 bd f3 fc 0e be b4 30 00 3e
       0.021169117 -0.119630024 -0.1396368 0.12518579
000110 3c 9e 38 bd 5f 02 8f bd 32 ee 1c 3d 92 79 e1 3c
       -0.04507278 -0.06982874 0.0383131 0.02752379
000120 b7 02 9d bd 27 2c f2 3d b9 44 02 bc 18 5e 3c 3d
       -0.076665334 0.11824828 -0.007950955 0.045988172
000130 06 4a 89 3c 75 d4 bd bd d0 5d 4e 3d 4c d6 fa 3d
       0.01675893 -0.092690386 0.050382435 0.12247905
000140 48 2e 9d bd 39 24 f6 bb e7 b1 99 bb 1c 62 d3 bc
       -0.07674843 -0.0075116423 -0.004690397 -0.025803618
000150 82 f6 29 3c a6 aa f0 3d 2b c0 a4 3c 78 0c 22 bc
       0.010373713 0.117512986 0.020111164 -0.009890668
000160 51 20 63 bd 6e e0 41 3c f5 56 07 be 82 2b 24 bd
       -0.05545074 0.011833293 -0.13216765 -0.040080555
000170 4d 65 cf bd 6e f2 42 bc c5 cb b8 bd 18 c6 81 bc
       -0.101267435 -0.01189862 -0.09023241 -0.015841529
000180 34 ac 0f 3e f2 82 d5 3d 70 23 90 bc c0 46 01 be
       0.14030534 0.104253665 -0.017595023 -0.12624645
000190 f0 00 10 be 80 1a cd bd 27 a0 12 be 05 67 03 be
       -0.14062858 -0.1001482 -0.14318906 -0.12832268
0001a0 5e ab 7e bd d9 09 52 bd 2f 46 a3 3c 35 37 cb 3b
       -0.062175147 -0.051278923 0.019930927 0.0062016496
0001b0 3e 21 8d bd 05 0a 9e bd 68 92 9b 3a 3e 85 08 be
       -0.06891106 -0.07716755 0.0011869194 -0.13332078
0001c0 b2 24 b1 39 ff a1 ba 3d b3 c5 fd bd ab 23 ea bd
       0.0003378741 0.091129296 -0.12391224 -0.114325844
0001d0 65 f5 cb bc 56 77 9e bd e8 f4 59 3d 22 51 48 3d
       -0.024897287 -0.07737605 0.053212076 0.0489055
0001e0 af 71 fe 3d 3c 3a d1 bd 0e d2 a3 3d d9 31 0e bd
       0.12424027 -0.102161855 0.07999049 -0.034715507
0001f0 8b 62 65 bd 5b 9d 43 bc ae 22 cd bd 27 65 23 3c
       -0.05600218 -0.011939372 -0.1001638 0.009972847
000200 d2 b9 9c bd 51 ee a7 bd 07 f0 bd bc 14 f4 2f ba
       -0.0765263 -0.08199752 -0.023185743 -0.00067120907
000210 0c 6d b8 bc 08 53 e5 3d 85 2e 7e bc 50 dd f2 bd
       -0.022512935 0.111974776 -0.015514021 -0.11858618
000220 0b d8 2e bd 6b d0 6f 3c 5d 62 52 3c 33 84 5c bd
       -0.042686503 0.014637093 0.012840834 -0.053837012
000230 7f 14 4f ba 0b c5 10 be 49 fd 4b bd da c7 12 be
       -0.00078994775 -0.14137666 -0.0498021 -0.1433405
000240 56 62 55 bd 9a 0b ef bd 9e 55 00 bd 58 13 d3 bd
       -0.052095734 -0.11672135 -0.03133165 -0.10306424
000250 0c 8b e8 bd da c9 5b bd e2 b7 00 be fe 3c 76 bd
       -0.11354646 -0.053659298 -0.12570146 -0.06011676
000260 26 ff cf bd b2 50 0c be 59 46 ba 3c 7a ee 13 3c
       -0.101560876 -0.13702658 0.022738623 0.009029025
000270 ed 0e 74 bc 2e 3c 7f bd c1 a9 dc bd 81 f0 30 bc
       -0.014896137 -0.06231325 -0.107745655 -0.010799528
000280 51 05 d7 bc 85 45 dd bd a3 e3 69 bc e1 c6 69 bd
       -0.026247652 -0.108042754 -0.014275464 -0.05707443
000290 9d 0a 22 bd 07 d6 9c bd cb 9d 89 bd ca ba 93 bc
       -0.039560903 -0.0765801 -0.0671955 -0.018033404
0002a0 f0 9f 00 bc f6 ea 93 bd 2d e5 b2 bd 24 52 52 3c
       -0.007850632 -0.072225496 -0.08735118 0.012836967
0002b0 48 db 63 bc 8f 17 07 be 1c 33 bb bd e8 31 a0 bd
       -0.013907261 -0.1319258 -0.09140608 -0.07822019
0002c0 3c bd e4 bb 4b 30 9c bd 0a 32 81 bd 1a 3a 9b 3b
       -0.0069805663 -0.07626399 -0.06308372 0.004737151
0002d0 c9 4a cc bc 98 9f 08 bc 6c ce 95 3c 50 6b 0f bd
       -0.024938004 -0.008338831 0.018286906 -0.03501445
0002e0 d8 85 a6 bd eb aa 85 3c 78 19 52 bd 25 b3 f2 bd
       -0.081309974 0.016316852 -0.05129382 -0.11850575
0002f0 b1 ca b7 bd 4e d2 87 bc 21 da 31 3d b2 f6 34 3b
       -0.08974207 -0.016579773 0.043420915 0.0027612862
000300 74 1e 14 bc 12 97 be bd 19 d6 0d 3e 16 aa 07 bd
       -0.009040464 -0.09306158 0.13851203 -0.03312119
000310 cd cc a0 bc 17 de 85 3a 83 6f dc bd a0 15 f2 bd
       -0.019628907 0.0010213283 -0.10763457 -0.11820531
000320 df 90 d8 bc 4c 10 e8 bc 55 a1 ec bd 1c 7b 00 be
       -0.026436267 -0.028328083 -0.11554209 -0.12546962
000330 6f 42 0e be 46 36 cc bd c2 ad 90 bd 09 53 37 bd
       -0.1389253 -0.09971289 -0.07064392 -0.044756923
000340 a2 37 9e bc 7e c0 d7 bc 8b c5 ca bc 4d 58 da bd
       -0.019313637 -0.026336905 -0.024752399 -0.10661373
000350 5c 32 92 bd c2 76 f4 bd a2 29 9f bd e6 a4 21 bd
       -0.071385115 -0.11936714 -0.07771613 -0.0394639
000360 14 ea 08 be bb 48 aa bd 15 b7 89 bd 30 c5 b6 3d
       -0.13370544 -0.083146535 -0.06724373 0.08924329
000370 08 f3 db 3c 5b a1 12 be 70 a9 91 bc b9 2d c4 3d
       0.026849285 -0.14319365 -0.01778099 0.095790334
000380 22 5e 03 be 1f b5 10 bd 3f 73 be bd 39 eb 59 bc
       -0.12828878 -0.03532898 -0.09299325 -0.01330071
000390 06 21 23 bd de 9f 49 bd 94 43 14 bd 66 b2 33 3c
       -0.039826415 -0.049224727 -0.03619726 0.0109678265
0003a0 62 4c e4 bd 26 26 54 bb fe 88 24 bd a2 a8 0c be
       -0.11147381 -0.003237137 -0.04016971 -0.13736203
0003b0 7c 76 d4 bd 9c 0c 22 bb ec 97 b0 bd 5d 8d ad 3b
       -0.103741616 -0.0024726754 -0.08622727 0.005296393
0003c0 af f8 e8 bd 1a c2 26 bd 5e 8d ce bd 5c 80 0a be
       -0.11375558 -0.040712453 -0.100855574 -0.13525528
0003d0 f3 ea 7b bd a6 03 d6 bd 52 e1 d5 bd a4 d2 bf bd
       -0.061503362 -0.10449915 -0.10443367 -0.093663484
0003e0 6c 20 cb bd 06 31 bf bd 86 54 2f bc 5e 27 b5 ba
       -0.09918293 -0.09335522 -0.010701304 -0.0013820936
0003f0 49 16 5f bd cd 5d 91 bd d8 b1 62 bc 9a a2 13 bd
       -0.054464612 -0.07097969 -0.013836347 -0.03604374

conv2.0.bias f4 [32]
000000 4b 55 06 3e f2 d5 22 3c 85 ba d7 bd ff 64 03 bc
       0.13118474 0.009938704 -0.10533623 -0.008019685
000010 51 0c b9 3d b5 47 fc bd 47 6e f2 bd c3 b4 7a bc
       0.09035552 -0.123183645 -0.1183744 -0.015301886
000020 94 b1 4d 3d 33 10 a9 bc 8b cd b9 3d e9 77 8c 3c
       0.05021818 -0.020637607 0.09072407 0.017147021
000030 a4 f9 a6 bd 2e bf c9 bc 8a ac 29 bc f4 f1 c7 3d
       -0.08153084 -0.024627294 -0.010356078 0.09762946
000040 79 a8 66 bd cd ea 61 3d 26 d1 b7 bc d2 ee 62 3c
       -0.05631301 0.055155564 -0.022438597 0.0138508845
000050 1a a5 51 3d 4c 44 f2 3b 7d 80 5c bb d2 8e ac 3c
       0.051182844 0.0073933955 -0.003364592 0.021064196
000060 b9 da d9 3d 8c 1c 0b be ea 86 47 3c a5 94 c5 bc
       0.10637421 -0.13585109 0.012178162 -0.02411873
000070 ff 7d 0a 3e fe 9f 7c 3d d7 b9 f4 bd c7 ef b9 bd
       0.13524626 0.061676018 -0.11949509 -0.09078937

conv3.0.weight f4 [64, 32, 3, 3]
000000 71 c2 b5 bc 77 73 30 3d b9 f4 4f bd 2d 7d 01 bd
       -0.022187443 0.043078866 -0.050770495 -0.031613518
000010 6a 32 13 3d 0d 8d a9 3d a9 82 2d bd ac 63 85 bd
       0.03593675 0.082788564 -0.042360935 -0.065131515
000020 15 25 8b 3d 3b e9 b1 bd 05 2f 60 3d d1 91 28 bd
       0.06794182 -0.08687063 0.05473234 -0.041154686
000030 23 11 e0 bc 6c 71 be bd 05 b4 a3 bd 01 c4 43 bd
       -0.027351921 -0.09298977 -0.079933204 -0.047794346
000040 8e 73 b5 3d 30 25 d7 3d 58 1a 6f bd 17 5b a9 3d
       0.08859931 0.1050514 -0.058374733 0.08269327
000050 73 d0 0b 3d ef fe 80 bd 6a 34 f1 3d f5 76 af 3d
       0.03413434 -0.06298625 0.11777575 0.08567611
000060 bd d9 a4 bd 82 98 ff bc b3 d5 82 3d 5c ba 30 bd
       -0.08049343 -0.031200651 0.06388416 -0.043146476
000070 bf 54 d9 3d 9a c1 62 bd 85 66 d5 3d c0 ed 75 3d
       0.10611867 -0.055360414 0.10419945 0.06004119
000080 de ed ac bd ad b5 c0 3d dc c9 df bd 38 d5 e9 bc
       -0.08443807 0.09409652 -0.109271735 -0.028544053
000090 a4 83 7b 3d dd db 83 bd 01 c6 a0 3c bf 96 9d bd
       0.06140484 -0.0643842 0.019625666 -0.07694768
0000a0 1e 5c cc bd 9a dd 0e 3c 4f 15 47 bc e8 51 8b bd
       -0.099785075 0.008719826 -0.012151076 -0.06802732
0000b0 ab 5a 72 bd 2a f8 4b bd 4c f5 ad bd 17 40 df 3d
       -0.0591685 -0.049797215 -0.08494052 0.10900896
0000c0 8c d3 cc bd 69 16 fd bc 99 7f 7f 3d 92 e8 ce ba
       -0.10001287 -0.030894475 0.062377546 -0.0015785864
0000d0 44 e5 9a 3d 1f 39 d1 3c d9 a8 b6 3d 4a 9f ef bd
       0.0756326 0.025539933 0.08918924 -0.11700304
0000e0 70 5a 76 bd 6e 44 ed bd 36 84 dd 3b 80 f8 c0 bd
       -0.06014484 -0.115853176 0.0067601455 -0.094223976
0000f0 02 40 cd bd 43 30 e6 3d 86 6f 80 bb 74 48 fe 3c
       -0.10021974 0.11239674 -0.0039195446 0.031040408
000100 b6 09 89 3d 46 5a 70 3c 08 bd 83 bd f3 e7 e1 bd
       0.06691305 0.01466996 -0.06432539 -0.11030569
000110 31 5a a3 bc 47 f1 e9 3d 30 60 91 bd d8 59 22 bd
       -0.019940468 0.11422973 -0.070984244 -0.039636463
000120 46 70 cd bd 1b 72 f1 bc 69 57 29 bc f4 7d 56 bc
       -0.1003118 -0.029473355 -0.010335782 -0.013091553
000130 f7 ad 9e bd e7 cb 23 3d 8d f6 b1 3d 0e d0 65 3d
       -0.07748025 0.03998938 0.08689604 0.05610662
000140 61 03 92 bc b7 be ab bd 68 99 d1 3d 8f 31 a2 3d
       -0.017823877 -0.08385985 0.10234338 0.07919609
000150 c0 d5 b2 bd b1 c9 bf bc e5 d1 31 bd f4 83 69 3d
       -0.08732176 -0.023411604 -0.04341306 0.057010606
000160 5d 7f c7 bd 8f 68 51 3d 7b da b5 bd 27 b7 88 3d
       -0.097410895 0.051125105 -0.088795625 0.066755585
000170 6a 58 bf 3d b5 b6 a0 bc 81 42 cc 3c 54 94 e7 bd
       0.093430355 -0.019618372 0.024934055 -0.11307588
000180 99 70 12 bd f4 54 ce 3d 65 8e b4 3d b0 cc ab bc
       -0.035751913 0.10074797 0.08816222 -0.020971626
000190 a7 e5 87 bd 59 08 46 bd fe e4 c0 bd 7c 92 f2 bc
       -0.066355996 -0.048347805 -0.09418677 -0.029610865
0001a0 c7 09 9b 3a 45 40 2d 3d f4 f5 89 bc 40 92 07 bd
       0.0011828475 0.04229762 -0.016840912 -0.03309846
0001b0 05 67 68 3d 74 30 5f 3d dd fa da 3c 07 fe bf bd
       0.056738872 0.054489568 0.026730949 -0.09374624
0001c0 02 55 1c bd ee 4e 8f 3d 79 34 8d 3c 1e bd 51 3c
       -0.038167007 0.069974765 0.017236935 0.012801437
0001d0 58 f1 6f 3d d1 da d8 bd 14 d7 b3 bd e7 67 54 bd
       0.058579773 -0.10588611 -0.08781257 -0.0518569
0001e0 8c 10 46 bd d8 2e 6e bc 93 be d9 bd eb fb 07 3c
       -0.048355624 -0.014537536 -0.10632052 0.008299808
0001f0 0c ae cc 3d 08 5d d7 3d a6 99 bf bd eb f8 47 bc
       0.09994134 0.10515791 -0.09355478 -0.012205343
000200 0d 2b e0 bd e2 43 18 3c 97 0b c7 bd 7b 49 0c 3d
       -0.10945711 0.009293528 -0.097190075 0.034249764
000210 70 3a df 3c 05 b0 83 3d b3 79 06 bd 44 ff d5 bd
       0.027249545 0.064300574 -0.032830905 -0.10449079
000220 da f3 48 bd bd b6 37 3c 51 3f d3 3d 9d ae ae 3c
       -0.04906068 0.011213002 0.10314811 0.021323496
000230 ac d0 96 3d b8 81 ce bd d2 90 8f bd f4 20 bd bd
       0.0736402 -0.10083336 -0.07010044 -0.09234801
000240 1a d3 8c 3d 87 6b 21 3d 1f 5a 8c 3d c1 d8 01 3d
       0.06876202 0.039409187 0.06853127 0.031700853
000250 64 0d e6 3d 97 d8 8f bd 77 54 35 bd 1e 1a e5 bd
       0.11233023 -0.07023733 -0.044270005 -0.11186622
000260 8c 48 9c bd ce d8 dc 3d 4f 33 b4 3d ce 72 e5 3d
       -0.07631025 0.1078354 0.08798849 0.11203538
000270 9d 00 db 3d 09 ce af 3d 4f b5 86 3d 5d 0e 79 bd
       0.10693476 0.0858422 0.065775506 -0.060804714
000280 26 fd 3f bc 5f 84 5e bb d7 c5 8d bc c6 81 2e bd
       -0.01171807 -0.003395341 -0.017306251 -0.04260423
000290 9c fa dc bd 9f b9 de bb 07 bd bd bd 44 e8 d5 3d
       -0.107899874 -0.00679703 -0.0926457 0.10444692
0002a0 5a 2c ba 3d 00 1b 8d bd 5e b1 a4 bc 5f 49 57 bd
       0.09090491 -0.068899155 -0.020104107 -0.052560207
0002b0 b6 71 aa ba 9a 16 85 bd 81 bf 02 bd a6 9c 1e bc
       -0.0013003859 -0.064984515 -0.031920914 -0.009680903
0002c0 cd 44 8e bd 1d cc c7 3d 7c bd c4 3d 5f da bd 3d
       -0.069467165 0.097557284 0.09606454 0.092701666
0002d0 c1 81 ac bd 0a e3 0e bd 0c 77 3b bb 32 4a 37 3d
       -0.08423186 -0.03488449 -0.0028604893 0.044748493
0002e0 e5 c0 f3 3c ac ff 9e 3d 15 ab 70 3d 2b a6 d3 bc
       0.029755065 0.07763609 0.058756907 -0.025836071
0002f0 21 72 6a bd 28 a7 d7 bd ac db a4 3d 0b d4 f3 bc
       -0.057237748 -0.105299294 0.080497116 -0.029764196
000300 83 e3 15 bd f8 23 f9 3c 0e 9d da 3c 09 b2 b1 bc
       -0.036593925 0.030412659 0.026686218 -0.02169134
000310 f6 e6 e2 bd 15 02 03 3d 80 38 d3 bd 3b 3a b1 bd
       -0.110792086 0.031984407 -0.10313511 -0.08653685
000320 b2 e0 10 bd 99 b6 da ba 24 8f 9a bd 91 6a dc bd
       -0.035370536 -0.0016686498 -0.07546833 -0.107625134
000330 ca 67 d3 bc 1a 9c 54 3d 07 76 0f 3d a9 9c 94 bd
       -0.025806326 0.051906683 0.03502467 -0.07256443
000340 64 97 d9 bb fb f9 07 bd 60 a3 12 bd d9 c1 3f 3d
       -0.0066403616 -0.033197384 -0.035800338 0.046815727
000350 7e 18 1d bc 2c ff 88 3d 64 f0 37 bd 48 1c c5 3d
       -0.009588359 0.06689295 -0.04490699 0.09624535
000360 ac 40 8d bd 53 79 8f bd 0b c9 f0 bd a6 54 01 bb
       -0.06897101 -0.07005563 -0.11757096 -0.0019734292
000370 dc 3a de bd bd b6 eb 3d 3d 66 98 3d 1e b8 c8 bd
       -0.1085107 0.11509464 0.074413754 -0.098007426
000380 c5 41 ed bd 0e ac 16 bd fb 28 b6 3d af ce d2 bb
       -0.1158481 -0.036785178 0.08894535 -0.00643333
000390 42 08 b3 bd c6 0f 8d 3d 9f dc ba 3c 3f a8 f5 3c
       -0.087418094 0.06887774 0.022810278 0.029987453
0003a0 8f 5e 94 bd f1 08 a7 3d 4b 90 a2 3d 7e fd aa 3d
       -0.07244598 0.08156002 0.07937678 0.08349131
0003b0 a3 d9 b4 3d 0a 5b 89 bd bd b0 d9 3d 09 4f 2e bc
       0.088305734 -0.067068174 0.10629413 -0.010638961
0003c0 f5 11 a6 bd 1d 0e 71 bc 39 21 c4 3d 0a 72 da bd
       -0.08108894 -0.0147128375 0.09576649 -0.106662825
0003d0 49 96 b1 bd 87 8a f3 bd 25 42 69 bd 47 4a bc bd
       -0.08671243 -0.11891656 -0.056947846 -0.09193855
0003e0 b2 5b aa bd 5c 0f c6 3d 61 80 9c 3d b6 f0 9f 3c
       -0.08318271 0.09670898 0.07641674 0.01952396
0003f0 02 9c 8b 3c 7e dd 92 bd 75 02 33 3d a9 7c 88 3d
       0.017042164 -0.071711525 0.043703515 0.06664402

conv3.0.bias f4 [64]
000000 44 f0 ad 3a 0d ba 92 bd 35 34 d1 3c d3 d0 d0 bc
       0.0013270457 -0.071643926 0.02553759 -0.0254902
000010 20 01 44 bd e2 b9 f5 3b a5 89 a8 3d e6 2b cb 3c
       -0.047852635 0.0074989656 0.082293786 0.024801206
000020 24 6e 9f bd 9e 33 c0 3d 8d 40 b3 3d a0 9a 40 3c
       -0.077846795 0.09384845 0.087525465 0.0117556155
000030 e4 9b b0 bd 25 c5 3e 3d e7 f3 04 3d 84 bd 37 3d
       -0.08623484 0.04657473 0.032459166 0.04485847
000040 12 49 5b bd a4 f0 04 3d 4b fd 7c bc 8c 8f a7 bd
       -0.053536482 0.032456055 -0.015441249 -0.08181676
000050 17 6c 6d bc f6 80 b2 3c 56 d8 e9 bd ee 33 07 3d
       -0.014491103 0.021790009 -0.11418216 0.03300851
000060 f2 56 54 bd f9 be 93 bd d7 3c 9a 3d 7c de ef bd
       -0.05184073 -0.072141595 0.075311355 -0.117123574
000070 14 98 af 3c 86 d3 cb 3c 41 74 16 3d 4a 9c 4e bc
       0.021434821 0.024881136 0.036731962 -0.012610504
000080 98 7b 20 3d 75 a9 83 bd 11 9c c9 3d 36 9a 82 bc
       0.03918037 -0.06428806 0.098442204 -0.015942674
000090 58 6e a7 bd fd 9d 9d 3d 6a 20 a9 bd 96 a4 15 bd
       -0.08175343 0.076961495 -0.082581356 -0.036533915
0000a0 04 78 66 3d a4 9b b2 bd 0a 7d a9 bc 45 a3 fd 3c
       0.0562668 -0.08721092 -0.020689506 0.030961642
0000b0 bb 7d d4 bd 46 e8 29 3d 8f 61 a5 bd b5 e8 da bd
       -0.10375544 0.04148128 -0.080752485 -0.106889166
0000c0 62 6c 51 bd 11 cc 8e 3d 13 e2 e3 3d 97 48 47 3d
       -0.051128753 0.06972516 0.111271046 0.04865321
0000d0 a0 e1 80 3d 39 d1 b1 3d a6 64 b0 3c cc 0d 93 3d
       0.062930346 0.08682484 0.021532368 0.07180366
0000e0 9d 64 e6 3d ac ab a6 3c 07 0b 3a 3b f9 37 3b bc
       0.11249659 0.020345531 0.002838792 -0.011426919
0000f0 c2 da 82 bc e3 21 21 3d 06 7e b1 3d bc 6a d2 3d
       -0.015973452 0.039338958 0.08666615 0.10274264

conv4.0.weight f4 [128, 64, 3, 3]
000000 99 21 ab 3c 7c d4 aa 3c 97 72 7f 3d 4b c4 98 3d
       0.020890044 0.020853274 0.06236514 0.07459315
000010 4a 76 39 bd dc 0d be 3d bb ab 34 bd bf a5 cc 3d
       -0.045278825 0.09279987 -0.044109087 0.09992551
000020 bb b0 ac 3d 2d 42 8b 3d 33 e7 a5 bd 8f e6 80 3d
       0.08432146 0.067997314 -0.081007384 0.062939756
000030 10 90 fe 3c 44 4b 92 bd 6a 8c 3b 3d 00 b7 ba 3d
       0.031074554 -0.07143262 0.045788206 0.09116936
000040 ab 44 5f 3d 98 b5 a0 3d 9f bb b8 3d d5 b1 4b 3d
       0.054508846 0.07847136 0.09020161 0.04973014
000050 b9 16 5d 3d 72 2f ce 3d c9 46 c2 bc 59 6c 46 3d
       0.05397675 0.10067643 -0.023715394 0.048443172
000060 e4 64 33 3d dc 13 39 3d ac 22 86 3d 5a e5 b6 3d
       0.04379739 0.045184955 0.06549582 0.08930464
000070 1f 44 75 3d 9c 4b 69 bd cf a1 ab 3d 03 41 91 bd
       0.05987942 -0.056956872 0.08380472 -0.07092478
000080 08 5f c4 bd fc 0b c4 3d 30 19 88 3d a2 6c cd 3d
       -0.09588438 0.09572598 0.06645429 0.10030486
000090 62 28 9d 3d b6 75 a3 bd 12 f1 42 3d 4e c5 c8 3c
       0.07673718 -0.07981436 0.047593184 0.024508145
0000a0 1a ae 0b bd eb 63 10 3d ec 8f 76 bd 69 da b5 3d
       -0.034101583 0.03525154 -0.06019585 0.08879549
0000b0 be 8f 71 3d 67 99 bb 3d 89 2e 9e 3d aa 70 81 3d
       0.058974974 0.091601186 0.077237196 0.06320317
0000c0 a2 83 c0 3d c5 72 54 3d f7 2b ab bd fe 82 a1 3d
       0.09400107 0.051867265 -0.08357995 0.07886313
0000d0 26 1a cf 3d b1 c8 85 3d d2 9e b7 3d 9b 28 2f bd
       0.10112409 0.065324195 0.089658394 -0.042763334
0000e0 89 32 b0 3d 80 dc a3 bd ba 8e ac bd 67 f9 a6 3d
       0.08603389 -0.080010414 -0.084256604 0.081530385
0000f0 03 35 cf bd dc 26 76 3d 52 b9 93 3d f7 68 83 bd
       -0.10117533 0.060095653 0.072130814 -0.06416505
000100 a6 84 ae 3d f4 fa f6 bc 05 94 2e 3d 5b 2c d0 3d
       0.085213944 -0.03014896 0.04262163 0.1016471
000110 76 18 c0 3d a8 e7 af 3c 8e 06 cc 3d b2 45 0e 3d
       0.093796656 0.021472767 0.09962188 0.034734435
000120 f9 50 91 3d a5 da 9c 3d dc d8 f6 3c 21 68 83 3d
       0.070955224 0.07658891 0.030132703 0.064163454
000130 9c 32 3e bd 3b 68 8b 3d 11 cc 0f bd 99 cf e0 bc
       -0.046434984 0.0680699 -0.035106722 -0.02744274
000140 82 7e 5f 3d 43 a2 b7 3d c8 1d 8c 3d 74 54 ea 3c
       0.054564007 0.08966496 0.06841618 0.028604724
000150 c3 e5 42 3d a7 ef 5e bd 9d bf a5 bd f7 1b 45 3d
       0.0475824 -0.05442777 -0.08093188 0.048122372
000160 6b 60 c7 bc 98 c0 03 bd 45 e0 a0 3d fe 54 ce 3d
       -0.024337968 -0.032166094 0.07855276 0.10074805
000170 18 a9 cc bd f2 3c ef 3c f8 e3 3d bd ce 95 8e bd
       -0.099931896 0.029203866 -0.046359986 -0.06962167
000180 93 89 84 3d 9c ea cc 3d 37 a5 93 3d 1d 08 92 3d
       0.06471553 0.10005686 0.072092466 0.07130454
000190 2b 86 6f 3d 16 17 f1 3c 36 47 ce bd 8f 10 96 bd
       0.058477562 0.029429954 -0.10072176 -0.07327377
0001a0 04 7c c7 bd 43 03 76 3d b2 86 47 bd 4e fe e4 3c
       -0.09740451 0.060061704 -0.04871244 0.027953293
0001b0 fb c9 ab 3c 41 b9 54 3d 81 1d 69 3d 2a e1 58 3d
       0.020970335 0.051934484 0.056912903 0.05294911
0001c0 0c d5 93 3d 2f 20 cd 3d 4a 36 c4 bd 80 e0 38 3d
       0.0721837 0.10015904 -0.09580667 0.045135975
0001d0 3d 45 42 3d bb ab 75 bd d5 25 97 bc 37 5f 85 3d
       0.047429312 -0.059978228 -0.018450657 0.065123014
0001e0 71 d0 9c bd f5 bc cd 3d ac 5e 70 3d 3f 68 73 bd
       -0.076569445 0.10045806 0.058684036 -0.05942559
0001f0 3d 61 10 3d 66 fe 81 3d 7e 1c 8b 3d 77 c8 87 bd
       0.035248984 0.06347351 0.06792544 -0.066300325
000200 0d 87 a8 bc 86 e5 be 3d e1 57 cd bd bf c0 c1 3d
       -0.02057221 0.09321122 -0.10026527 0.094605915
000210 37 f4 70 bd d5 30 66 bd 35 5f 4f 3d d0 9f d6 3c
       -0.05882665 -0.056198914 0.050627906 0.026199251
000220 5d f5 96 3d 0a b2 1a bd fa b5 bf 3d 43 be c3 bd
       0.07371018 -0.037767448 0.09360881 -0.09557774
000230 ee f7 8e 3d 88 97 19 3d 6b 61 64 3d b7 f6 71 3d
       0.069808826 0.037498027 0.055756968 0.059073176
000240 f6 c4 c4 3d 6f 16 70 3d 1b 5b 73 3d 5c 07 86 3d
       0.0960788 0.058615144 0.059413057 0.065443724
000250 02 92 a4 3d ca 1b 2b 3d 5f 69 77 3d 46 df 31 3d
       0.08035661 0.04177455 0.060403224 0.04342582
000260 14 18 17 bd 09 95 92 3d cb 1e cf bd 9c 72 ee bc
       -0.036888197 0.071573325 -0.10113295 -0.029107384
000270 a2 28 6a 3d 75 94 f4 bc 6e ae bf 3c c0 c2 bb 3d
       0.057167657 -0.029855946 0.023398604 0.09168005
000280 08 f6 95 3d 88 0a 0e 3d ea 8a 56 3d a8 f2 01 3d
       0.07322317 0.034678012 0.052378573 0.031725556
000290 9e 9d bd bd 3a 06 9f 3c b5 c1 da 3c ca d7 2e bd
       -0.09258579 0.019412149 0.026703695 -0.04268626
0002a0 d7 a0 72 3d a6 f9 49 bd 6d 47 8f 3d 08 06 c3 3d
       0.05923542 -0.04931035 0.06996045 0.09522635
0002b0 7b fa 26 3d 3a d5 7d 3d 13 64 53 3d 3c 51 ba bc
       0.04076622 0.061970927 0.05160911 -0.022743814
0002c0 53 87 18 3d d1 f8 b8 3d b0 52 15 bd 14 00 b5 3d
       0.03723843 0.09031833 -0.03645581 0.088379055
0002d0 34 85 ca 3d 38 f8 87 bd 22 a9 09 3d e7 4a 91 3d
       0.09888688 -0.06639141 0.033608563 0.070943646
0002e0 b5 fb 01 bd e7 14 2f 3d 04 d6 ba 3c 10 65 94 3d
       -0.031734187 0.042744543 0.022807129 0.07245839
0002f0 b2 a9 33 3d 95 16 17 bd 03 d3 63 bd 85 d3 9e bd
       0.043863006 -0.03688677 -0.05562116 -0.07755188
000300 c3 46 bf 3d 43 32 26 3d 1a 56 5e bd bf 43 da 3c
       0.093396686 0.040575277 -0.05428133 0.026643632
000310 c1 18 bf 3d f9 5d 91 3d 55 84 91 3d 11 47 a4 bc
       0.09330893 0.07098002 0.071053185 -0.020053418
000320 b6 2a 2a 3d d6 60 05 3d b9 7b ba 3d 8b d8 86 3d
       0.04154464 0.032563053 0.091056295 0.06584271
000330 1e f5 30 3d 25 08 20 3d 96 f5 36 3d 03 96 5e 3d
       0.043202512 0.039070267 0.044667803 0.05434228
000340 a0 1e 28 bd d8 4b aa 3d eb 36 7c 3d f0 49 b5 bd
       -0.04104483 0.08315247 0.06157581 -0.08851993
000350 8b 9d 2e 3d 27 67 0e 3d 07 c8 82 3d ba e3 6b 3d
       0.042630713 0.034766342 0.063858084 0.057590224
000360 30 62 91 3d a4 2d eb 3c a8 0f 3b 3d ec 39 76 3d
       0.07098806 0.028708287 0.045669228 0.060113832
000370 b9 4d b1 bd 84 1e 94 3d 01 fe ba 3d 39 15 71 3d
       -0.086574025 0.07232383 0.09130479 0.05885813
000380 3f 52 49 3d d0 3f 05 bd bd 16 bb bd 28 c9 43 3d
       0.0491507 -0.03253156 -0.09135196 0.04779926
000390 1a 4f 0c 3d 96 a0 6a bd 2b d7 34 bd 58 c1 9c 3c
       0.034255125 -0.057282053 -0.044150513 0.019135162
0003a0 c0 79 99 bd a0 17 0a 3d c5 2b aa bd ef 7c f0 3c
       -0.07493925 0.033713937 -0.083091296 0.029356448
0003b0 a0 97 ac 3d a2 9a 8c bd 08 13 8d 3d be 98 9b bd
       0.08427358 -0.06865431 0.068883955 -0.07597493
0003c0 dc 91 03 3d 90 d2 e1 3c 5a 8c 1d 3d 82 49 29 3d
       0.032121524 0.027566224 0.038463928 0.04132987
0003d0 a1 9d 5b 3d 7b 31 71 3d 2b fc 32 3d 3b f7 1e 3d
       0.053617124 0.05888508 0.043697517 0.038809996
0003e0 10 9d 19 3d 26 87 70 3d ed 85 bc 3d 4f 8b ab 3c
       0.037503302 0.058722638 0.09205232 0.020940451
0003f0 bc 0c a4 3d f7 10 8a 3d 49 cb 18 3d 78 25 a7 3d
       0.080102414 0.06741517 0.037303243 0.081614435

conv4.0.bias f4 [128]
000000 03 71 1e 3d db e2 f2 bc 46 30 e3 bc 01 81 c6 3d
       0.038681995 -0.029649189 -0.02773298 0.09692574
000010 25 d5 4d bd c6 05 bc 3d 35 5a b4 bd 32 dd 43 3d
       -0.0502521 0.09180789 -0.08806268 0.04781837
000020 8e 35 b2 bd 0c b3 7d 3d c9 a9 e4 bc ab 53 5c 3d
       -0.08701621 0.06193833 -0.027912991 0.05379073
000030 81 9f 9a bd fa 70 2b bd 19 10 8e 3d 97 e6 b0 3d
       -0.07549954 -0.04185579 0.06936664 0.086377315
000040 20 3e 02 bd 18 ba 84 3d 62 eb ac 3d 53 cb 70 3d
       -0.03179753 0.06480807 0.08443333 0.058787655
000050 09 73 0c bd d2 8e 6d 3d eb c7 30 bd f9 b5 9d 3d
       -0.034289394 0.057997532 -0.043159407 0.07700724
000060 56 fd c9 bd 7b 42 ab bd c5 ab cd 3d ea 23 b9 bd
       -0.09862773 -0.083622895 0.10042528 -0.09040053
000070 34 44 59 bd 65 03 89 bd 91 25 1a 3d 21 22 c1 bd
       -0.05304356 -0.066901006 0.037633482 -0.09430338
000080 63 55 37 3d 5d c1 c9 bc cb c7 af bc 2e bd a7 bd
       0.044759165 -0.024628336 -0.021457573 -0.0819038
000090 84 e3 9b 3d 1e 03 c1 3d be c5 1b 3d 55 2c b0 3d
       0.076117545 0.09424423 0.03803038 0.08602206
0000a0 1d 63 5e 3d 73 76 a0 bd 8d ff df bc 0a 4e 44 3d
       0.05429374 -0.078350924 -0.027343536 0.047925986
0000b0 a8 6e d3 3c 91 d4 bb bd 33 bd b5 3d cc e3 a1 3d
       0.025809601 -0.09171403 0.088739775 0.07904777
0000c0 35 3a bd bc 6f 8a c9 3d 74 e6 1e bd 60 73 ae 3c
       -0.023099044 0.09840857 -0.038793996 0.02129525
0000d0 64 71 ff 3c 33 c7 82 3d b5 96 78 3d cc 2d af bd
       0.031181999 0.063856505 0.0606906 -0.08553657
0000e0 89 72 c3 bd 8d a9 9e 3d d7 4d 69 3d 19 4e 9e 3d
       -0.0954333 0.07747183 0.056959 0.0772974
0000f0 0e 90 b1 bc a2 4c 9f bc c7 76 51 bd 6d be 9c bc
       -0.021675136 -0.019445721 -0.051138666 -0.01913377
000100 07 70 95 bd dd 44 61 bd 5b ee b3 3c af b2 ce 3c
       -0.07296758 -0.054997314 0.021964243 0.025231687
000110 98 f1 84 3d 76 9a 99 3c 8a 3c 36 bd 34 c9 65 3d
       0.06491393 0.01875041 -0.04449133 0.056100085
000120 91 28 9d 3d a9 d4 a6 bd ef c6 9b bc 82 38 04 3d
       0.07673753 -0.081460305 -0.019015757 0.032280453
000130 e0 4d 14 bd c0 27 27 bd 01 28 78 3d 9b fc 9b 3c
       -0.03620708 -0.040809393 0.060585026 0.01904135
000140 fe 8d e4 bc 33 8a 5d 3d 45 4d 47 3d 2a b0 82 3d
       -0.027899738 0.054086875 0.048657674 0.06381257
000150 d2 6d 9c 3d c5 87 f3 3c 6b fc c3 bc c9 8f 36 3d
       0.07638134 0.029727826 -0.023924073 0.044570718
000160 a9 3b 7c 3d 1c 45 ba 3d 9c 05 7c bd 6f 45 b9 3d
       0.061580334 0.09095213 -0.061528787 0.090464465
000170 68 78 b4 3d ca 2e a3 3d 7f 71 35 bd de 11 20 3d
       0.08812028 0.07967909 -0.04429769 0.03907954
000180 96 c3 60 bd 0d a3 72 bd 07 d4 5a bd 4d 3d 8f bd
       -0.054874025 -0.05923753 -0.05342486 -0.06994114
000190 a1 57 b5 3d ce 69 d3 bc 11 90 8f bd 4b 44 ce bd
       0.088546045 -0.025807288 -0.070099 -0.100716196
0001a0 0f 02 81 bd 4b 9d aa 3d f9 56 b9 bd 86 0d ae bc
       -0.06299221 0.083307825 -0.09049792 -0.021246683
0001b0 88 85 1c 3d b7 34 96 3d 7e f7 cc bd 65 53 a3 bd
       0.038213283 0.07334273 -0.10008143 -0.079748906
0001c0 b7 bc 3b bd 4b d7 9d 3d 24 0b c9 bc 63 3c 13 3d
       -0.04583427 0.077070795 -0.024541445 0.03594626
0001d0 42 86 b5 bd 66 80 9c 3d d3 17 95 bd e2 ec 98 3d
       -0.08863498 0.076416776 -0.07279935 0.07467057
0001e0 06 bd b0 3d 9e 33 1a 3d 25 de f4 bc 45 5a 08 bd
       0.08629803 0.037646882 -0.029891083 -0.033289213
0001f0 4d c0 cb bd c0 5e af 3d 66 2b c7 3d ab 2a 74 bd
       -0.09948788 0.08562994 0.097250745 -0.059611004

linear.weight f4 [3, 35712]
000000 24 bb 67 bd 33 a2 83 bd 04 f4 83 bd 43 8c 80 bd
       -0.056574956 -0.064274214 -0.06443027 -0.06276753
000010 51 36 80 bd f3 ac 66 bd 2e a8 7c bd 9b 93 6a bd
       -0.0626036 -0.05631728 -0.061683826 -0.057269674
000020 88 04 69 bd 75 7c 81 bd e9 96 79 bd 82 63 63 bd
       -0.056889087 -0.063225664 -0.060934935 -0.05551482
000030 26 78 6f 3d 88 36 71 bd ea 01 62 bd 2d 83 7f bd
       0.05846419 -0.058889896 -0.055177607 -0.06238096
000040 74 86 6b bd fb 54 80 bd 93 ff 84 bd 7d 60 64 bd
       -0.05750127 -0.06266209 -0.064940594 -0.05575608
000050 0d 82 85 bd 21 ab 7e bd 77 d9 66 bd 06 82 7b bd
       -0.06518946 -0.06217492 -0.056359734 -0.061403297
000060 98 20 7e bd 79 f5 80 bd a2 28 6f bd 17 95 7c bd
       -0.062042803 -0.0629682 -0.05838836 -0.06166562
000070 2d 3b 6a bd 85 34 6e bd 47 28 d1 3a 6a d2 81 bd
       -0.05718534 -0.058155555 0.0015957438 -0.063389614
000080 e0 95 7c bd 46 b9 6a bd 12 63 6d bd ee 7b 83 bd
       -0.06166637 -0.057305597 -0.05795581 -0.06420122
000090 28 81 7a bd 00 10 64 bd ab 1f 73 bd 5c 78 7e bd
       -0.06115833 -0.05567932 -0.059356373 -0.062126502
0000a0 25 18 79 bd 3e f5 83 3d 4f 52 68 3d 52 34 83 3d
       -0.06081404 0.064432606 0.05671912 0.06406464
0000b0 82 47 69 bd c3 be 65 bd 27 fd 84 bd 51 b4 80 bd
       -0.05695296 -0.056090128 -0.064935975 -0.062843926
0000c0 d8 f8 62 bd 10 e7 61 bd c7 a5 71 bd 38 e3 66 bd
       -0.055413097 -0.055152 -0.05899599 -0.056369036
0000d0 98 ac 80 bd f6 76 7c bd d0 80 67 bd a6 d0 85 bd
       -0.0628292 -0.061636887 -0.05651933 -0.06533937
0000e0 91 73 64 bd 2b 86 69 bd 7b 60 80 bd 7f d1 82 bd
       -0.055774275 -0.05701272 -0.06268402 -0.063876145
0000f0 07 e3 61 bd d9 de 82 bd 3f b5 80 bd d3 ab 6c bd
       -0.05514815 -0.06390161 -0.0628457 -0.05778105
000100 de 40 81 bd 75 27 80 bd 02 80 83 bd 4d 96 7b bd
       -0.063112006 -0.06257526 -0.064209 -0.061422635
000110 88 da 74 bd 97 38 85 bd cf 37 79 3d cb 78 75 bd
       -0.05977872 -0.06504934 0.06084424 -0.05992965
000120 7e 13 77 bd b2 63 7e bd e7 23 61 bd 80 bc 73 3d
       -0.060321324 -0.062106796 -0.05496588 0.05950594
000130 11 dc 69 bd f6 99 7c bd 9d 79 81 bd bf bc 81 bd
       -0.057094637 -0.061670266 -0.06322024 -0.063348286
000140 7c d2 70 bd 76 d8 6b bd 05 57 82 bd 4d 3a 67 bd
       -0.058794484 -0.05757948 -0.06364254 -0.056452084
000150 1d 95 7a bd 7a 13 70 bd 5d 45 83 bd af d7 69 bd
       -0.06117736 -0.058612324 -0.06409714 -0.057090458
000160 88 29 73 bd 48 ef 6d bd 41 36 77 bd 7a f3 76 bd
       -0.05936578 -0.058089525 -0.060354475 -0.06029079
000170 7b 41 84 bd c8 58 65 bb b4 c2 81 bd d4 f2 78 bd
       -0.06457802 -0.0034995545 -0.06335965 -0.060778454
000180 a9 b8 85 bd f1 0e 69 bd cb a9 68 bd 49 cf 68 bd
       -0.06529362 -0.056899015 -0.056802552 -0.056838308
000190 01 a3 7c bd c9 a1 7d 3d b0 29 7e 3d 29 36 84 3d
       -0.06167889 0.06192187 0.062051475 0.06455643
0001a0 4d 05 70 3d 2c 78 73 3d 69 58 82 3d 96 40 74 bd
       0.058598805 0.059440777 0.06364519 -0.059631906
0001b0 99 9d 84 bd 65 bc 76 bd f7 4b 84 bd 72 4a 6e bd
       -0.06475372 -0.06023826 -0.06459802 -0.058176465
0001c0 95 38 83 bd 87 24 66 bd 81 47 6c bd 7b da 82 bd
       -0.064072765 -0.05618718 -0.05768538 -0.06389328
0001d0 65 87 7e bd 4b bd 76 bd ca 3f 7a bd 75 12 1e bb
       -0.06214084 -0.060239118 -0.06109599 -0.0024119888
0001e0 7e a6 92 bb ea b9 a4 bb 46 45 1a 3b 78 f1 29 3a
       -0.004475414 -0.0050270455 0.0023539825 0.000648282
0001f0 f4 e4 d5 3a 90 13 71 bd 92 54 7d bd 2a 94 75 bd
       0.0016318844 -0.058856547 -0.06184823 -0.059955753
000200 b6 e8 83 bd cb 48 65 bd d9 8b 82 bd 3c 3c 65 bd
       -0.064408705 -0.055977624 -0.0637433 -0.055965647
000210 27 66 83 bd 60 00 74 bd 0f bc 6a 3d e2 a2 69 bd
       -0.064159684 -0.05957067 0.057308253 -0.057040103
000220 17 fe 66 3d 68 98 68 3d 1d 05 7e bd 7a 78 82 bd
       0.056394663 0.05678597 -0.062016595 -0.06370635
000230 50 5f 6a bd 2e 3a 69 bd 00 c9 72 3d 46 0c 7e 3d
       -0.057219803 -0.05694025 0.05927372 0.062023424
000240 5c 83 85 bd 61 74 7a bd bc 1d 72 bd 90 d0 67 bd
       -0.065191954 -0.061146144 -0.05911039 -0.056595385
000250 99 38 6d bd 23 1f 66 bd 08 69 5d b9 d1 1f 59 bb
       -0.057915304 -0.056182038 -0.0002111533 -0.0033130536
000260 3e dc 2c ba 23 80 88 bb ac 16 7b bb ae ff 49 bb
       -0.0006594098 -0.0041656657 -0.0038313074 -0.0030822563
000270 ed bf 7d bd 98 2c 7b bd c7 a1 63 bd 00 96 69 bd
       -0.061950613 -0.061321825 -0.055574205 -0.057027817
000280 6f 9f 66 bd e8 3b 84 bd 24 cf 80 bd 7a bc 6a bd
       -0.05630439 -0.06456739 -0.06289509 -0.05730865
000290 12 ba 7c bd c9 8e 6b bd a7 95 69 bd fb 6f 83 bd
       -0.061700888 -0.057509217 -0.057027485 -0.06417843
0002a0 6e 12 6f bd 62 a6 80 bd 75 56 7f bd be 2f 81 bd
       -0.058367185 -0.06281735 -0.06233831 -0.06307934
0002b0 f8 02 79 bd aa 78 6c bd 97 97 7f bd 5e 62 77 bd
       -0.060793847 -0.05773226 -0.062400427 -0.060396545
0002c0 c5 a2 83 bd 01 a8 81 bd 40 47 6d bd 31 c1 81 3b
       -0.0642753 -0.06330872 -0.057929277 0.003959798
0002d0 59 12 09 bb 74 73 11 bb 61 61 7e bb 7a a6 ac bb
       -0.0020915477 -0.002219406 -0.0038815367 -0.005268869
0002e0 e8 65 4d 3a 6a 24 2f 3b 76 b1 75 3b 8f 52 6a bd
       0.00078353146 0.0026724585 0.0037489808 -0.05720764
0002f0 b4 88 66 bd f4 48 7c bd a4 f7 81 bd 6a 92 7f bd
       -0.056282714 -0.06159301 -0.06346062 -0.06239549
000300 a6 cb 74 bd db 73 79 bd 1f 6b 65 bd fa f4 80 bd
       -0.059764527 -0.060901504 -0.05601036 -0.062967256
000310 7f c0 82 bd f7 10 61 bd 77 fa 6d bd 6b 00 82 bd
       -0.06384372 -0.05494782 -0.05810019 -0.06347736
000320 28 aa 85 bd 96 4e 68 bd 39 16 6e bd 6b 7e 84 bd
       -0.06526595 -0.05671557 -0.058126662 -0.06469425
000330 1d a4 84 bd 2c 9b 79 bd 90 99 70 bd f5 0c 7f bd
       -0.064766146 -0.060939 -0.0587402 -0.062268216
000340 57 1d 77 bd 2a e7 62 3b c4 81 9c ba 70 14 02 ba
       -0.060330715 0.0034622648 -0.0011940529 -0.0004962152
000350 8e 82 5f 3b 12 64 46 bb 7b c7 83 3b 9f 6a ac 3b
       0.0034104916 -0.003027205 0.0040215827 0.0052617337
000360 c0 49 f1 ba 98 32 f5 3a b2 07 82 bd 6d 12 7b bd
       -0.001840882 0.0018707095 -0.06349124 -0.06129687
000370 0a 23 62 bd 79 b5 81 bd ad 5d 81 bd 3b b1 77 bd
       -0.055209197 -0.06333441 -0.06316695 -0.060471755
000380 2b 8b 60 bd b1 ba 6f bd 97 a4 76 bd d3 ae 75 bd
       -0.05482022 -0.058527652 -0.06021556 -0.05998118
000390 bf b1 85 bd bb ce 6e bd 34 4d 05 3d 62 ce 70 bd
       -0.06528043 -0.058302622 0.03254433 -0.058790572
0003a0 97 00 7c bd d1 88 7b bd 16 ae 72 3b 12 f0 c5 ba
       -0.061524 -0.061409775 0.0037030033 -0.0015101454
0003b0 fa 67 2c 3b 77 e5 48 bb df be 8b 3b 98 70 00 3a
       0.0026307092 -0.003065435 0.004264697 0.000489959
0003c0 2c 51 49 bb b6 0a 51 bb dc db f2 3a 50 88 29 ba
       -0.0030718548 -0.0031897253 0.0018528658 -0.00064671505
0003d0 1a 35 c6 ba e8 58 6a ba 00 c0 dd 35 9a 02 11 bb
       -0.0015122027 -0.00089396397 1.6521662e-06 -0.0022126795
0003e0 f0 84 7b bb 3b b4 6c bd 00 e2 e3 38 b0 e9 a3 39
       -0.0038378797 -0.05778907 0.00010866299 0.00031263893
0003f0 b6 b4 8a bb 9f bd 72 bd 6b f6 3b bd ed e6 67 bd
       -0.004232968 -0.059262868 -0.0458893 -0.056616712

linear.bias f4 [3]
000000 d4 08 7e bd da 09 76 3d df ea 6a 3d
       -0.062020138 0.06006799 0.057352897
