models/void_20230512_225714.pth (torch, 476899 bytes, 10 tensors)

conv1.0.weight f4 [16, 1, 3, 3]
00000000: 53f2 13bd e957 8abe a51e 8abd 5877 4fbe
00000010: 7a57 a13c bfd5 8f3e 4d34 b63d 04dd 713e
00000020: 31ed a2bd e03c a23e a29d 7abe 0510 3b3e
00000030: 6998 e5bd 0b67 823e d049 29be 52d9 36bd
00000040: 1001 69be a2a5 0f3c e6a1 9b3c 67c1 583e
00000050: 619c 5c3e c620 853e 37e2 7ebe d381 01bd
00000060: 34d3 82bd 494c 523e 9918 93be 15d4 24be
00000070: 0159 acbe 29ab 1a3e 2137 ab3e 77aa 343e
00000080: 9dcc 8d3e e9c1 3fbe 2f26 953e a4e7 1c3e
00000090: ebf2 5bbe df90 c6bc d838 f2bc 767d 433e
000000a0: 409e 693e 676d 3a3d 2b16 ebbc 4bc2 1dbe
000000b0: b80a 79be 9f53 8b3e de27 093e d765 733e
000000c0: dec6 413d d10c b13e 6c0b a5bd 758a 78be
000000d0: 60ad 98be 2e45 cb3d c3ef 0dbe 2c6c 30be
000000e0: 3e3b 93be 0663 5cbc 7aad 80bd 5b1a aebe
000000f0: 2b1f 11be eb7b 9b3e 7244 bf3e 1002 4e3e
00000100: 1e7f 6a3c 84a8 8e3d ea8d 9dbd c554 ca3e
00000110: 93a1 5e3e 4d43 7e3d fde5 963d eab9 8c3e
00000120: 77a6 80be b59d 8e3e 5fb8 9bbe abd0 bcbd
00000130: d63c 4ebd 5f0d 4d3e c8f5 9a3e edbb 9bbe
00000140: 2853 b3bd ff7d a4bd 6972 90bd 7f74 49bd
00000150: 17fb 45be 28ff 81be 1669 ff3c 5a89 c03e
00000160: fc1d 493e 9245 84bd c71e 9ebe 276d 17be
00000170: d58a 493e 9110 b83e 0086 913e 7ac6 57be
00000180: a679 a2be 6c1b a8be 7cb4 773e 6852 923e
00000190: baf2 223e e675 213e adae f0bd 2ea6 283e
000001a0: 0e0a 073e 29a0 3f3d dc9e b1be 73f0 cd3d
000001b0: 163b d43d 41db 9dbd 3693 503d 836b 323c
000001c0: 8013 9ebe 8622 9ebe 03d2 2abd 08f8 d5bc
000001d0: c2c8 c63d c9cb 953d 2241 4cbd 3134 78be
000001e0: 4788 1fbe e5c3 043e fbfc 803e bd51 963e
000001f0: f7aa 6fbe 2b33 a8be 97c3 fe3c ec32 af3d
00000200: 6ab7 0bbe d716 43be d7ae 83bd 72d3 8cbe
00000210: 11bc a3bd e9f0 6bbe ee33 60be 01a2 66be
00000220: 8cf3 353e 565c bbbd bf13 863d ec23 133c
00000230: 82f9 8fbe 2866 97be 34ab 14be f40a 2fbe
-0.03611977 -0.27020195 -0.06744126 -0.2026037 0.019695032 0.28092763 0.08896694 0.23619467
-0.07955397 0.3168707 -0.24474195 0.1826783 -0.112107106 0.2546924 -0.16532063 -0.044640847
-0.22754312 0.008767517 0.018998098 0.21167527 0.21544029 0.26001567 -0.24890982 -0.03161795
-0.0638794 0.20536913 -0.28729704 -0.16096528 -0.33661655 0.15104355 0.33440498 0.17643152
0.2769517 -0.18726315 0.29130694 0.15322739 -0.21479385 -0.024239002 -0.02956812 0.19090828
0.22814274 0.04551449 -0.028697094 -0.15406148 -0.24320495 0.27212235 0.13394114 0.23769318
0.047308795 0.3458009 -0.08058819 -0.24271567 -0.29819775 0.09925304 -0.13860993 -0.17228764
-0.28756136 -0.013451343 -0.06283088 -0.34004483 -0.14172046 0.3036798 0.37356907 0.20117974
0.014312534 0.069657356 -0.076930836 0.395178 0.21741323 0.0620759 0.073680855 0.2748559
-0.25127003 0.27854696 -0.304141 -0.09219488 -0.050350986 0.20024632 0.3026564 -0.30416813
-0.08756095 -0.08031844 -0.07053072 -0.049183365 -0.19334064 -0.2538998 0.031178039 0.3760479
0.19640344 -0.06458582 -0.30882856 -0.14787732 0.19681866 0.3595014 0.28422546 -0.21071807
-0.31733435 -0.3283342 0.24189943 0.28578496 0.15912905 0.15767631 -0.11752067 0.16469643
0.1318743 0.0467836 -0.34691513 0.10055628 0.10362832 -0.07707835 0.05092164 0.010889891
-0.30874252 -0.30885714 -0.04170419 -0.026119247 0.0970626 0.073142596 -0.049866803 -0.2423866
-0.1557933 0.12965353 0.2519301 0.29359236 -0.23405062 -0.32851538 0.031099124 0.085546345
-0.13644186 -0.19051681 -0.064298324 -0.2750507 -0.07994855 -0.23041119 -0.2189481 -0.22522737
0.17768687 -0.09148471 0.06546735 0.008980732 -0.28120047 -0.29570127 -0.14518434 -0.17094022

conv1.0.bias f4 [16]
00000000: 4324 4e3e e692 4b3e 3495 1ebe d860 71be
00000010: 820b a43c 1521 123e dec9 983d 3e57 713d
00000020: fd17 153e 2d9e 51be bd20 c73d 8e3e 903d
00000030: f366 7dbc dba6 933e 52a7 5dbe 37fa 503d
0.2013102 0.19880256 -0.15486604 -0.23572099 0.020025019 0.14270432 0.07460378 0.05892109
0.14559932 -0.20470496 0.09723041 0.07043181 -0.01546644 0.28838238 -0.21645859 0.051019873

conv2.0.weight f4 [32, 16, 3, 3]
00000000: 6a26 613d 5a36 873d 1ae3 a0bd ad98 4fbd
00000010: c72b 7fbd 2bf8 223d d107 313d 9c2c 763d
00000020: 685d 82bc caa9 ffbc 2a9d 513d 8303 443c
00000030: 9a3f 863c fe1e 41bd d344 89bd ffe6 2dbc
00000040: 78d1 993d 5914 c33a 65ee 503d e2d4 1a3c
00000050: 6806 c1bd 8fb4 513d 63b2 7dbd 90fe 6ebd
00000060: 5c06 3b3c a927 3a3d 9e9d 423b 66fc 88bd
00000070: dde3 34bb 648e 9cbc a574 833d 334c 753d
00000080: 0b0d 9f3d 356a 613d 975d 28bd 920f 43bd
00000090: 3dd9 023d 1f07 fdbc 9871 e8bc 006b 033d
000000a0: b96a 4cbd 1e90 073c 8379 73bd 830b 98bd
000000b0: b811 7abd 4e95 ca3c 9712 4d3c d1fc dbbd
000000c0: 10c0 fbbc 0ba7 e53c d78a 42bd a396 c23c
000000d0: 47b1 ce3c 5b4c 5a3c 0c72 803d 4136 903d
000000e0: c7d2 c9bd 313a d4bb 076d b13d b058 2abd
000000f0: e5fa 333d 3668 8ebd 9df4 d5bd a756 6abc
00000100: fa74 833d 29b7 8fbd 52da 783d d183 933d
00000110: 51f2 3abc d8cd 3a3d 2d87 893d f904 c0ba
00000120: 683b 3bbd 33e3 c4bb c24a 89bd da88 ab3b
00000130: 14f6 96bc c808 c6bb 5647 88bd b95c 6bbc
00000140: d687 6ebd 902d 0a3d 5502 993d e830 293b
00000150: f9ff d13d b562 b33d 7fbf 5b3d 86b8 37bd
00000160: 15f0 353c 43e2 a93d 01ac abbc 425d 823d
00000170: e6ab f6bc 475b 6c3c 029e 55bd dd8b 503d
00000180: e689 f2bb 0e67 bd3b 98c8 cabb b25f b3bd
00000190: 016c 3ebd da80 413d 6e3a 9d3d 19cc 8c3d
000001a0: 61d4 8a3d ed73 ca3d 7a2c 573d 3f68 ac3d
000001b0: ec97 073c 3818 1c3c 8129 30ba 365f 6cbd
000001c0: 2396 443d cc5e 18bd 556a bebd cc2c 903c
000001d0: ac32 633d d161 62bd 8a07 b0bd 57a1 d63c
000001e0: ffdc 93bd f410 2b3d a2c2 23bd 5cdb a4bd
000001f0: 212f ebbc d99f 52bd 8c76 8f39 f31d 7d3d
00000200: 199b 9fbd 63b7 53bd 0a4e dabc 1340 a0bd
00000210: 9bb5 34bc f3ef 3abd da1c d0bc a14e 0fbd
00000220: 4d6a d63c 3723 2e3d b496 bbbd a07d b1bc
00000230: 0cd1 21bc 613b 71bc d620 3e3c 2ec8 d3bd
00000240: e9ce dd3d 07e7 d4bc 7fec 49bd 31a4 463c
00000250: 29a6 c6bb f9c8 e33c 35fe ddbd 5431 5ebd
00000260: 1ba0 083d ff2e 0e3e d2a8 96bc c876 b5bc
00000270: 0139 6a3c 942f cb3d 577e adbd eede d73c
00000280: fd75 2c3d 1c69 3e3c 5728 823d c956 0cbd
00000290: 1b79 dbbc 66d7 d43d fedf a43d 38ef c73c
000002a0: e2ab 07bd 82bf 8ebc a1d6 e0bc 1b9f 9bbc
000002b0: fa2c 3a3d bcc8 3fbd 667a c93d 2663 e53c
000002c0: 6b91 8abd 5a8f 943c 865b eebc f2ef 983d
000002d0: a47c 83bd 4935 e73d 83f6 aabd f296 95bd
000002e0: d139 a8bb efce 01bc f233 04bd 004b d9bb
000002f0: 6a0d 86bb c9bd fcbb a9d7 b1bc 2f19 b9bb
00000300: f75e 6a3d fd8a c7bc 3d4d c13c 789c 263c
00000310: 2fba 12bc 4c8b 103c 5062 453c b688 023d
00000320: d889 92bd 642c 62bd aec1 98bd 1cff ddbd
00000330: e2df 6bbd 54c3 71bd e007 9a3d 8575 923b
00000340: a3c6 473d 684e 303c 4c2f 053c 4c64 153b
00000350: 8aa8 2ebd e4f2 66bd e0a1 0d3d 7eb6 983c
00000360: 9b25 d03d c8c9 8c3d 4298 afbc 45c9 59bd
00000370: 4137 a93d 9a22 7bbd b69b 9dbd c9da 8abc
00000380: 44f0 8f3c 8b2b 9fbd 3027 9abd 4516 a9bd
00000390: 91c6 2a3d ce25 20bd b525 8a3d 3af3 143d
000003a0: 5586 a3bd 7949 83bd dd8f cd3b 40fb 523c
000003b0: 7639 513c 28a3 623c 7e66 8abd 1452 adbd
000003c0: 101f 9b3d 028d bfbc bf18 ffbc c079 2f3d
000003d0: 87a4 3bbc 5b86 753d 12dc 3f3d 5882 623d
000003e0: 7687 80bd b2fa d33c d161 ba3d 4dea 96bc
000003f0: 0353 b13c c841 0bbc 127d 803d 90e5 7bbd
0.054968275 0.066021636 -0.07855816 -0.050682712 -0.06229761 0.039787453 0.043220345 0.060101137
-0.01591368 -0.031208891 0.051175274 0.011963728 0.01638775 -0.047148697 -0.0670258 -0.010614156
0.07510656 0.0014883383 0.0510086 0.009450169 -0.0942505 0.051197585 -0.0619377 -0.05834824
0.01141509 0.04544798 0.0029695998 -0.06688766 -0.0027601637 -0.019110866 0.064187326 0.059887122
0.077661596 0.055032928 -0.04110488 -0.04762227 0.031945456 -0.030887185 -0.028374478 0.032084465
-0.049906466 0.008274106 -0.059442054 -0.07424071 -0.061052054 0.024729397 0.012516639 -0.1074158
-0.030731231 0.028033754 -0.04749569 0.02375347 0.025231017 0.013323869 0.06271753 0.07041598
-0.09854656 -0.0064766635 0.086633734 -0.041588485 0.043940444 -0.069534704 -0.10447047 -0.014302886
0.06418796 -0.07017357 0.06075508 0.07202876 -0.011410312 0.045606464 0.06715236 -0.001464992
-0.04571095 -0.0060085296 -0.06703712 0.00523482 -0.018427886 -0.0060435273 -0.06654231 -0.0143653685
-0.058235012 0.033734858 0.07471148 0.0025816504 0.10253901 0.08759061 0.05364942 -0.04485371
0.011104603 0.08295109 -0.020956041 0.06365444 -0.030111264 0.014426059 -0.05215264 0.050914634
-0.0074016927 0.0057801073 -0.0061884634 -0.08758487 -0.04648972 0.047242023 0.0767716 0.06874866
0.06778789 0.09885392 0.05253265 0.08418321 0.008275967 0.009527259 -0.0006720052 -0.057707988
0.047994744 -0.03719978 -0.09297625 0.017599486 0.055468246 -0.055269066 -0.08595188 0.02619998
-0.07219886 0.041764215 -0.03998054 -0.08049652 -0.028708996 -0.051421974 0.0002736341 0.06179614
-0.077932544 -0.051688563 -0.02664854 -0.07824721 -0.011029626 -0.04563899 -0.025404382 -0.034987096
0.026173735 0.042514052 -0.09159604 -0.021666348 -0.009876501 -0.01472363 0.011604508 -0.103409156
0.108304806 -0.025989069 -0.049297806 0.012124107 -0.0060622883 0.027805792 -0.10839502 -0.05424626
0.033355813 0.13885115 -0.018391047 -0.022151366 0.014295817 0.09921184 -0.08471363 0.026351418
0.04210471 0.01162174 0.063553505 -0.034262452 -0.026791146 0.103926465 0.080505356 0.02440606
-0.033122905 -0.017425302 -0.027446093 -0.018996766 0.04545305 -0.046822295 0.09837799 0.02800138
-0.067660175 0.018134762 -0.029096376 0.07467641 -0.06420258 0.1128946 -0.083478 -0.07304181
-0.0051338454 -0.007922872 -0.0322761 -0.006631255 -0.0040909545 -0.007713054 -0.02170928 -0.005648754
0.05721947 -0.024358267 0.0235964 0.010169141 -0.008955522 0.008822273 0.012047365 0.03186866
-0.07155198 -0.055218115 -0.074588165 -0.10839674 -0.05758656 -0.05902417 0.07521033 0.004469576
0.04877342 0.010760881 0.008128952 0.0022795377 -0.0426412 -0.056383982 0.034578204 0.018641707
0.10163423 0.06874424 -0.021434907 -0.05317046 0.08262492 -0.061312295 -0.07695715 -0.016950028
0.017570622 -0.07771977 -0.07527006 -0.08256201 0.041693274 -0.039098553 0.06745473 0.03636477
-0.07984606 -0.06410498 0.0062732534 0.0128772855 0.012770047 0.013832845 -0.0675783 -0.08462921
0.07574284 -0.023382667 -0.03113973 0.04284072 -0.011452801 0.059942584 0.046840735 0.055300087
-0.06275837 0.025876377 0.09100688 -0.01842227 0.021646028 -0.00849957 0.06273855 -0.061498225

conv2.0.bias f4 [32]
00000000: 2c7c d9bd 7c18 993b d92e 94bd 0bb9 103e
00000010: c2f5 05bd c31c 21bd e677 013d cf23 7d3d
00000020: 37af b7bc a298 413d 3dc6 9dbd 28bb f6bc
00000030: ea87 78bd 4e65 3f3d d978 e43b 64ff f43c
00000040: dd63 063d 3b6c e0bd 33ad d2bd 56ab 34bd
00000050: 8e7c dd3c 40f0 623c 89a4 88bd 2a37 ad3d
00000060: 5be1 173d 9987 aabd 9fc7 563b 1be6 823d
00000070: 7f9c 5b3d c8f3 233c afc5 3a3d 7cde c23c
-0.10619387 0.004672108 -0.07235498 0.14133088 -0.032705076 -0.03933407 0.031608485 0.061801728
-0.022422416 0.047264703 -0.077038266 -0.03011854 -0.060676493 0.04672747 0.006972414 0.029906936
0.03281008 -0.10958143 -0.102869414 -0.04410871 0.027036931 0.013851225 -0.066720076 0.08457787
0.03708015 -0.083266445 0.0032772792 0.063915454 0.053616043 0.010006852 0.045598682 0.02378773

conv3.0.weight f4 [64, 32, 3, 3]
00000000: da4c 0c3d a253 39bd 91d4 f13c 1efd 62bc
00000010: c63e 283d 7073 b63a 3f3c 1c3d 7f10 3e3d
00000020: c470 723c f1fa 59bc 96a4 653d d916 ad3c
00000030: f91f b83c be1f 89bd 2fcd e0bd 1f88 3a3d
00000040: abe2 4dbd 61a4 22bd 17a5 46bd d8f8 e53c
00000050: 9da3 403c ad68 beba f6b6 0ebc ab00 21bd
00000060: db9a c739 438a d63c 1605 b43c 9bac b03c
00000070: 231c 623d 3311 0cbc cc39 073d 3e7d 7dbd
00000080: b4a1 17bd 3fa8 a5bd 052d f33c 7544 73bc
00000090: 35b2 d03c 6a02 5c3c 01b2 2c3d 1c92 f4bc
000000a0: a561 96bd fce8 eb3c 188a 793c f96d 403c
000000b0: 7b58 7d3c b190 5dbd dc5e 9ebc 4b09 83bd
000000c0: 73f2 153c da93 5fbc ed27 1e3d f548 e83c
000000d0: 423b 283d 9196 423d 57d1 1a3d 3b8b 263d
000000e0: e489 433d d34c b4ba 428f 0f3d eba8 513c
000000f0: db77 2c3c 83f9 afbb 0c4d 8bbd e42f 80bc
00000100: d871 00bc 085f d2bc 8e34 d4bc 885d 8739
00000110: e1c6 36bd aeeb febc 2993 023a 3c4a 4f3d
00000120: 72ee 643c 80ea a6bc 543b 913d 1dc7 fc3c
00000130: 97b9 cb3b 4c91 76bd 7827 9bbd ff51 103d
00000140: 5d43 8cbd c987 153d 4003 803d 3ecd 203c
00000150: 8804 6a3c 251a 2e3c 83e0 5c3c 0821 773d
00000160: 92ec 71bc 42ba 693d 8840 3b3d 9586 4c3d
00000170: abbf 2fbd 3ecd 70bd 7ae3 e43c f091 5d3c
00000180: 91c1 4ebd 02d3 27bd 90cc 42bd 4a77 bcbc
00000190: 4a64 fb3c 6d49 5c3d 289f 543c 1c66 77bc
000001a0: 846b 533c a6bb 543d 220a 953b 3a95 da3c
000001b0: e96f 793d 84a5 bc3b b68b 24bc 9d28 39bd
000001c0: faca c2bb 541b a3bc 65e8 78bd ebcf 8abb
000001d0: 4827 ddbc a95f 24bd 22a7 5fbd 5286 e3bc
000001e0: 4f0d 79bd 9b87 e9bc b229 71bd ba75 c2bc
000001f0: 65af 163d 870c 673b f68b 053d a160 08bd
00000200: 2620 10bd 4677 75bd 6d56 38bd eb4e 043c
00000210: 35c6 3abd 45df efbc 34df 83bc e121 46bc
00000220: 500b 03bd 7d74 9ebc 50dc 183d 3166 4e3b
00000230: da2a 9a3b 6fe6 37bd e833 253c 741a 283d
00000240: 0bb7 99bb 120a b8bc ccb6 fa3c ded9 023d
00000250: bffc 41bd e0a0 6a3d a364 7ebd 27d6 3bbd
00000260: 2696 4fbd 038d 28bb cb52 cfbc 30df b5bc
00000270: d032 8a39 d821 1b3d 2a02 80bb 04af e93b
00000280: 578c 12bd 4e34 d8bc aabb 38bd a7b3 2cbd
00000290: dde3 443d a956 8e3c 4d70 d9bc 25db 6bbd
000002a0: c809 133d a34d 50bd 25d4 92bd 683b 0a3d
000002b0: 7e97 cc3c 7512 12bd 4dd0 e2bc b0ee 3c3c
000002c0: 8805 9d3c 9909 32bd 00e8 3d3d 602a 5abd
000002d0: 295e 2bbc 55a3 5fbd 1ecf e3bc f267 29bd
000002e0: e31a b3bc 962a 67bd 4c8a 293c 33ed 2f3d
000002f0: ebac 8cbd 263f 953c aca6 663d 113f 9b3c
00000300: afc6 7d3c 80d2 87bd 1f7e 08bd 367c 28bb
00000310: 55fd 493b 2009 e9b8 681c 503d dac0 3b3d
00000320: e4e8 21bd 900b 23bd b622 aa3a 602b 9dbd
00000330: 925b 2f3d 3dfc b53c 89b8 ab3c 8df9 b23d
00000340: b6d1 103d b54c 593d ffbc 59bd 193b a0bb
00000350: 2689 91bc 9720 a23b c0ac d9bc c895 293d
00000360: 4901 163a b163 083d f1c6 15bd b0b0 4137
00000370: 45d3 633c 127e debb c585 d83b 6afb 613d
00000380: cce0 44bd 4aa3 39bc d88d 54bd 811c 60bb
00000390: db60 a63b be0b 083d 6b76 9a3c 0c4a 833d
000003a0: 3819 f93b cf7b 81bd 758c d1bb ed72 8fbd
000003b0: 2b88 e1bc 7bd5 c33c c780 82bd 3ae0 d13c
000003c0: b38d 083a 032c 803d 6ab4 893d 7eab 403c
000003d0: 041d c33b ed71 093d 7344 3dbc 13c3 e6bc
000003e0: e674 86bd 4dda d2bc 3b7c 2ebd 32cf 53bd
000003f0: 0697 2f3d 1e56 573d 2305 3dbd 96b7 da3c
0.03425298 -0.045245774 0.029520305 -0.013854293 0.04107549 0.0013919901 0.038143393 0.04640245
0.014797393 -0.013304458 0.056065165 0.021129059 0.022476183 -0.066955075 -0.10976636 0.04553997
-0.050264996 -0.039707545 -0.048497286 0.02807276 0.011757758 -0.0014527045 -0.0087106135 -0.039307278
0.00038071614 0.026188975 0.021975081 0.02156668 0.055202615 -0.0085490225 0.033014104 -0.06188702
-0.037019446 -0.08088731 0.029684553 -0.014847864 0.0254756 0.01342831 0.042161945 -0.029854827
-0.07342843 0.028797619 0.015230678 0.0117449695 0.01546299 -0.054093067 -0.019332342 -0.06398257
0.009152043 -0.01364609 0.038612295 0.028355101 0.041072138 0.047506873 0.0377973 0.040660124
0.047738925 -0.0013755806 0.03504873 0.012796621 0.010526623 -0.0053703203 -0.06801805 -0.015647836
-0.007839642 -0.02568008 -0.025903966 0.00025818893 -0.04462326 -0.03111824 0.0004981035 0.050607905
0.013972865 -0.02037549 0.07091394 0.030856663 0.0062171924 -0.06019716 -0.075758874 0.035234448
-0.06848786 0.036506448 0.0625062 0.009814559 0.014283307 0.0106263505 0.013481262 0.060334235
-0.014765875 0.057062395 0.04571584 0.049933035 -0.0429074 -0.058789484 0.0279405 0.013523564
-0.050477568 -0.040972717 -0.047558367 -0.0230061 0.03068747 0.05378096 0.012977399 -0.015100028
0.012904052 0.051936768 0.004548327 0.026682485 0.06089774 0.0057570357 -0.010043075 -0.045204747
-0.005944607 -0.019910492 -0.060768504 -0.0042362115 -0.02699627 -0.04013029 -0.05460275 -0.02777401
-0.060803708 -0.028507045 -0.058877654 -0.023737777 0.036788363 0.003525527 0.03260418 -0.033295278
-0.03518691 -0.0599282 -0.045004297 0.008075456 -0.04559918 -0.029281268 -0.016097642 -0.012093038
-0.03199321 -0.019342655 0.03731948 0.0031494016 0.0047048153 -0.044897493 0.010083176 0.041040853
-0.00469101 -0.02246574 0.030604742 0.031946056 -0.047360178 0.05728233 -0.062107693 -0.04585853
-0.050680302 -0.0025718815 -0.025308033 -0.02220115 0.0002635927 0.037874073 -0.003906508 0.007131459
-0.03577837 -0.026392128 -0.045100845 -0.042163517 0.04806887 0.017375307 -0.026542807 -0.05758204
0.035898 -0.05085529 -0.071693696 0.03374806 0.02497458 -0.035662133 -0.027687216 0.011531517
0.019167677 -0.043466184 0.04636383 -0.05326307 -0.010459461 -0.054599125 -0.027808722 -0.041358896
-0.021863407 -0.056437097 0.010347914 0.04295082 -0.06868919 0.018218588 0.056311294 0.01895097
0.015489264 -0.066319466 -0.033323403 -0.00257088 0.0030821164 -0.000111120054 0.05080834 0.045838214
-0.039528742 -0.03980595 0.0012980315 -0.07674289 0.042811938 0.022215003 0.020962017 0.08739004
0.035356246 0.05305167 -0.053158756 -0.0048898575 -0.017765593 0.0049477327 -0.026571631 0.04140261
0.00057222374 0.033298198 -0.03656668 1.1544835e-05 0.013905351 -0.006789931 0.0066077434 0.055171408
-0.048065946 -0.011330435 -0.051893085 -0.0034196677 0.005077464 0.033214323 0.018855294 0.06410608
0.0076018833 -0.06322443 -0.0063949176 -0.07004342 -0.02753075 0.023905506 -0.063722186 0.025619615
0.0005209103 0.062583946 0.067238644 0.011759637 0.0059543867 0.033555914 -0.011551964 -0.02816919
-0.06565265 -0.02573886 -0.042598944 -0.05171127 0.042868637 0.052572362 -0.046147477 0.026698869

conv3.0.bias f4 [64]
00000000: d3ea a73b 8e35 5fbd 0faf 35bc 99ee 923c
00000010: e801 453d ae30 543d 342a 2f3d ff64 fcbb
00000020: 3bb2 e9bc 94e7 b73c 0e0d 073d 2b11 64bc
00000030: 5588 863c a83f b33c 4b36 843a 7b2c 983d
00000040: aede 903c 229b 04bd 7a84 a03c c9c3 953c
00000050: fafd 813d c241 8e3d 25a4 99bc 69d4 633c
00000060: 5419 653d 462e bf3d 26bf 64bb a0b0 763b
00000070: 74c4 2b3c c08e 3fbd bd98 e8bc 8001 603d
00000080: b076 da3c eee5 2b3d 0450 9c3c 2da3 313d
00000090: 5f85 bdbd 9d31 5dbd a1c6 aabd e33e 3ebc
000000a0: b440 d33c 5728 8dbb 28bd 0c3d bdb4 0dbd
000000b0: 0b79 a13d 8990 6a3d 328a 9d3d 70e9 1abd
000000c0: 536d 56bc 2747 f03c 94c4 503d 4422 7bbd
000000d0: 7a5e a13d 7847 8e3d db3f e43b 9c4d 18bd
000000e0: 21ca 05bd 78cb 653d 1eec 533d 43fc 83bd
000000f0: 3945 32bd 6ac7 613d 0fae a2bd 2a5d 07bb
0.005124429 -0.054494433 -0.0110891005 0.017936038 0.04809752 0.051804237 0.042764857 -0.0077024694
-0.02852737 0.022449292 0.032971434 -0.013920109 0.01642243 0.02188094 0.0010086981 0.07430359
0.017684307 -0.03237451 0.01959442 0.018281834 0.0634727 0.06946136 -0.018755028 0.013905623
0.055932358 0.09334998 -0.0034903972 0.0037641898 0.01048385 -0.046766996 -0.028393144 0.05468893
0.026667923 0.041967325 0.019081123 0.043368507 -0.09253954 -0.054002393 -0.08338667 -0.011611673
0.025787689 -0.0043077874 0.03436008 -0.034596194 0.07884415 0.057266746 0.07692374 -0.03782028
-0.013087588 0.029330803 0.05096872 -0.061311975 0.07879348 0.06947225 0.00696562 -0.03718339
-0.03266347 0.056102246 0.05173885 -0.064445995 -0.043523047 0.055121817 -0.07943355 -0.0020654895

conv4.0.weight f4 [128, 64, 3, 3]
00000000: 99a6 913c 7412 163c da63 ebbc be96 04bd
00000010: e426 46bb 3c19 96bc 2596 10bd b2d1 59bc
00000020: 595e 0ebb 8c0d 90bc 9c42 f3bc 4391 63bc
00000030: 7e3d 82bc 50a8 423d eb3c 223d 3222 8ebc
00000040: ca73 f2bc 87dc fabc 8297 873b 2c73 433c
00000050: d7d8 ce3c 834f 11bd 07e8 84bd 81a7 ae3c
00000060: bfe0 1dbb 7139 8bb9 6a96 41bc 8627 773b
00000070: d6f3 2dbd 8737 ffbc c2d4 ea3c e149 16bc
00000080: 04cb c9bc bf9e 34bd f297 823d 000d bf3c
00000090: 9b0d b93c 3786 29bd ffa7 943c af41 4d3d
000000a0: 5a14 b53c c5a5 29bd 05b6 19bc 2668 3dbc
000000b0: 0787 f33b b801 1abd 0f0a c4bc 528e a9bc
000000c0: 9a2f da3c 7923 3bbd 22c2 08bd 8475 bc3b
000000d0: a770 8fbb 704d 2e3d 9535 113d f881 60bd
000000e0: 38be c0bc a9fc 16bd 8fef 0cbd 109f 283d
000000f0: 2bfe 02bc 487c 803c 6a8d ee3c 9a3b a5bc
00000100: 7024 1f3d 42b3 a63c bf7b 323c 49c6 d5bc
00000110: 1ba5 d83c 7425 303d 9baa 84bc ec39 7abc
00000120: 0d11 17bd 171b 5fbb cdae 1fbd 7ef3 7ebc
00000130: f8b6 033c 054f eebc 88fa 16bd 7d98 d23c
00000140: e186 f83c 0492 2b3d 2663 ae3c 772e 293d
00000150: b092 1abc ff0a 11bd 6262 a5bc dcee 41bd
00000160: f7a4 143d 32d7 583d deb8 b23c a42c 78bc
00000170: 3c26 fdbc bcde d5bc 1453 e2bb a5de 1abd
00000180: 86ba 84bb 7389 af3a e3f5 c63c f8c4 17bc
00000190: 30db a9bb 2b81 e2bc a2fa bfbc 48ea 3c3a
000001a0: 1382 7a3c 2639 24bd 6890 2a3d 88b6 9bbb
000001b0: ce22 e63b 3967 d8bb 01c4 b6bc 5c6a 9abb
000001c0: d1e4 9e3c b38d e0bc 5b67 62bd 5f93 ff3a
000001d0: 32b4 6dbc b65c 69bd ff2c 563d f1ae 3b3c
000001e0: 76a5 5abd 0fd9 b1bc 887c 243a 7afe 9fbc
000001f0: c0fd a53b 12a9 2abd 9361 c83c 01c6 25bd
00000200: 4e04 3e3c 15b2 0c3d ac93 57bc b9f2 833c
00000210: b4d6 af3b a336 40bd de30 1b3a ac8d dcbc
00000220: bee8 7ebc cef6 393c c15c 1d3d f4f8 00bd
00000230: 1fc7 4fbd 9eb9 fcbc 71d4 ff3c 2259 1cbc
00000240: 2db8 c6bc eed5 c83a b82b 32ba 51d4 ee3b
00000250: be87 653c 2f09 33bd ea1a a7bd 75b6 753d
00000260: defb e53c 9d84 343d 775c 42bc 70d2 2a3d
00000270: 035d ee3c e2dc a83b 866b 69bc f1da 9e3b
00000280: 2888 283c 6e35 c23c 3cea f23c 3ca0 16bc
00000290: 50c6 25bc 1831 3d3c 6a37 a63c e47b 53bc
000002a0: 2016 efba 4e39 263b 7ef7 ebbb 6dc7 483c
000002b0: b357 9dbc 39ea e73c 56d8 f03c bd66 cfbc
000002c0: d22b 8bbc a05f 0fbd 0e8f d0bc 6b39 99bc
000002d0: dc89 a6bc fcb3 923c c809 d23b d89f ae3b
000002e0: 8aea 3dbd 141c ef3b c31a b9bb 77a6 67bc
000002f0: 51e7 43bc e872 41bd 7bb3 3dbd 1dda 183d
00000300: e8d4 afbc dddb c1bc 64fd a0bc ccf2 85b7
00000310: e43e 31bd 2806 33bc 8d5f bbba 1bfd 33bd
00000320: 90c0 adbc 1085 323b cce2 183d 40ab a23c
00000330: 541e 053b ba38 333d 3068 2cbc 346e 48bd
00000340: 2b81 0a3d 1993 bc3c 9fe8 a73c 5f50 7c3b
00000350: 6493 96bc 677c 52bb a4b7 6c3d fb17 413d
00000360: 99b1 c9b9 ddd0 5abd 5883 a6bc b7ef 4c3c
00000370: cd3e e63c 568a 033d e5c8 fb3c 7e11 b5bc
00000380: 2ec6 08bc 3233 2abd 1965 b1bc 5b69 3cbc
00000390: 4284 6d3d a99b 81bc a457 993a 9040 bcbc
000003a0: 70c9 cb3c f080 99bc e3da 44bc 0b13 12bc
000003b0: 60b0 a93b cc69 3dbd d087 30bd a0cd f9bb
000003c0: 6bb0 82bc ba80 1f3d c387 31bc 6b5a 17bc
000003d0: e2a3 f73c 9c70 89bc 453a 323d 3bc2 e33b
000003e0: 010b f23b 7553 2ebd f5a1 e03b 9ebe 003d
000003f0: 7ce7 a5bc 6ddf e53c 3867 b0bc 1e4d aa3c
0.017779635 0.009159673 -0.028734136 -0.03237032 -0.0030235583 -0.01832258 -0.03529944 -0.013294624
-0.0021723716 -0.017584585 -0.029694848 -0.013889614 -0.015898462 0.047523797 0.039608877 -0.01735029
-0.029596228 -0.030622734 0.004137934 0.011929315 0.025249882 -0.03547622 -0.06489568 0.021320106
-0.0024090258 -0.00026554943 -0.011815647 0.0037712767 -0.04246887 -0.031154407 0.028665904 -0.009172888
-0.024632938 -0.044096705 0.063766375 0.023321629 0.022589495 -0.041387763 0.018146513 0.05011147
0.022104431 -0.041417856 -0.009381776 -0.011560475 0.007431868 -0.037599295 -0.023930578 -0.020697746
0.026634026 -0.045688126 -0.033388264 0.0057513136 -0.004377443 0.04255432 0.03545149 -0.054811448
-0.023528203 -0.03686205 -0.03440815 0.04116732 -0.007995169 0.015684262 0.029120166 -0.020170022
0.03885311 0.020349149 0.010893761 -0.026095526 0.026445916 0.043004468 -0.016194632 -0.015272599
-0.036881495 -0.0034043246 -0.038985062 -0.015560983 0.008039229 -0.029090414 -0.03686002 0.025707478
0.030337753 0.0418873 0.021287512 0.041304078 -0.009434387 -0.035410877 -0.020188514 -0.047346935
0.036290135 0.0529396 0.021816667 -0.015147362 -0.03090202 -0.026107185 -0.0069068763 -0.037809987
-0.0040505556 0.0013392403 0.02428717 -0.00926327 -0.0051836 -0.027649483 -0.02343494 0.00072065415
0.015289801 -0.040093563 0.041641623 -0.004751984 0.007023192 -0.006604102 -0.022310259 -0.004712386
0.019396218 -0.027411317 -0.05527435 0.0019498876 -0.014508294 -0.05697318 0.052289005 0.0114552835
-0.053380452 -0.021709947 0.000627466 -0.019530524 0.0050656497 -0.041665144 0.02446059 -0.040472034
0.011597706 0.03434952 -0.013157766 0.01610695 0.005366171 -0.046927106 0.00059200625 -0.026923023
-0.01555842 0.011350347 0.038418535 -0.03148742 -0.050727006 -0.030850228 0.03122923 -0.009542735
-0.024257744 0.0015322545 -0.0006796676 0.0072884937 0.014009414 -0.04370993 -0.0815943 0.059988458
0.028074201 0.044071782 -0.011862866 0.041704595 0.029097086 0.0051532844 -0.014246827 0.004847877
0.010286368 0.023707118 0.029652707 -0.009193476 -0.010118082 0.011547349 0.020290095 -0.012907956
-0.0018240847 0.0025363746 -0.007201134 0.012254578 -0.019206857 0.028309928 0.029400032 -0.025317544
-0.016988669 -0.035003304 -0.025458839 -0.018704137 -0.020329408 0.017908089 0.0064098574 0.0053291135
-0.046366252 0.0072970483 -0.005648942 -0.014138809 -0.011957006 -0.047228724 -0.046313744 0.037317384
-0.021463826 -0.02366441 -0.019652076 -1.5967897e-05 -0.043272868 -0.010926761 -0.0014295444 -0.043942552
-0.021209985 0.0027239956 0.037325665 0.019857049 0.0020312266 0.04375527 -0.010522887 -0.048933223
0.03381459 0.02301936 0.020496665 0.0038500053 -0.018380828 -0.0032117607 0.05779232 0.04714201
-0.00038470028 -0.053421844 -0.020326301 0.012508324 0.028106118 0.03211435 0.030735442 -0.022103067
-0.008348031 -0.04155273 -0.021654652 -0.011499728 0.05798746 -0.015821295 0.0011699093 -0.022980005
0.024876326 -0.01873824 -0.012015077 -0.008915673 0.0051784962 -0.046243474 -0.04309827 -0.0076233894
-0.015953263 0.038941123 -0.010835591 -0.009237866 0.030229513 -0.01677733 0.0435126 0.0069506443
0.0073865657 -0.04256006 0.0068552443 0.031431787 -0.020251982 0.02806064 -0.021533594 0.020788725

conv4.0.bias f4 [128]
00000000: 5fd5 1abd 104d 45bc e8c7 d339 795a 583d
00000010: 865b 523c 4924 223d 0ddc 513c ddcd a13b
00000020: 0c7a 9c3c cdf4 1a3d 3d0a 443d fd7f 963c
00000030: bdf0 aabc a9d1 d3bc 3e1b 833d 43f0 26bc
00000040: f618 b5bc 1da2 d03c 60a2 38b8 44bf 733d
00000050: 0ef6 fc3c faa5 e63c bdec d73c 4bfc 20bd
00000060: 7e6a f5bc dceb f73c 8728 993d 0584 723c
00000070: 5d75 22bc e511 f73b d5a8 5cbc 6357 8ebd
00000080: 2e36 773c 90c8 00bc 26f4 ea3b fa71 493d
00000090: 2585 3b3d 36ea 193d 9019 8a3d f9ee 60bd
000000a0: a980 d13c e5e4 403c 7ff7 af3d 7203 283c
000000b0: be53 c73d 611c 253d 2dcc 883d 8c92 0fbc
000000c0: f7f9 2dbc 503e cbba 2453 f7bc 6e15 2d3b
000000d0: f932 163d 7052 913d af9f e03c 5603 1c3d
000000e0: 6f86 423c b908 ec3c a5f2 953c 7e59 25bd
000000f0: 529c 843d 3032 3f3d 3003 773d 0c5c 8e3d
00000100: 20cd 923c 8e3d 1fbd 8eaf cb3c 4c19 f3bb
00000110: 9036 ca3c 2249 f6bb df74 a43d e6e3 e83b
00000120: 031d 943d bfb5 843d 1423 e0bc c2b7 5bbd
00000130: 86f6 d53d b45a f6bc 2653 ab3d ab9f ef3c
00000140: eed1 923c 9df8 63bd d777 113d 36b5 503d
00000150: 4476 2a3d cf23 5b3c bf6c 133d 50bc 9c3b
00000160: 8a4e d23c d334 47bc 71bf 983d dcff 9a3a
00000170: 7446 27bc 912f 32bc ae26 033d 125b 143d
00000180: 1d3e bcbc e7ac 933d 99c8 823d 4e06 b53d
00000190: 0c91 3f3d 1bd6 1fbd fd50 24bd 26bd 523b
000001a0: 8e4c 233d 8fd5 0e3d 7571 90bc 836c 3e3c
000001b0: 3de8 163d de1c 713d b86e 6f3d beb7 f83b
000001c0: 0e37 363c 3224 d73c 26b3 45bc b68e 473d
000001d0: 5788 8e3d a2cd d2bb 48ab 04bc 2502 c33c
000001e0: 1635 a13d 2828 043d 2418 b7bc e480 7e3c
000001f0: 5bf9 4b3d 141f 6d3d 1df6 1b3c 5c96 4a3b
-0.037801143 -0.012042299 0.00040393998 0.052820656 0.012839204 0.039585385 0.012808812 0.004937871
0.019101165 0.037831116 0.047861326 0.018371576 -0.020866746 -0.02585681 0.064016804 -0.010189119
-0.022106629 0.025467927 -4.4020242e-05 0.059508577 0.030879047 0.028155316 0.026358003 -0.039303105
-0.029958006 0.030263834 0.07478433 0.014801984 -0.009915677 0.007539975 -0.013467987 -0.069502614
0.015088601 -0.007860318 0.007170218 0.049180962 0.045781273 0.037576877 0.06743157 -0.054915402
0.025574045 0.011773323 0.08592128 0.010254728 0.097327694 0.040310267 0.066795684 -0.008762967
-0.010618678 -0.0015506241 -0.030191012 0.0026410478 0.036669705 0.07095802 0.027419893 0.03808912
0.011872872 0.028812753 0.018304178 -0.04036855 0.06475128 0.046678722 0.060305774 0.0695115
0.017920077 -0.038877062 0.024863984 -0.007418787 0.02468422 -0.0075160423 0.08030104 0.0071072457
0.07232096 0.06479978 -0.027360477 -0.053642042 0.10447411 -0.030072547 0.08365469 0.02925094
0.017922368 -0.055657018 0.03551468 0.050954066 0.041616693 0.013375237 0.03599238 0.004783191
0.025672216 -0.01215859 0.074583896 0.001182552 -0.010209668 -0.0108755985 0.03201931 0.036219664
-0.022978837 0.07210713 0.06385917 0.08839093 0.046769187 -0.039022546 -0.0401163 0.0032156198
0.03986793 0.034871634 -0.017632226 0.011622551 0.036842573 0.05886542 0.0584552 0.007590263
0.0111215245 0.026262376 -0.012066638 0.048720084 0.069595985 -0.0064332047 -0.008097477 0.023804734
0.078714535 0.03226486 -0.022350378 0.01553366 0.04979835 0.057890967 0.009519127 0.0030912375

linear.weight f4 [3, 7040]
00000000: 0b5f 943b 12d2 ba3c 978b 97bc 3125 5c3c
00000010: ff9a 933c aefe 8f3c 0f41 20bd f699 403c
00000020: 1e85 97bc d17b d13b 7017 7c3c ec07 a5ba
00000030: aeec c13c f707 94bc a6ee 3139 d4ba 0ebd
00000040: c6c5 4b3c fa13 983c 0620 26bc afda 86bc
00000050: 3694 203c 0635 c73b b9c5 5bbc d35f 71bb
00000060: 08a1 2a3c dbfc 23bc f31b 723a 8eb3 af3b
00000070: 4434 9fbc 642c c9bc f07e 68bc 41e2 91bc
00000080: e366 97bc cb16 afbd 7adc e0bc 9686 b43b
00000090: dc22 a3bc a2cf b73c 328e 023b ea7b 1f3d
000000a0: 23f1 933c db14 a6bc ded3 2bbc 14a3 abbc
000000b0: 7844 9d3d 254d 923b 0853 a53c f58d 5b3d
000000c0: 1fa3 9b3c 3ca5 653d 2475 803c 8b7b 173d
000000d0: 3ecf 23bb c0a4 043c 851b 763d ccdb 913b
000000e0: ce49 303c 3eca 69bb 932c 433c d253 013d
000000f0: 4e20 b63c 7f28 db3a 67ba 013c 670e 7e3b
00000100: 2bb2 1cbd 5b7b 983c 320e bbbc 4609 eebb
00000110: 3098 3bbd e086 f5bc 7d05 49bc 042f 533c
00000120: e319 e0bb 0d11 f9bc 94bd 903a a803 b0b9
00000130: 1f00 2abc 3b03 813a bc6f 0dbc ba72 cf3b
00000140: e9d2 873c a082 f63c d1a4 c03c 753b bcbc
00000150: d8f0 e73b 4d3b 623c 5f4b 0dbd 3096 44bc
00000160: 317f 2c3a cbb5 13bc b5e5 ae3c 2051 d63c
00000170: 7422 0b3d 96d0 373c 55fe db3b 7755 b3bb
00000180: 1f82 92bc bf3b a5bc 7b88 16bb 5ce8 f53c
00000190: eae8 e13a 8f8c 123c c8e4 023d 2f6e d43c
000001a0: 5a7c ffbc 2bdc 5ebc 5e47 c8bb 0acd 7ebc
000001b0: ff46 203c b46e 743c eee7 30ba 808e 90bc
000001c0: f5aa 22bd 34f9 273c 35e1 163c 1797 8dbc
000001d0: ffb4 1ebc fe1e c43b f804 8a3b efe8 2dbd
000001e0: 3858 dbbc 512e a63c 72ab 4fbc 7eb4 eabc
000001f0: ff83 b83c ef41 a13c 3076 96bc fc30 fb3a
00000200: a6c9 fa3a 7947 143d e115 23bc ae5a ddbc
00000210: 0f42 09bd d776 9f3b 81d4 6cbd 75ad 953d
00000220: 4083 1a3d b791 3abd 0656 bf3c 58ff e8bc
00000230: ca1a 643c 6f7f 59bc 64b0 b5bc ed13 803d
00000240: bc33 d2bd 7ad0 5ebd 16a9 253d f962 cebc
00000250: d191 1c3c b3ce 8abd eacd 90bd 3b1c 1ebd
00000260: addf a2bd e698 a3bd 16d1 4c3c 31dd 90bd
00000270: ec50 5d3d 6d68 6b3d 1089 0f3c a1c7 803d
00000280: 47f8 89bd 5b0f 103d a183 12bd f71c 8cbd
00000290: 6e2c 3dbc fe29 0b3d 745a bbbc 8750 553c
000002a0: 69cb 21bd 4a72 c0bc 64bd 3c3c 9671 c2bc
000002b0: 94d1 573c cd1d b33c afef 5ebc e806 363d
000002c0: 888b df3c 9328 8fbb 2a81 963c 832f a2ba
000002d0: a91f 3abb f43b 333c 5009 ddb8 6fa0 3c3c
000002e0: 4786 f53c b5e8 0b3a b5af 003d e81b abbc
000002f0: d25b 0abd 08df 093d 255a 15bc 4e67 ac3c
00000300: 017e 3cbc ebc9 fbbc 26ba fc3b 01d9 e93c
00000310: 76eb 12bd 826e 023d 9544 4f3d 2464 99bc
00000320: 4868 e4bc 926d d2bc 9c76 cabc 7630 1bbd
00000330: 9915 603c 99a2 823b b175 be3c bf8a 6dbc
00000340: fa39 303d caf3 073d 16c4 8f3c 864e c03b
00000350: 4f8b 083d a67b a13c 8297 223d e544 803d
00000360: fcc3 213d 7543 c93c e5b2 ef3c 0018 343d
00000370: b89e 8eba 995f 933b 9933 013c aae4 81bc
00000380: 7b4c 98bb 3abb a0bc b703 b0bc 8ceb afbc
00000390: 72a1 b93c e9d5 06bc 0144 b3bb b7e7 a1bc
000003a0: 6d56 d53c dbdd 233d 4e41 dc3c 62fb 813c
000003b0: e5dd 203d c2af d5bc 5a8c 7db9 3121 4f3d
000003c0: f3f2 58bd 7e8c 143c 1574 15be a61d 39bb
000003d0: 2c20 1a3d 83b8 9a3c a70f 3a3b 7967 0f3c
000003e0: 1581 4fbd 1815 60bc 7751 9e3c 6b3d 36bd
000003f0: 25c4 073d 8b59 d13a 4890 92bc 53da 08bd
0.0045279316 0.022805247 -0.018499179 0.0134366015 0.018018244 0.017577495 -0.039124545 0.011755457
-0.018496092 0.006392934 0.015386447 -0.0012590862 0.023672428 -0.018070204 0.00016968939 -0.034846142
0.01243729 0.018564213 -0.010139471 -0.016461698 0.009800961 0.006079319 -0.01341384 -0.0036830797
0.010414369 -0.010009016 0.0009235732 0.0053619808 -0.019434102 -0.0245573 -0.0141904205 -0.017808082
-0.018481677 -0.08549269 -0.027448881 0.005509208 -0.019914083 0.022437874 0.001992118 0.038936533
0.018059319 -0.020273617 -0.010487525 -0.020951785 0.07679075 0.0044647628 0.020181194 0.053602178
0.01899868 0.056065783 0.015680857 0.036983054 -0.0024995352 0.00809592 0.06008484 0.0044512507
0.010759784 -0.0035673524 0.011912483 0.031574078 0.022232201 0.0016720443 0.007917977 0.0038765909
-0.03825585 0.018613508 -0.022833917 -0.007264289 -0.045799434 -0.02997154 -0.012269375 0.012889627
-0.0068390234 -0.030403638 0.0011042827 -0.0003357206 -0.010376005 0.0009842882 -0.008632597 0.006330815
0.016580062 0.030091584 0.02351609 -0.02297757 0.0070782714 0.013808084 -0.034495708 -0.011998698
0.00065802323 -0.009015511 0.021349767 0.02616173 0.033968404 0.011219164 0.0067136684 -0.0054728347
-0.017884312 -0.02017009 -0.0022969532 0.030018024 0.0017235551 0.008944645 0.031956464 0.025931446
-0.031187225 -0.013602297 -0.0061120233 -0.015551815 0.009782552 0.014918972 -0.00067484274 -0.017646074
-0.03971382 0.010252286 0.009208967 -0.01728396 -0.0096867075 0.00598514 0.004212018 -0.04245847
-0.026775464 0.020285757 -0.012675153 -0.028650519 0.022523878 0.01968476 -0.018366903 0.0019164379
0.0019133582 0.036200974 -0.009953947 -0.027020779 -0.033510264 0.0048664617 -0.057819847 0.07308475
0.037722826 -0.04554912 0.023356449 -0.02844207 0.013922403 -0.013275011 -0.022178836 0.062538005
-0.10263774 -0.054398037 0.040444456 -0.025193678 0.00955625 -0.06777706 -0.07070525 -0.03860114
-0.07952819 -0.079881474 0.012501022 -0.07073439 0.05403225 0.057472635 0.008760706 0.06288076
-0.06736808 0.035170894 -0.035770062 -0.06841462 -0.011546237 0.033975594 -0.02287028 0.0130196875
-0.039500628 -0.023491997 0.011519764 -0.023735803 0.013172526 0.021864796 -0.01360695 0.04444018
0.027288213 -0.0043688505 0.018372137 -0.0012373779 -0.0028400219 0.010939587 -0.00010539836 0.01151286
0.029971255 0.0005337105 0.031417567 -0.02088733 -0.033778973 0.033659965 -0.00911573 0.021045353
-0.011504651 -0.03073593 0.0077126203 0.028545858 -0.035869084 0.03184367 0.050602514 -0.018724509
-0.027881756 -0.025687013 -0.02471476 -0.037888013 0.013677024 0.0039866683 0.023249479 -0.014498412
0.04302404 0.03319148 0.017549556 0.0058687357 0.03333598 0.01971228 0.03969527 0.062631406
0.039493546 0.024568299 0.029260108 0.0439682 -0.0010881042 0.00449748 0.007885837 -0.015856106
-0.004647789 -0.019620527 -0.021486146 -0.021474622 0.022659991 -0.008229711 -0.005470753 -0.01976381
0.026042188 0.0400065 0.026886608 0.015866939 0.039274115 -0.026084784 -0.00024180245 0.050568763
-0.05296607 0.009066699 -0.14595063 -0.0028246432 0.037628338 0.01888681 0.0028390677 0.008752697
-0.05066021 -0.013676904 0.019325955 -0.044492166 0.033146042 0.001597212 -0.017891064 -0.033411335

linear.bias f4 [3]
00000000: 78d7 893c dba3 093c 3b71 bfbc
0.016826376 0.008400883 -0.023369422
