models/void.pth (torch, 673187 bytes, 10 tensors)

conv1.0.weight f4 [16, 1, 3, 3]
0	0x3d832e27	0.06405287
1	0x3e9c9061	0.30578902
2	0xbe2b2d69	-0.16716541
3	0xbe85053b	-0.25980553
4	0x3e29f01f	0.16595505
5	0x3e6a063d	0.22853942
6	0x3e6adc17	0.2293552
7	0x3e21dd10	0.15806985
8	0xbb7c46d8	-0.0038494375
9	0x3d83f170	0.06442535
10	0x3db2e970	0.08735931
11	0x3ec4c8d9	0.38434485
12	0x3e049bb0	0.12950015
13	0x3d41fe2d	0.04736154
14	0xbe51c6eb	-0.20486037
15	0xbe1da9be	-0.15396783
16	0xbdee9016	-0.11648576
17	0xbea0e541	-0.31424907
18	0xbea554f5	-0.3229138
19	0xbe2dec68	-0.16984713
20	0xbe96e855	-0.2947413
21	0xbdfb8199	-0.12280578
22	0xbe94ba4b	-0.2904838
23	0x3d0831c6	0.033250593
24	0x3e7c54cb	0.24641721
25	0x3e99deea	0.30052882
26	0x3df20dc6	0.11819033
27	0xbdc339a6	-0.0953248
28	0x3e83260f	0.25614974
29	0x3db3bc60	0.08776164
30	0x3e0bc0d1	0.13647772
31	0xbe6e4aef	-0.23270772
32	0xbce99f79	-0.028518425
33	0xbe82a134	-0.25513613
34	0x3e20450d	0.15651341
35	0xbe23ef23	-0.16009192
36	0x3e829ea6	0.25511664
37	0xbe179433	-0.14802627
38	0x3e5f829c	0.21827167
39	0x3e49d06f	0.19708417
40	0xbda739b6	-0.08165304
41	0x3db07ce0	0.08617568
42	0x3e94b267	0.2904236
43	0xbe98d592	-0.2985044
44	0x3abeb692	0.001455026
45	0x3e66fa15	0.22556336
46	0xbeb88291	-0.36037114
47	0x3e27109c	0.1631493
48	0x3db89716	0.09013192
49	0xbe652e51	-0.2238095
50	0x3d9a4c34	0.07534066
51	0xbe8a34eb	-0.26993498
52	0x3e8cdad0	0.2751069
53	0xbe353635	-0.1769646
54	0x3e3b8eb4	0.18316156
55	0x3e9d3524	0.30704606
56	0xbc9d8a90	-0.01923111
57	0x3e9ed636	0.31022805
58	0xbe958463	-0.29202566
59	0xbe550736	-0.20803532
60	0x3e41890b	0.18899934
61	0xbdf68e41	-0.120388515
62	0x3e8e14c9	0.27750233
63	0xbea20a67	-0.3164856
64	0xbdfa5c19	-0.122245975
65	0x3e0c2bb9	0.13688554
66	0x3e9084ea	0.28226405
67	0xbe60e420	-0.21962023
68	0x3e079a71	0.13242508
69	0x3d3e9cf9	0.04653642
70	0xbe58db3b	-0.2117738
71	0x3c88e6e1	0.016711654
72	0x3e2284da	0.15870991
73	0x3e904963	0.2818099
74	0xbde73970	-0.11290252
75	0xbd004c3d	-0.031322706
76	0xbd7125aa	-0.05887381
77	0xbcf1f993	-0.029537952
78	0x3dc41a99	0.095753856
79	0x3e341797	0.17587124
80	0x3d694a8d	0.056955863
81	0xbdec459a	-0.11536713
82	0x3e154529	0.14577164
83	0x3dbd2a5f	0.09236597
84	0x3e66fe34	0.22557908
85	0x3e202471	0.15638901
86	0xbe8d99fe	-0.2765655
87	0x3db0d0e1	0.086335905
88	0xbcd61138	-0.026131257
89	0x3e8774b8	0.26456237
90	0xbe44f871	-0.19235398
91	0x3d84f693	0.06492343
92	0x3cae12df	0.021249233
93	0xbea50f7b	-0.32238373
94	0x3dad1c7f	0.08452701
95	0x3db655af	0.089030616
96	0xbe8b7d68	-0.27244115
97	0xbdb1e051	-0.08685363
98	0x3e5a027c	0.2129001
99	0xbe56cba4	-0.2097612
100	0xbe17f2b7	-0.14838682
101	0x3dac2179	0.08404822
102	0x3e3d9a04	0.18515784
103	0x3e222741	0.15835287
104	0xbe106b17	-0.14103352
105	0xbe2d7963	-0.16940837
106	0x3d20c9bc	0.03925489
107	0x3eaa937e	0.33315653
108	0x3df9b4aa	0.12192662
109	0x3ca86728	0.020557001
110	0xbea46765	-0.32110134
111	0xbe3d7d92	-0.18504933
112	0xbdc06adf	-0.09395384
113	0x3eb0ce0d	0.34532204
114	0xbce3bbaf	-0.027799455
115	0xbe7f4e98	-0.24932325
116	0xbe88b0ea	-0.26697475
117	0x3e46cb48	0.19413483
118	0xbe1775cd	-0.14791031
119	0xbdb56b39	-0.08858342
120	0xbe8800f3	-0.26563224
121	0x3ce58acf	0.02802029
122	0xbd6450de	-0.055741183
123	0xbc78e974	-0.015192378
124	0xbe32b29b	-0.17450945
125	0xbd6a5165	-0.05720653
126	0xbde6530e	-0.1124631
127	0x3e363732	0.17794493
128	0xbe92f5c6	-0.28703135
129	0x3e6ad970	0.22934508
130	0x3d732134	0.059357837
131	0x3cb148e2	0.021641199
132	0xbdc4a85f	-0.09602427
133	0x3cb9ad1f	0.022665558
134	0x3d1b39b4	0.037896827
135	0xbe827e5f	-0.25487038
136	0xbda76fa3	-0.0817559
137	0x3c75cd81	0.015002609
138	0x3ea9ee4d	0.33189622
139	0x3eeead34	0.46616518
140	0xbd978374	-0.073981196
141	0x3d64b60c	0.055837676
142	0xbd1d3261	-0.038378123
143	0xbc1ed24b	-0.009693692

conv1.0.bias f4 [16]
0	0x3e2f6f59	0.1713232
1	0xbdb15ade	-0.0865991
2	0x3ea0c7d6	0.31402463
3	0x3df262cb	0.118352495
4	0x3ea53e5e	0.32274145
5	0x3e4f7031	0.20257641
6	0x3d0d1a06	0.034448646
7	0x3d1cac39	0.03825018
8	0xbe4afdd2	-0.19823387
9	0x3d8c1d17	0.06841486
10	0xbda1defe	-0.079038605
11	0x3e81a64e	0.25322193
12	0x3e96a44b	0.2942222
13	0xbe861ab1	-0.2619224
14	0xbcaef8ec	-0.02135893
15	0xbd71f97e	-0.059075825

conv2.0.weight f4 [32, 16, 3, 3]
0	0x3d19a53a	0.037511088
1	0xbd130dc9	-0.03590182
2	0x3c89af25	0.016807148
3	0x3d423eca	0.04742316
4	0x3998903d	0.00029099165
5	0xbd7b6de4	-0.061384097
6	0xbd7de581	-0.06198645
7	0xbc8b8e71	-0.017035695
8	0x3bcc0b54	0.0062269364
9	0xbb949e47	-0.0045354697
10	0xbd4e1a0d	-0.050317813
11	0xbca739ce	-0.020413306
12	0xbd944aa7	-0.07240801
13	0xbde5d6c4	-0.11222604
14	0xbda89fdb	-0.08233615
15	0xbd61fdda	-0.055173732
16	0x3cd8b132	0.02645168
17	0x3d42f832	0.04759998
18	0x3d3ed5a2	0.046590455
19	0xbde88e8b	-0.11355313
20	0xbd130399	-0.035892103
21	0x3d0f47be	0.034980528
22	0x3dd1dbe6	0.102470204
23	0x3d8e8efb	0.06960865
24	0xbd89ad02	-0.06722452
25	0x3cb99615	0.022654573
26	0xbd3abacd	-0.045588303
27	0xbbda1424	-0.006655233
28	0xbc1b3ffd	-0.009475705
29	0x3d879f54	0.06622186
30	0x3d733bf7	0.05938336
31	0xbe00eb8d	-0.12589855
32	0x3d06cca7	0.032910015
33	0x3c8a149c	0.01685553
34	0x3d43150f	0.047627505
35	0xbd164c73	-0.036694
36	0xbd543960	-0.05181253
37	0xbd6c6a2e	-0.05771845
38	0xbd817650	-0.063213944
39	0x3c904012	0.017608676
40	0x3cecd168	0.028908446
41	0xbcb2ed40	-0.021841645
42	0xbca55c54	-0.020185627
43	0xbd3fff14	-0.04687412
44	0x3d7785d7	0.060430374
45	0xbdaa63a3	-0.083197854
46	0xbca1716e	-0.019707408
47	0x3d2bba16	0.041925512
48	0xbd06b4e0	-0.03288734
49	0xbd99ac35	-0.07503549
50	0xbd4568cc	-0.048195645
51	0xbda23d53	-0.07921853
52	0x3cacea22	0.021107737
53	0x3c5791c3	0.013157311
54	0x3b57f51c	0.0032952493
55	0xbc81e899	-0.015857982
56	0xbd00c2b0	-0.03143567
57	0x3c7bc1c3	0.015366021
58	0x3c38497f	0.011247992
59	0x3cc5719b	0.024102023
60	0x3cdfb045	0.027305732
61	0x3d477723	0.048697602
62	0xbd405cd0	-0.046963513
63	0xbcc64386	-0.02420212
64	0xbd624230	-0.055238903
65	0xbd38210a	-0.044953384
66	0xbb6c2e40	-0.003603831
67	0xbdcc86c6	-0.099866435
68	0x3c8d6a43	0.017262584
69	0xbd66340d	-0.056201983
70	0xbdb669c4	-0.08906892
71	0xbd8894d3	-0.06669011
72	0xbc5be43b	-0.013421114
73	0xbdce8deb	-0.100856625
74	0xbc58787a	-0.013212318
75	0xbd6fc178	-0.058534116
76	0x3d285a03	0.041101467
77	0xbc924f98	-0.017860219
78	0x3d60e97f	0.05491018
79	0xbd6f7a66	-0.058466338
80	0xbc7bc5b9	-0.015366965
81	0xbc82259b	-0.015887072
82	0xbcd0a2ad	-0.025468195
83	0xbcb8c236	-0.022553544
84	0xbd7f6c75	-0.062359292
85	0xbd3e886d	-0.046516825
86	0xbd98010e	-0.07422076
87	0x3da413e7	0.080116086
88	0x3a545a17	0.00081005826
89	0xbc0530b6	-0.008129289
90	0xbd0de7ec	-0.034645006
91	0x3a18d873	0.0005830593
92	0xbd02dd5d	-0.03194939
93	0xbd368d8b	-0.04456858
94	0xbd80d339	-0.062902875
95	0xbcef656d	-0.029223168
96	0xbc855ba9	-0.016279059
97	0xbd88e9cb	-0.066852175
98	0xbd99200f	-0.07476818
99	0xbd814ed2	-0.06313862
100	0xbcbac63e	-0.022799607
101	0x3d4797d6	0.048728786
102	0xbbba3786	-0.0056828884
103	0x3da44fa9	0.080230065
104	0xbceccc1c	-0.02890592
105	0xbd85cd38	-0.06533283
106	0x3d51132c	0.051043674
107	0xbc477e6a	-0.012176136
108	0x3d5cdc6d	0.053921152
109	0x3c9d1836	0.019176584
110	0xbc2efb9c	-0.010680106
111	0x3cc18893	0.023624694
112	0xbdddc22e	-0.108280525
113	0xbca4cf4c	-0.020118378
114	0x3d83cbee	0.06435381
115	0xbce7ea8c	-0.028310083
116	0xbccd40f3	-0.025055384
117	0x3d8b8614	0.06812683
118	0xbd8b9ea7	-0.0681737
119	0xbd437a08	-0.0477238
120	0x3d09c41f	0.0336343
121	0x3cf5858a	0.029970903
122	0x3d8ecd5e	0.069727644
123	0xbd64d99a	-0.055871584
124	0x3db7d7d2	0.08976711
125	0x3cdf5a44	0.027264722
126	0x3d40bcab	0.047054928
127	0xbd6610fe	-0.05616855
128	0x3d928aeb	0.07155403
129	0xbb9a15b4	-0.0047022942
130	0x3db1c783	0.08680632
131	0x3ca3df81	0.020004036
132	0x3d95cfe8	0.073150456
133	0x3cda16d3	0.026622212
134	0x3cecc1b2	0.028900955
135	0xbda3859c	-0.07984468
136	0xbd56b2e2	-0.05241669
137	0x3d1eea10	0.03879744
138	0xbc43bdd7	-0.011947117
139	0x3dc6d7bd	0.097091176
140	0x3d47d54e	0.048787408
141	0xbd9d7630	-0.07688558
142	0x3c6e6a32	0.014551686
143	0xbd1b82c6	-0.037966512
144	0x3dbf7927	0.0934928
145	0xbd9c3c01	-0.07628632
146	0x3c3e15ee	0.011601908
147	0xbd35bb94	-0.04436834
148	0x3d2111f7	0.039323773
149	0xbda4b67c	-0.08042619
150	0x3d09b711	0.03362185
151	0x3d83e85c	0.064408034
152	0xbd8aaa16	-0.067707226
153	0x3cdb14ec	0.026743375
154	0x3d76463e	0.060125582
155	0xbdb0bdee	-0.08629976
156	0x3d8ce71e	0.068800196
157	0xbd7c65c7	-0.0616205
158	0x3ca684ba	0.02032696
159	0xbda853cd	-0.08219109
160	0xbd7681db	-0.060182434
161	0xbd9669df	-0.07344412
162	0x3d81f36d	0.06345258
163	0x3d8af961	0.067858465
164	0xbd4b19b3	-0.049585056
165	0xbc6f360c	-0.014600288
166	0xbd9b7a9a	-0.07591744
167	0xbdf63204	-0.120212585
168	0xbcfc7d0e	-0.03082135
169	0x3d33e410	0.04391867
170	0x3d54003b	0.051758032
171	0x3d608ff8	0.0548248
172	0xbca65de7	-0.020308448
173	0xbdcbb5e9	-0.09946806
174	0x3da4bbdd	0.080436446
175	0x3d3ba311	0.04580981
176	0x3d8ab8cc	0.067735285
177	0x3c90c2e5	0.017671058
178	0x3d2e4d55	0.04255422
179	0xbdc43d15	-0.09581963
180	0x3cf16ecd	0.02947178
181	0x3ca7336d	0.020410264
182	0x3d00e318	0.031466573
183	0x3c5f8bf9	0.013644212
184	0x3bd99cea	0.00664102
185	0x3d79685f	0.06089055
186	0x3ccdecb0	0.025137275
187	0x3d09629f	0.033541318
188	0xbd365633	-0.0445158
189	0xbd34f3aa	-0.04417769
190	0xbd5a90a4	-0.053360596
191	0x3c160918	0.009157442
192	0x3d2c5f7e	0.042083256
193	0xbda6faae	-0.08153282
194	0x3cc4c843	0.024021273
195	0xbdc6e76e	-0.097121105
196	0xbd025387	-0.03181794
197	0x3d54a919	0.051919077
198	0x3d91334d	0.07089863
199	0x3d79699e	0.06089174
200	0x3c9387a8	0.018009022
201	0xbd95b4d9	-0.073098846
202	0xbdef5a2f	-0.11687123
203	0x3d6f2e27	0.058393624
204	0xbd735bc8	-0.0594137
205	0x3bd9046c	0.0066228416
206	0x3c162686	0.009164458
207	0x3d83e598	0.06440276
208	0x3d2da547	0.04239395
209	0xbd016667	-0.0315918
210	0xbdc907e6	-0.0981596
211	0x3d1d126f	0.038347658
212	0xbd96e96f	-0.07368743
213	0xbd0c110d	-0.03419595
214	0x3ddb3444	0.10703328
215	0x3da7a410	0.08185589
216	0x3d063bc6	0.03277185
217	0xbd8a0055	-0.067383446
218	0xbd904880	-0.07045078
219	0x3d4367e1	0.04770649
220	0x3d9e9b7b	0.07744499
221	0xbc75a151	-0.014992074
222	0xba97c038	-0.0011577671
223	0xbd057df6	-0.03259083
224	0xbd5bb0d9	-0.053635452
225	0x3d00cf59	0.031447742
226	0x3d13c302	0.036074646
227	0xbbfe08d9	-0.0077525196
228	0xbcc9ff2c	-0.024657808
229	0xbcfc9f1f	-0.030837594
230	0xbd55cfb4	-0.052200034
231	0xbc044f3d	-0.0080755325
232	0xbd88e893	-0.06684985
233	0x3cf0a44b	0.029375216
234	0xbbc64eee	-0.0060518896
235	0xbd261485	-0.040546913
236	0x3dacb806	0.08433537
237	0xbd9f58ab	-0.07780584
238	0x3c0bbc9a	0.008528853
239	0x3c37f98c	0.01122893
240	0xbda4f5d1	-0.08054698
241	0x3aaf2df4	0.0013365136
242	0xbcb1ddb1	-0.021712156
243	0xbc71fb22	-0.014769347
244	0x3c57394c	0.013136219
245	0x3c18883e	0.009309826
246	0x3bcea8f3	0.0063067614
247	0xbe1115b3	-0.14168434
248	0x3ccda556	0.025103252
249	0x3ccfe25a	0.025376488
250	0x3d9f4245	0.07776312
251	0xbd27c4c5	-0.04095914
252	0xbd27197b	-0.040795784
253	0xbcf214e5	-0.029550979
254	0xbd9d863f	-0.07691621
255	0xbd5622ad	-0.052279163

conv2.0.bias f4 [32]
0	0x3d8e3713	0.06944098
1	0x3c161007	0.009159095
2	0x3c0572dc	0.00814506
3	0x3e1550ea	0.14581648
4	0xbd68c415	-0.056827623
5	0xbd76b586	-0.060231708
6	0xbcfaa231	-0.030594917
7	0x3d675f62	0.05648745
8	0xbcea3dea	-0.028593976
9	0x3d8ee940	0.06978083
10	0x3d36a19c	0.044587716
11	0x3da3576f	0.07975661
12	0x3cac831c	0.021058612
13	0x3d91bae4	0.07115725
14	0x3d08eaba	0.033426978
15	0x3d58460b	0.052801173
16	0xbcb9d3ac	-0.02268394
17	0x3e102e8a	0.14080253
18	0xbd91f712	-0.07127203
19	0x3c9d0416	0.019166987
20	0x3d9de80e	0.077102765
21	0x3c9e0324	0.019288607
22	0x3d34d262	0.04414595
23	0x3cada706	0.021197807
24	0xbcb440c1	-0.022003533
25	0x3d10f979	0.035394166
26	0x3d281f9a	0.041045763
27	0x3c325d5a	0.010886515
28	0xbc1a0f84	-0.009403113
29	0xbcab661c	-0.020922713
30	0x3d4e6d90	0.050397456
31	0x3da666ec	0.081250995

conv3.0.weight f4 [64, 32, 3, 3]
0	0x3b2b2bd9	0.0026118665
1	0x3d244c55	0.04011186
2	0x3ccd9635	0.025096038
3	0xbbaeefbe	-0.005338638
4	0xbd5e005a	-0.054199554
5	0xbd57addf	-0.05265605
6	0xbacc81fc	-0.0015602703
7	0xbc706933	-0.014673519
8	0x3d6e6bab	0.05820815
9	0xbd65eda1	-0.056134824
10	0x3d778ef5	0.06043907
11	0x3ce8b95a	0.028408695
12	0xbd8e5d5c	-0.06951401
13	0x3ce71fad	0.028213346
14	0x3d475daf	0.048673328
15	0x3d39c10f	0.04535013
16	0xbce1d255	-0.027566114
17	0x3d7e341b	0.06206141
18	0x3d544009	0.05181888
19	0xbd5dcc41	-0.05414987
20	0xbcb2ba11	-0.021817239
21	0x3c41dab1	0.011831925
22	0xbd2e07a0	-0.04248774
23	0x3d962b4a	0.073324755
24	0x3b62df31	0.0034617896
25	0x3cf1dcd9	0.029524254
26	0xbc8d5180	-0.017250776
27	0x3d707667	0.058706667
28	0x3d05cfd7	0.032668915
29	0xbd36c709	-0.04462341
30	0x3b12d6fd	0.0022405975
31	0xbc98a6d2	-0.018634234
32	0xbcadf88e	-0.021236684
33	0xbcba499a	-0.022740174
34	0x3d27fdd8	0.04101357
35	0x3d64d836	0.055870257
36	0xbcdc768f	-0.026912002
37	0x3d9ff111	0.07809652
38	0x3d5ac4f4	0.053410485
39	0xbd0cc08e	-0.034363322
40	0x3d7f4a68	0.06232682
41	0xbc2918e6	-0.010320878
42	0xbbd12b62	-0.0063833455
43	0x3cebf2a6	0.028802227
44	0x3b9cf16f	0.0047895233
45	0x3d89acd3	0.06722417
46	0xbccfa793	-0.02534846
47	0x3d0a988a	0.03383688
48	0x3d84c096	0.06482045
49	0x3b707722	0.0036692102
50	0xbc665399	-0.014058017
51	0x3d80c45a	0.06287451
52	0xbd597d8a	-0.05309824
53	0xbcb04dc0	-0.02152145
54	0xbd6e1289	-0.058123145
55	0xbc579694	-0.013158459
56	0x3d16c01b	0.0368043
57	0xbd319579	-0.04335544
58	0xbd4ffbe8	-0.050777346
59	0xbda276ba	-0.079328015
60	0x3db21834	0.08696023
61	0x3c92c74f	0.017917303
62	0x3d415fe8	0.047210604
63	0xbd36b5d6	-0.044607006
64	0x3c36d28f	0.0111585995
65	0x3c5e2081	0.013557554
66	0xbc42683d	-0.011865673
67	0xbbb8bff7	-0.0056381184
68	0x3ba36f30	0.00498762
69	0xbc9ed272	-0.019387458
70	0xbd05078f	-0.03247791
71	0x3cb6a9b7	0.022297723
72	0x3ce2f58c	0.027704976
73	0x3d21fef4	0.039549783
74	0xbcd5f9e3	-0.026120132
75	0xbd4a72b0	-0.04942578
76	0x3d026169	0.03183118
77	0xbc3eee61	-0.011653514
78	0x3c58c658	0.013230883
79	0xbcd8f062	-0.026481811
80	0x3c4ab1ac	0.012371462
81	0xbd75b580	-0.059987545
82	0xbc54485b	-0.012956704
83	0xbc1ea487	-0.009682781
84	0x3d728ea1	0.059218053
85	0xbb9d2bb8	-0.0047964714
86	0x3c6f2d15	0.014598151
87	0x3ca90e73	0.020636773
88	0x3d846518	0.064645946
89	0xbda6dccf	-0.08147585
90	0x3cff3dbf	0.031157373
91	0x3d999cb3	0.07500591
92	0x3d2303bd	0.039798487
93	0xbbd8aad1	-0.00661216
94	0x3d52a00d	0.051422168
95	0xbba045bf	-0.004891127
96	0xbb971c9d	-0.0046115653
97	0x3d2b48c7	0.041817453
98	0xbcc90b20	-0.024541438
99	0xbd3c261d	-0.045934785
100	0xbd8dccc7	-0.06923824
101	0xbb0ba70e	-0.002130929
102	0xbcd0f9af	-0.025509683
103	0xbaae32d4	-0.0013290294
104	0x3ccbb115	0.024864713
105	0xbd0677cb	-0.032829087
106	0x3d8dcc7e	0.069237694
107	0x3d2c87f3	0.04212184
108	0x3d023c6d	0.031795908
109	0xbc95fb35	-0.018308261
110	0xbcfc933f	-0.030831931
111	0x3b65a6b5	0.0035041992
112	0x3d533af2	0.051569887
113	0xbbe562ad	-0.0070002885
114	0xbd039e41	-0.032133345
115	0xbcf4a01c	-0.029861502
116	0xbc449276	-0.01199781
117	0xbd3cd7cb	-0.046104234
118	0xbd3cf327	-0.046130326
119	0x3d573416	0.052539907
120	0x3ca7aa87	0.020467056
121	0xbd263d39	-0.04058573
122	0xbd6ef25c	-0.0583366
123	0xbcb8c9f0	-0.022557229
124	0xbcd77863	-0.026302522
125	0xbbcb1d61	-0.0061985706
126	0xbd605eee	-0.054778032
127	0xbd4d4b0c	-0.0501204
128	0xbcb31b5e	-0.021863636
129	0xbcc7eb9f	-0.024404345
130	0x3d324544	0.043523088
131	0x3d9e5bb6	0.07732336
132	0x3a6a957d	0.0008948667
133	0x3c1144ce	0.008866502
134	0xbccbc439	-0.02487384
135	0x3cf1bc4e	0.029508736
136	0xbd7221dd	-0.059114326
137	0xbd49c5e0	-0.049260974
138	0x3c1015db	0.008794273
139	0x3ccc0105	0.02490283
140	0x3cdc260c	0.02687361
141	0x3d1bdec1	0.03805423
142	0xbc47cbea	-0.012194613
143	0xbcc125d5	-0.02357761
144	0xbd36ce1a	-0.044630148
145	0x3c20d58d	0.0098165395
146	0xbd13ad80	-0.036054134
147	0xbd23abef	-0.03995889
148	0x3d29bd15	0.04144009
149	0xbd8b8340	-0.06812143
150	0x3d9be1b8	0.07611412
151	0x3da0463b	0.078258954
152	0x3d8327f7	0.06404107
153	0xbd6f0e80	-0.058363438
154	0xbd879755	-0.06620661
155	0x3c943b6a	0.018094737
156	0x3d28c6e8	0.041205317
157	0xbc2db6b9	-0.0106026465
158	0x3c267ae7	0.010161138
159	0x3d3f6d8b	0.046735328
160	0xbd24149c	-0.040058717
161	0xbd6ecdac	-0.058301613
162	0xbd933b69	-0.07189066
163	0xbcb35dff	-0.021895407
164	0xbce1faf2	-0.02758548
165	0x3daada29	0.08342392
166	0x3ca41c62	0.020033065
167	0x3cc0470e	0.023471382
168	0xbd2814b3	-0.041035365
169	0x3cfb16b6	0.030650478
170	0xbd523252	-0.05131752
171	0x3cbd3c58	0.023100063
172	0x3ca29264	0.019845195
173	0xbd41edcd	-0.047345925
174	0xbd36f42e	-0.04466646
175	0x3d210488	0.039310962
176	0x3d6f2fc4	0.058395162
177	0x3c63aa86	0.013895636
178	0xbd35f3d3	-0.044421982
179	0xbcd34eca	-0.025794405
180	0xbcbf0586	-0.023318063
181	0xbbeac405	-0.0071644806
182	0x3d4885d1	0.048955742
183	0xbc8b9324	-0.017037936
184	0xbd8c8e52	-0.06863083
185	0xbcfcf247	-0.030877246
186	0x3d2d95c7	0.042379167
187	0xbd6f8db6	-0.058484755
188	0x3ca8bf07	0.020598901
189	0xbd066161	-0.03280771
190	0xbd81090f	-0.06300556
191	0xbce2ed12	-0.027700935
192	0xbae79b26	-0.0017670139
193	0xbd237c9b	-0.039913755
194	0xbd4fbdfc	-0.050718293
195	0x3db555bf	0.088542454
196	0x3d9e0d2c	0.07717356
197	0x3d95384c	0.072861284
198	0xbd4e61f8	-0.0503864
199	0xbd882160	-0.06646991
200	0xbca1491a	-0.019688178
201	0xbc8f7de5	-0.017516086
202	0xbd79ac8c	-0.06095557
203	0xbac3e3d0	-0.0014945213
204	0x3c46d1cd	0.012134981
205	0x3af226bc	0.0018474679
206	0xb919a313	-0.00014651967
207	0xbd7e793e	-0.062127344
208	0xbd82bc8c	-0.06383619
209	0xbd1764ee	-0.03696149
210	0x3d02ea38	0.03196165
211	0x3d19a971	0.037515108
212	0x3d81cc4e	0.06337796
213	0x3c224a80	0.0099054575
214	0x3bfa7668	0.0076435097
215	0xbcab6f04	-0.02092696
216	0x3d2630a6	0.04057374
217	0xbcd22275	-0.025651196
218	0x3d5ab435	0.053394515
219	0x3d31cf10	0.04341036
220	0x3dbe2133	0.09283676
221	0x3d014479	0.03155944
222	0xbd0c6b74	-0.034282163
223	0x3d23c0cd	0.03997879
224	0xbd4e56cc	-0.050375745
225	0x3d193e71	0.037413064
226	0x3d47f20d	0.048814822
227	0x3b691ba0	0.0035569444
228	0x3d28d7c4	0.041221395
229	0xbc972eec	-0.018454991
230	0xbc50ef27	-0.012752331
231	0xbba0d0f4	-0.0049077217
232	0x3d7aa343	0.061190855
233	0x3c90fd77	0.017698986
234	0x3c473e38	0.01216083
235	0xbd82b638	-0.06382412
236	0xbcd52b07	-0.026021494
237	0xbd2049b2	-0.03913278
238	0x3d079565	0.033101458
239	0x3c129b10	0.008948103
240	0xbc49b6b8	-0.01231163
241	0xbd344651	-0.04401237
242	0x3d8dec76	0.06929867
243	0x3cc17f29	0.023620205
244	0xbb5ef260	-0.0034018978
245	0x3b9b1ffe	0.0047340384
246	0xbcb04fd0	-0.021522433
247	0xbc88ff80	-0.016723394
248	0x3d315ac4	0.04329945
249	0x3c9ea7d5	0.019367138
250	0xbd844e71	-0.06460274
251	0xbd65a4e7	-0.056065466
252	0xbce34d67	-0.02774687
253	0xbd4beeb8	-0.049788207
254	0xbbc314a3	-0.005953388
255	0x3d4d2cd8	0.050091594

conv3.0.bias f4 [64]
0	0xbe205cbf	-0.1566038
1	0xbd21b3a9	-0.039477978
2	0x3d56782a	0.05236069
3	0x3ca257cb	0.019817254
4	0xbd14c4ad	-0.036320377
5	0xbc2ebf08	-0.010665663
6	0x3d96aaad	0.073567726
7	0xbd2d08a3	-0.042244565
8	0xbbbee08a	-0.005825107
9	0xbd133b28	-0.035945088
10	0x3db92954	0.09041086
11	0x3bab1499	0.0052209613
12	0x3d3dfe25	0.04638495
13	0xbbff092c	-0.007783076
14	0x3d25f833	0.040519904
15	0xbcf31c91	-0.029676707
16	0x3d684bc8	0.056712896
17	0x3cf732bf	0.030175565
18	0x3daa6da9	0.08321697
19	0x3d37044f	0.044681843
20	0x3cccb5a1	0.024988951
21	0xbc17e332	-0.009270476
22	0x3d9e44ac	0.07727942
23	0x3dba0011	0.09082044
24	0x3c0d03e3	0.008606884
25	0xbcc9104b	-0.024543902
26	0xbc0bec53	-0.008540231
27	0x3d4effd9	0.050536964
28	0x3c45bdce	0.012069179
29	0x3c2c8589	0.010529884
30	0x3dc0ac77	0.09407895
31	0x3cfe1397	0.0310152
32	0x3c403eaa	0.01173369
33	0x3d14ba17	0.03631028
34	0x3dad44f6	0.08460419
35	0x3d77d462	0.06050528
36	0x3d88436c	0.06653485
37	0x3d180275	0.03711172
38	0xbe18db03	-0.14927296
39	0xbd2b954e	-0.041890435
40	0x3dcacb2a	0.09902032
41	0x3bc283b7	0.005936112
42	0x3d4dd20a	0.050249137
43	0xbbf05d36	-0.0073353304
44	0x3da70583	0.08155348
45	0x3b8d7f0a	0.0043181228
46	0x3d1f70e6	0.038926028
47	0x3e0b656e	0.13612911
48	0x3d603d1e	0.054745786
49	0x3d041873	0.03224988
50	0x3da6291f	0.08113312
51	0xbcae8179	-0.021301972
52	0x3d30598d	0.043054152
53	0x3d0e25cd	0.03470402
54	0x3da85af8	0.08220476
55	0x3c270241	0.0101934085
56	0xbb3a2d0e	-0.0028408202
57	0xbd935e6f	-0.07195746
58	0x3d1de5d9	0.038549278
59	0xbb92c673	-0.0044792234
60	0x3cc182eb	0.023621997
61	0xbda8e26d	-0.08246312
62	0xbbe12c88	-0.0068717636
63	0x3d9e5ac6	0.077321574

conv4.0.weight f4 [128, 64, 3, 3]
0	0xbd218281	-0.0394311
1	0xbd0c6d02	-0.034283645
2	0xbd8c68bb	-0.06855913
3	0xbc051c0f	-0.0081243655
4	0xbd2141eb	-0.039369505
5	0xbd7c3281	-0.0615716
6	0x3b3474c4	0.0027535418
7	0xbceccb91	-0.028905662
8	0xbd115e0f	-0.035490092
9	0xbd092384	-0.033481136
10	0xbd3b3753	-0.04570706
11	0xbd0b1074	-0.033951238
12	0xbc2b4796	-0.010454079
13	0x3d3f538d	0.04671054
14	0x3c9da6c6	0.019244563
15	0x3bc16601	0.0059020524
16	0xbd444596	-0.047917925
17	0xbcb9078b	-0.022586605
18	0x3c6a64b1	0.014306233
19	0xbbed99fe	-0.0072510233
20	0x3c0ef2b1	0.008724854
21	0xbd060625	-0.032720704
22	0x3c807e2a	0.01568516
23	0x3ca9e8e5	0.020740936
24	0xbc13975b	-0.009008254
25	0x3cdc0b67	0.026860906
26	0x3c51218f	0.012764349
27	0xbc8b28de	-0.01698726
28	0x3bf162cc	0.007366514
29	0xbbd69f0e	-0.0065497225
30	0xbcd3db66	-0.025861453
31	0xbd293c01	-0.04131699
32	0xbd53b571	-0.051686708
33	0x3ca0605a	0.019577194
34	0xbca6bc52	-0.02035347
35	0xbb54cd15	-0.0032470871
36	0xbc56f79f	-0.013120561
37	0x3ca3cc57	0.019994898
38	0xbd09e9a3	-0.03367008
39	0xbcfb36f6	-0.030665856
40	0xbced4e55	-0.028968016
41	0xbc87abb0	-0.01656136
42	0x3b62e5af	0.0034621765
43	0xbc6ecbd3	-0.014574963
44	0xbcc8062c	-0.024417005
45	0xbde7baa3	-0.11314895
46	0xbc166f6f	-0.009181841
47	0xbca98169	-0.02069159
48	0x3cdb8d92	0.026800904
49	0xbcea3b4a	-0.028592724
50	0xbc4e169b	-0.012578632
51	0xbcc626f7	-0.024188502
52	0x3b2cf9a6	0.002639392
53	0xbd83042a	-0.063972786
54	0xbd69760a	-0.056997336
55	0xbc972ca5	-0.018453905
56	0xbc928f75	-0.017890671
57	0xbcd44ad3	-0.025914585
58	0xbcd29c1c	-0.025709204
59	0x3c37a77f	0.011209368
60	0xbd27af67	-0.04093876
61	0x3c84b276	0.016198378
62	0xbd0396e2	-0.032126315
63	0xbcc359c7	-0.02384652
64	0x3c4abc9f	0.012374072
65	0x3c1e4017	0.009658835
66	0xbc1850e3	-0.009296629
67	0xbcc8acf3	-0.024496531
68	0x3cf31a82	0.029675726
69	0xbc8fab81	-0.017537834
70	0xbd186560	-0.037206054
71	0xba852373	-0.0010157659
72	0x3d1e60d3	0.038666558
73	0xbc4eb22e	-0.012615724
74	0xbd36c03f	-0.044616934
75	0xbd12d4a6	-0.03584733
76	0xbcd4c4dd	-0.025972778
77	0xbd5c0f63	-0.05372561
78	0xbd292597	-0.041295614
79	0xbcd606c5	-0.026126275
80	0xbd362430	-0.044468105
81	0xbd157149	-0.03648499
82	0xbd328bb7	-0.043590274
83	0xbc8a15db	-0.016856125
84	0xbd31f798	-0.043449014
85	0xbb189efd	-0.0023288124
86	0xbd1dae03	-0.03849603
87	0xbb00b724	-0.001964041
88	0x3c9e234c	0.01930394
89	0x3cdba86b	0.026813706
90	0x3c832e81	0.016013386
91	0x3d34cae5	0.044138808
92	0x3c1934e9	0.009350994
93	0x3d664e22	0.056226857
94	0xbc948187	-0.01812817
95	0xbd562252	-0.052278824
96	0x3d532594	0.05154951
97	0x3be2e154	0.006923834
98	0xbd161817	-0.036644068
99	0xbd0bd8b4	-0.03414221
100	0x3cbd22d6	0.0230879
101	0xbcc0c7da	-0.023532797
102	0xbc878303	-0.016541963
103	0x3afe87be	0.0019419116
104	0xbd2c0ffb	-0.042007428
105	0x3ca4baaa	0.02010854
106	0xbca0c1e0	-0.019623697
107	0x3cae56f0	0.02128169
108	0xbcee2467	-0.029070092
109	0x3c264fa2	0.010150822
110	0xbc2dfd15	-0.0106194215
111	0x3cd3cb59	0.0258538
112	0x3bcfa50b	0.0063368133
113	0x3c6b3d11	0.014357821
114	0xbd30cda2	-0.043164857
115	0xbd1e44f4	-0.038639978
116	0xbc768ee1	-0.015048713
117	0xbc980ecb	-0.018561741
118	0xbd207dd7	-0.03918251
119	0xbd35078c	-0.04419665
120	0x3d0e6816	0.034767233
121	0xbc808ff4	-0.015693642
122	0xbd042da7	-0.0322701
123	0xbc649caa	-0.013953367
124	0xb9492c81	-0.00019185433
125	0xbc0cf513	-0.008603352
126	0xbcc438f5	-0.02395294
127	0x3c8f8600	0.01751995
128	0x3b00393c	0.0019565364
129	0xbc4eb5b2	-0.012616562
130	0x3c24601e	0.010032682
131	0x3cd96ee0	0.026542127
132	0xbcfe4fcb	-0.031043908
133	0xbd17a771	-0.03702492
134	0xbc437247	-0.011929101
135	0xbc0c74a4	-0.008572731
136	0xbda0c5e5	-0.078502454
137	0xbd18681d	-0.037208665
138	0xbd522349	-0.05130318
139	0x3c316d9f	0.010829358
140	0xbc5a1c3d	-0.013312397
141	0xbd754f2f	-0.05988997
142	0xbacca6db	-0.0015613692
143	0x3b0034d0	0.0019562729
144	0x3c79d759	0.015249097
145	0xbd361569	-0.044454012
146	0x3b962ea4	0.0045831967
147	0x3d638f58	0.055556625
148	0x3c05c3cc	0.008164357
149	0xbc6852e3	-0.014179918
150	0xbd11e01c	-0.035614118
151	0x3ce0f48a	0.027460355
152	0x3cbf7f06	0.023376
153	0x3c546cf8	0.012965433
154	0xbaa45266	-0.0012536764
155	0xbd164f26	-0.036696576
156	0xbaf96cd6	-0.0019029628
157	0xbcdd5804	-0.027019508
158	0xbccc3459	-0.024927305
159	0xbcb1bf8c	-0.021697782
160	0x3caaffe1	0.020873966
161	0x3cbd5c32	0.023115251
162	0x3d8597eb	0.06523117
163	0xba38b3a5	-0.0007045812
164	0xbd472065	-0.04861488
165	0x3dd1d60d	0.10245905
166	0x3c0ef877	0.008726231
167	0xbd0686eb	-0.03284351
168	0xbc32ef25	-0.010921274
169	0xbcb19c74	-0.021681048
170	0xbdcc1d87	-0.099665694
171	0xbd80ec7d	-0.062951066
172	0x3b924bfa	0.0044646235
173	0xbd02a145	-0.03189208
174	0x3c196717	0.009362957
175	0xba9cddaf	-0.0011967922
176	0xbcb62193	-0.022232806
177	0x3bda21a3	0.006656842
178	0x3a2bdf82	0.00065564376
179	0xbc4b9c51	-0.012427405
180	0x3d439f15	0.047759134
181	0x3bb38612	0.005478629
182	0x3bdbb882	0.0067053447
183	0x3d61f59d	0.055165876
184	0xbc5e8820	-0.013582259
185	0xbcc9b6d0	-0.024623305
186	0x3c7cce9d	0.01543012
187	0x3c3cf463	0.011532876
188	0x3bab674b	0.0052308193
189	0x3cab4a4a	0.020909447
190	0xbd63424e	-0.055483155
191	0x3c3a3b91	0.011366741
192	0xbd4b13ce	-0.049579434
193	0xbd591982	-0.05300284
194	0xbd0104ee	-0.031498842
195	0x3b31924f	0.0027095263
196	0xbd36cbfe	-0.044628136
197	0xbc73fcd1	-0.014891819
198	0x3c8d0007	0.017211927
199	0xbc7a8fd5	-0.015293081
200	0xbc1306e7	-0.008973814
201	0x3c73862f	0.014863535
202	0x3c964f20	0.018348277
203	0xbc6658c8	-0.014059253
204	0x3d0753db	0.033038955
205	0x3ce08d55	0.027411142
206	0xbc390851	-0.011293487
207	0x3c984cb9	0.018591272
208	0xbaaaa3bf	-0.0013018771
209	0xbd93705c	-0.07199165
210	0x3ba82d4a	0.005132352
211	0x3c8e55df	0.01737493
212	0xbd7e48d2	-0.062081166
213	0xbd7ccfd6	-0.061721645
214	0xbcc2197c	-0.023693793
215	0xbd7413d9	-0.05958924
216	0xbca55dc8	-0.02018632
217	0xbd1c8a67	-0.03821793
218	0xbb9a9f98	-0.004718732
219	0x3c77c7a6	0.0151232835
220	0x3c48394b	0.012220691
221	0xbbbd0bd4	-0.0057692323
222	0xbd253c81	-0.040340904
223	0xbcdc0edf	-0.02686256
224	0xbd27fd07	-0.04101279
225	0xbcb0dd30	-0.021589845
226	0xbd23fb8a	-0.04003481
227	0x3ce29ff6	0.027664166
228	0x3d4aa5ae	0.04947441
229	0xbcf67652	-0.030085716
230	0x3cc06e89	0.023490207
231	0x3bb23e9f	0.005439594
232	0xbd377a70	-0.0447945
233	0x3d2529bd	0.040323008
234	0x3ba49d91	0.005023666
235	0xbcda23d1	-0.026628407
236	0xbd92698a	-0.07149036
237	0xbd1411fc	-0.036149964
238	0xbcf84c0d	-0.030309701
239	0xbd441ee3	-0.04788102
240	0xbcbe3bed	-0.023221934
241	0x3ce91c3d	0.028455848
242	0xbc5a0328	-0.013306417
243	0x3c4446b7	0.01197975
244	0xbd3d0032	-0.046142764
245	0x3885c4bb	6.378578e-05
246	0xbcb17a84	-0.021664865
247	0x3c2e2418	0.010628723
248	0xbd53d50f	-0.05171686
249	0x3c6c4e49	0.0144229615
250	0x3c42b566	0.011884069
251	0xbd0d9420	-0.03456509
252	0xbb63fbef	-0.0034787615
253	0xb9a73f4f	-0.0003189989
254	0xbd60cc0f	-0.054882105
255	0xbc9961c4	-0.018723376

conv4.0.bias f4 [128]
0	0x3de474b1	0.111550696
1	0x3d76ede2	0.060285456
2	0x3d2ff687	0.042959716
3	0x3c19e6f3	0.0093934415
4	0x3d4f4d86	0.05061104
5	0x3da3fd2f	0.08007275
6	0x3d7bfa71	0.061518136
7	0xbccbd622	-0.02488238
8	0x3c033c63	0.008010003
9	0xbc1417ff	-0.009038924
10	0xbbed6835	-0.0072450885
11	0x3da401b6	0.08008139
12	0xbd86e7e2	-0.06587197
13	0x3d6798bf	0.056542154
14	0x3d8ac8c7	0.067765765
15	0x3d3480a0	0.04406798
16	0x3d43b7a0	0.04778254
17	0x3cf1667e	0.029467817
18	0xbd644cf2	-0.055737443
19	0xbb2dbfd4	-0.0026512044
20	0x3d3b8b56	0.045787178
21	0xbc8d94a9	-0.0172828
22	0x3d8aa631	0.0676998
23	0xbd419614	-0.047262266
24	0x3d80ff90	0.06298745
25	0x3d673d67	0.056455042
26	0x3dfca4ad	0.12336097
27	0xbcce4d1c	-0.025183253
28	0x3ded4b2d	0.11586604
29	0x3c133b79	0.008986347
30	0x3c40b4bd	0.011761841
31	0x3cacf24c	0.02111163
32	0x3c9a2e5e	0.018820938
33	0x3ca38904	0.019962795
34	0x3a418bfb	0.00073832244
35	0x3cfd5c98	0.030927941
36	0x3bfbb308	0.0076812543
37	0x3cf167fe	0.029468533
38	0xbbc3e433	-0.005978131
39	0x3ccbe315	0.024888555
40	0x3d292368	0.04129353
41	0x3d9ff997	0.07811277
42	0x3d6daab9	0.058024142
43	0x3d04ee97	0.0324541
44	0x3c758bac	0.014986914
45	0x3d1af9e9	0.03783599
46	0x3d2dd931	0.042443458
47	0x3d4e2a10	0.050333083
48	0x3c421de7	0.01184795
49	0x3daae5dd	0.08344624
50	0x3d0763a3	0.033054005
51	0x3d8e320b	0.06943139
52	0x3d2dedeb	0.042463224
53	0x3d97e101	0.07415963
54	0xbc18d708	-0.009328611
55	0x3cac8938	0.021061525
56	0x3da29d58	0.07940167
57	0xbce6d172	-0.028176043
58	0x3d585bbd	0.052821863
59	0x3dc0c646	0.09412818
60	0xbab9ecf4	-0.0014184997
61	0x3d9719dc	0.07377979
62	0x3c944dd1	0.018103512
63	0x3d11f767	0.035636332
64	0x3db28801	0.08717347
65	0x3d3a5ab2	0.04549665
66	0x3d82b902	0.06382944
67	0x3dc66815	0.09687821
68	0x3d55cdf6	0.052198373
69	0xbd8e4280	-0.069462776
70	0xbc53f8ee	-0.012937767
71	0x3d0a0eb2	0.03370542
72	0xbd3d2256	-0.046175323
73	0x3cc3e2ba	0.023911823
74	0x3d41eea3	0.047346722
75	0xbc96a13c	-0.01838743
76	0x3d463146	0.048386835
77	0xbca4fb77	-0.020139439
78	0xbbf3b9a5	-0.007437902
79	0x3d87696b	0.06611904
80	0x3c8adda8	0.016951397
81	0x3da11a7d	0.0786638
82	0x3db35426	0.087562844
83	0x3d8c05fc	0.06837079
84	0xbbecb725	-0.007223981
85	0xbc8cbcd4	-0.017179884
86	0x3da20a6c	0.07912144
87	0x3c562d0d	0.013072264
88	0x3d08c2f8	0.03338906
89	0x3b5fcf32	0.0034150598
90	0x3d21bcb4	0.039486602
91	0x3cd5b767	0.02608843
92	0x3ca3627c	0.019944422
93	0x3d992715	0.074781574
94	0x3bea2aed	0.0071462304
95	0x3cac0abe	0.021001216
96	0x3d842ca4	0.06453827
97	0x3bedb451	0.0072541614
98	0x3bae3497	0.005316328
99	0x3d24fffe	0.040283196
100	0x3dc5cd35	0.09658281
101	0x39f2205a	0.0004618194
102	0x3d4b93fc	0.049701676
103	0x3d8ab01e	0.06771873
104	0xbbd8c26a	-0.006614973
105	0x3d0584c6	0.032597326
106	0xbcad5022	-0.021156374
107	0xbb6bc81f	-0.0035977436
108	0x3d503f7f	0.050841805
109	0x3d4e0aa1	0.050303105
110	0x3d984712	0.074354306
111	0x3d4a9338	0.049456805
112	0x3d01399a	0.031549074
113	0xbd7461f1	-0.059663717
114	0x3c5794e3	0.013158056
115	0x3d95e26c	0.07318577
116	0x3d97573b	0.07389685
117	0x3b961fe6	0.0045814393
118	0x3d7dad39	0.061932776
119	0x3bae12cc	0.0053122994
120	0x3d0a7210	0.033800185
121	0x3d86aa5c	0.06575462
122	0x3d8a9385	0.06766418
123	0x3de9c7ca	0.1141506
124	0x3db3e4f2	0.08783902
125	0xbd29a231	-0.041414443
126	0x3d587c3b	0.05285285
127	0x3d3789b3	0.044809055

linear.weight f4 [10, 7040]
0	0x3d8250af	0.063630454
1	0x3cd361c8	0.025803462
2	0x3c8866d5	0.016650597
3	0x3d4be008	0.0497742
4	0x3d3f20ba	0.04666207
5	0x3cfa87f6	0.03058241
6	0xbc290875	-0.010316958
7	0x3b055aa5	0.0020348218
8	0x3c0deaf6	0.008661976
9	0x3bbd5278	0.0057776533
10	0x3c8c55c0	0.017130733
11	0x3d527e10	0.051389754
12	0xbd341faa	-0.04397551
13	0x3c15a4d4	0.009133536
14	0x3d494560	0.049138427
15	0x3d86219d	0.0654938
16	0xbc096a98	-0.00838723
17	0x3c6577f4	0.01400565
18	0xbc590f44	-0.0132482685
19	0x3da76d6e	0.08175169
20	0xbd85e68b	-0.06538113
21	0x3ca901ea	0.020630796
22	0xbc49b3e9	-0.01231096
23	0x3bdfa523	0.0068251058
24	0xbc7a82ef	-0.015290006
25	0x3d26259c	0.04056321
26	0x3c6687d6	0.014070472
27	0x3cadd5a3	0.021220034
28	0xbd0c8fcb	-0.03431682
29	0xbd47ec4d	-0.04880934
30	0xba690505	-0.00088889926
31	0xbd3e4df5	-0.046461064
32	0x3cdb6f70	0.026786536
33	0x3c86aedf	0.016440807
34	0x3c0e5eb0	0.008689567
35	0xbc2f483f	-0.010698377
36	0xbc9c2313	-0.019059693
37	0xbdca5729	-0.09879906
38	0xbe1aef28	-0.15130293
39	0xbc198e8c	-0.009372365
40	0xbdea6ba8	-0.11446315
41	0x3cddd3b9	0.027078496
42	0xbda3c218	-0.07996005
43	0x3cefb0c9	0.029259102
44	0x3d2fffaa	0.04296843
45	0x3b9e68fb	0.004834292
46	0x3c433782	0.01191509
47	0x3d21530b	0.039385837
48	0x3d031965	0.03200664
49	0x3d94e209	0.07269675
50	0x3b3d23e8	0.0028860513
51	0xbc8a4f7b	-0.016883602
52	0x3c1ffff0	0.00976561
53	0xbc1153f6	-0.0088701155
54	0x3d066efe	0.032820694
55	0x3d36c85b	0.044624668
56	0x3cc8d67a	0.024516333
57	0x3d112f2c	0.035445377
58	0x3c6dc25f	0.014511674
59	0x3c2c3c26	0.010512387
60	0x3c6aa636	0.014321854
61	0x3c92a82e	0.01790246
62	0xbbe5cef2	-0.007013195
63	0x3c9e976b	0.019359311
64	0x3c072218	0.008247875
65	0x3c668324	0.014069352
66	0x3c1af6b2	0.009458231
67	0xb9a86e8f	-0.0003212583
68	0x3ca9d89c	0.02073317
69	0x3b449557	0.002999624
70	0xbb9b93f9	-0.0047478643
71	0x3c6f8c8b	0.01462091
72	0xba307ea4	-0.0006732738
73	0x3d1c5dad	0.038175274
74	0x3cd7ba88	0.026334062
75	0xba2f4c70	-0.000668711
76	0x3cf63c40	0.030058026
77	0x3c273f2e	0.010207934
78	0xbb008b52	-0.0019614291
79	0xbb2aa478	-0.0026037972
80	0xbce9a00c	-0.0285187
81	0x3d20ca6c	0.039255545
82	0x3d0301db	0.03198419
83	0xbd069a1b	-0.03286181
84	0xbca1014a	-0.019653935
85	0xbca72c6d	-0.020406926
86	0xbd2d67e3	-0.042335402
87	0x3d2e47b7	0.04254886
88	0x3c8f6d50	0.017508179
89	0x3b6cba36	0.0036121733
90	0x3b089751	0.0020842145
91	0xbca55773	-0.0201833
92	0x3afe4bcd	0.0019401253
93	0xbc0fdce7	-0.008780695
94	0x3d1b698a	0.037942447
95	0x3d826056	0.06366031
96	0x3c8d8895	0.017277041
97	0xbc5c15c3	-0.013432923
98	0x3d1faa43	0.038980734
99	0x3c985a38	0.018597707
100	0x3b1d6b50	0.0024020262
101	0x3a1215d9	0.00055727136
102	0x3d9e234f	0.07721578
103	0x3d50c7ad	0.050971676
104	0xbc735f0d	-0.014854205
105	0x3b95f943	0.0045768335
106	0x3b10ff1c	0.0022124713
107	0x3ce3cc12	0.02780727
108	0x3c5a972a	0.013341704
109	0x3cafe7a6	0.021472763
110	0x3d647f76	0.05578562
111	0xba2ab1a3	-0.0006511455
112	0xbbb6ee93	-0.0055826395
113	0x3c5641ad	0.013077182
114	0x3cf60b80	0.03003478
115	0x3bce4b53	0.0062956004
116	0xbba8f9bd	-0.0051567242
117	0x3c742c63	0.014903161
118	0x3cb358c1	0.021892907
119	0x3a089c51	0.0005211281
120	0x3cf20823	0.029544896
121	0xbbe3cc59	-0.0069518504
122	0xbc102409	-0.008797654
123	0xbc15d369	-0.009144642
124	0x3c361d3d	0.011115369
125	0x3c8a4ae5	0.016881416
126	0xbb9ffb2d	-0.0048822374
127	0xbbf7101f	-0.0075397636
128	0x3cf439d4	0.02981273
129	0xbc6a9a59	-0.014319026
130	0x3cae7ba0	0.021299183
131	0x3d09ea16	0.033670507
132	0x3b4fa849	0.0031686
133	0xbc03a525	-0.008034979
134	0xbc54e54f	-0.012994125
135	0x3cfb0982	0.030644182
136	0xbaba128e	-0.0014196204
137	0xbc55d135	-0.013050367
138	0x3d0ec0c9	0.034851823
139	0x3cb895d0	0.022532374
140	0xbd3191d7	-0.043351974
141	0x3d1c97a5	0.038230557
142	0x3bd9bb23	0.006644623
143	0x3b9c0ce6	0.00476228
144	0xbd25857e	-0.04041051
145	0xbd219934	-0.039452747
146	0xbd382b28	-0.044963032
147	0x3bba3748	0.0056828596
148	0x3d89bab5	0.06725065
149	0x3b8bc3d2	0.004265287
150	0x3d653250	0.055956185
151	0xbc6b2836	-0.014352849
152	0x3d27db96	0.040980898
153	0x3c754e5c	0.014972296
154	0xba46032b	-0.00075535727
155	0xbd4e6f40	-0.050399065
156	0x3d45159e	0.04811632
157	0x3ca6acbe	0.020346042
158	0x3d3388c0	0.043831587
159	0x3d8ac3a9	0.067756005
160	0x3c9d96b2	0.019236896
161	0x3cdafd11	0.026732
162	0xbaad3d90	-0.00132172
163	0x3d1e807e	0.03869676
164	0x3cd8125e	0.026375946
165	0x3ca0298e	0.019551065
166	0x3d18f09e	0.037338845
167	0x3c19c54c	0.009385418
168	0x3d2295da	0.03969369
169	0x3cf606db	0.030032566
170	0xbcbcbc79	-0.02303909
171	0xbc8655e7	-0.016398383
172	0xb708a320	-8.144212e-06
173	0xbc978de2	-0.018500272
174	0x3b81065a	0.0039375247
175	0x39038cb9	0.00012545557
176	0xbd1c180a	-0.038108863
177	0x3d5f579b	0.054526906
178	0xbb1b446f	-0.0023691913
179	0x3a8ade86	0.0010594882
180	0x3cc81afa	0.024426926
181	0x3c132efa	0.008983368
182	0xbd1f95be	-0.038961165
183	0xbca485cf	-0.020083336
184	0xbc82d1ec	-0.01596924
185	0xbcd330cf	-0.02578011
186	0x3c2fbe35	0.010726501
187	0xbb8ac79d	-0.0042352215
188	0xbe574567	-0.21022569
189	0xbc89f39e	-0.016839799
190	0x3b126f84	0.00223443
191	0x3c6a90eb	0.014316778
192	0xbb81b78b	-0.0039586476
193	0xbc897509	-0.01677944
194	0xbc0ad31a	-0.008473182
195	0xbd082064	-0.033234015
196	0xbb91df4e	-0.004451669
197	0x3c9d86ae	0.01922926
198	0xbc2cfce6	-0.010558343
199	0xbcb4ecca	-0.022085566
200	0xbbcd740f	-0.006269939
201	0xbd133e95	-0.035948355
202	0xbcbfc9e6	-0.023411702
203	0xbd93e7f5	-0.07221977
204	0x3c991033	0.018684482
205	0x3c857e00	0.016295433
206	0xbb81e3f8	-0.0039639436
207	0xbc8dfb9d	-0.017331893
208	0xbb979ed1	-0.0046270867
209	0x3c1fb17d	0.009746906
210	0x3ceb9c43	0.028761035
211	0x3b8a087e	0.004212438
212	0x3d35d492	0.044392176
213	0x3c9fe2d6	0.019517343
214	0x3d1112d7	0.035418358
215	0xbc18f957	-0.009336791
216	0x3bf5e8d6	0.007504563
217	0xbb9ebc75	-0.004844243
218	0x3cacaf79	0.021079766
219	0x3ca103f2	0.019655202
220	0xbacd56a1	-0.0015666076
221	0xbc4aefd3	-0.01238628
222	0x3c8347a6	0.016025376
223	0x3c059c69	0.008154967
224	0xbb4be7ce	-0.0031113508
225	0x3ce88dd2	0.028387938
226	0x3c78ab7a	0.015177602
227	0x3ca8c15f	0.020600019
228	0x3c91c912	0.017796073
229	0x3bd862b7	0.0066035646
230	0x3cec6f1f	0.02886158
231	0x3a424866	0.0007411301
232	0x3c0b8825	0.008516346
233	0xbb3d1c92	-0.002885614
234	0xbbf26e05	-0.0073983693
235	0x3cee2f9a	0.029075433
236	0x3b3b2281	0.0028554501
237	0x3b9785d0	0.004624106
238	0x3cc088c0	0.023502707
239	0x3c14a0c9	0.009071537
240	0xbc7812fe	-0.015141247
241	0x3c9d9d01	0.019239904
242	0xb9f5ab2a	-0.0004685757
243	0xbc869220	-0.0164271
244	0x39eca130	0.00045133522
245	0xbbab7203	-0.005232097
246	0xbc28c65f	-0.010301202
247	0xbc0e354b	-0.008679698
248	0xbce7a940	-0.028278947
249	0x3bb3a459	0.0054822383
250	0xbce7e136	-0.028305631
251	0xbc5f675d	-0.013635484
252	0x3d0215b6	0.031758986
253	0x3c149cfe	0.009070633
254	0xbcd53b9a	-0.026029397
255	0xbcf8ed60	-0.030386627

linear.bias f4 [10]
0	0x3d2168ac	0.039406464
1	0x3cbddd33	0.023176765
2	0xbcf84af5	-0.03030918
3	0xbca70b0e	-0.020391013
4	0xbbdaea38	-0.006680753
5	0xbc2abac6	-0.010420507
6	0xbaf93a27	-0.0019014523
7	0xbbf36b96	-0.0074285967
8	0xbcd9dbb0	-0.026594013
9	0xbc3a06bc	-0.011354145
