models/void_20230513_021517.pth (torch, 476899 bytes, 10 tensors)

conv1.0.weight f4 [16, 1, 3, 3]
000000 fd f0 84 be 2b c5 67 3e 6d 8e 6f 3e 92 f5 be 3e
       -0.2596511 0.22633807 0.23394175 0.3729673
000010 d0 ce 92 3e 2e 24 54 3e 67 1f 4f 3e 07 33 d2 bc
       0.2867341 0.20716926 0.20226823 -0.025659097
000020 dc b2 20 be f7 45 87 be ac fc 87 3e 8f 64 ba bc
       -0.1569323 -0.26420566 0.2655996 -0.022753028
000030 3f 91 ba 3e 93 93 99 be bc ce 75 be 73 9c 92 be
       0.3643894 -0.29995403 -0.24004644 -0.28634986
000040 e8 25 64 be 56 a1 c8 3d 7c 89 f2 3b 21 f8 4d 3e
       -0.22280085 0.097963974 0.0074016433 0.20114185
000050 3f 16 d2 3e 45 f9 8e be 60 6b 66 bd a6 d0 52 be
       0.41032597 -0.27924553 -0.056254745 -0.20587406
000060 3b c4 81 bd da 8a c9 bd 5b 50 ad bd 16 13 28 3e
       -0.06336256 -0.09840937 -0.08462592 0.1641353
000070 3d 21 63 3e 92 54 6f be ad a7 fd be 2b 9b e6 3c
       0.22180648 -0.23372105 -0.4954199 0.028150162
000080 1e db 57 3c 3e 6d f0 3c d8 54 19 be 72 2d 7c 3e
       0.0131748 0.029348966 -0.14973772 0.24626711
000090 37 77 4c 3e 12 ed 06 be 3a 05 f9 3d 61 8e b0 bd
       0.19967352 -0.13176373 0.121592 -0.086209066
0000a0 55 4a b7 3e d8 e2 51 be bf 89 89 3e 05 c0 81 be
       0.35798898 -0.2049669 0.26862904 -0.25341812
0000b0 3e 4b 5c be 85 02 bd bb cb ed 7d be cc 1f ed bd
       -0.21513078 -0.0057681226 -0.24797742 -0.115783304
0000c0 35 a9 cf 3d c9 83 9b 3e 28 0d 3d be d3 46 2f 3e
       0.101396956 0.30373982 -0.1846205 0.17116861
0000d0 f9 e0 da bd 2c 6b 7f 3e 71 e3 49 be bb 18 17 be
       -0.106874414 0.24943227 -0.19715668 -0.14755528
0000e0 15 6c e0 3d db 14 b2 3d de a1 ca be c3 d0 40 3e
       0.10958115 0.08695384 -0.3957662 0.18829636
0000f0 5f 13 5c 3d ff bd 75 bd c2 ea 11 be 4e a0 68 bd
       0.05372941 -0.059995648 -0.14249709 -0.056793503
000100 d6 15 e3 bd d8 ce 39 be df 1a bd 3e 1d 76 ed 3e
       -0.11088149 -0.18145311 0.36934564 0.46379176
000110 52 9c 74 3e 1e 30 33 be 14 62 c5 be 06 86 84 bd
       0.23887756 -0.17498824 -0.3855139 -0.064708754
000120 87 a0 4f bd 85 64 a8 3c 6f 6a 46 3e a3 ab ae be
       -0.0506902 0.020555744 0.19376539 -0.34115323
000130 5e 7d 85 3d dc 34 80 3e 02 90 5d 3e 2f 6c 72 3e
       0.065180525 0.25040329 0.21636966 0.23674081
000140 b8 e9 3c 3e 33 a8 79 3e 98 13 e3 3d 3c ba 67 3d
       0.18448532 0.24380569 0.110877216 0.05657409
000150 62 bc ba be 83 b6 70 be 0f 20 c3 bd 31 38 74 3e
       -0.3647185 -0.23507123 -0.09527599 0.2384956
000160 f2 a6 90 3e ba 5d 35 3e 44 54 2a 3c 7f b4 00 bd
       0.2825237 0.17711535 0.010396067 -0.031422134
000170 9e c4 2e be 17 5b dc bd 89 23 a0 3e a9 89 98 be
       -0.17067191 -0.107595615 0.3127711 -0.29792526
000180 69 93 6f 3e 13 9a fd bd b9 f6 b7 3e bf 81 2f be
       0.23396076 -0.12382903 0.35930422 -0.17139338
000190 78 c4 bd 3e f4 76 6c 3e 83 70 07 3e 60 5f 97 be
       0.37063956 0.23092252 0.13226514 -0.29564953
0001a0 22 fe 8c 3d e1 78 87 3d 8b 5c ea bd eb 63 b0 be
       0.068844095 0.06614853 -0.114434324 -0.3445123
0001b0 a9 11 99 be 02 d3 dc 3d 59 c9 78 3d 6f 37 ac 3e
       -0.29896286 0.10782434 0.060738895 0.33636042
0001c0 79 b7 8e 3e 14 ba bb 3c f1 c2 60 be 01 d7 1a 3e
       0.27874354 0.022915877 -0.21949364 0.1512108
0001d0 ac 53 b4 bd 3f 58 94 3d 81 29 ad bd 33 cf 3c be
       -0.08805022 0.07243394 -0.08455182 -0.18438415
0001e0 2b f1 ae be 6a 85 d9 ba da a5 76 bc d8 b2 8b 3e
       -0.34168372 -0.0016595547 -0.0150541905 0.27284884
0001f0 3e 45 de 3d 8a b9 cd 3c 6f fb c5 3d a7 09 87 3e
       0.10853051 0.025112886 0.09667098 0.26374552
000200 73 98 19 3e 33 81 c0 3e 75 10 93 3e 6c 17 42 3e
       0.14999561 0.3759857 0.28723493 0.18954247
000210 c7 a2 86 be 33 7d 2e be 50 36 da bd 0a a4 49 3e
       -0.26296064 -0.17039947 -0.106548905 0.19691482
000220 ee 43 2e be 64 5a 83 be 9d 2f 9e be 7c de 18 be
       -0.170181 -0.256549 -0.308957 -0.14928621
000230 97 ce 9f 3e e0 bc 26 be 45 26 c4 bd 7e f9 12 be
       0.31212303 -0.16282988 -0.09577612 -0.14352986

conv1.0.bias f4 [16]
000000 a0 2d 2e be dc c2 92 3d cb af ad 3d c7 9a 06 3d
       -0.17009592 0.07166073 0.084807955 0.03286245
000010 ef ac e4 bc 0c 4d 9e 3d cb 96 6a bc 7e af 97 3d
       -0.027914492 0.07729539 -0.014318178 0.07406519
000020 9b 11 ee be 66 e3 98 3d 70 c4 6b bd ef 1b 34 3d
       -0.46497807 0.07465248 -0.057560384 0.043971952
000030 58 3f 97 bc 66 49 3a 3e 95 3a 38 3e c1 1c e4 3d
       -0.018462822 0.18192062 0.17991097 0.11138297

conv2.0.weight f4 [32, 16, 3, 3]
000000 c0 94 11 3d b2 00 07 bd 2b 9e b3 bd 87 06 a9 bd
       0.03554225 -0.032959647 -0.087704025 -0.08253198
000010 62 7d 38 bd 97 fe 41 be bb 83 8f bd c7 e5 e0 3c
       -0.04504145 -0.18944775 -0.070075475 0.027453316
000020 67 86 65 bd 46 e4 a0 3d 34 80 17 3d bf f2 57 bd
       -0.05603638 0.0785604 0.0369875 -0.052721735
000030 f7 ff 1f be a4 38 be bb d9 fa 3b bd ec bf e2 bd
       -0.15624987 -0.005805092 -0.045893524 -0.110717624
000040 13 d8 5f bd 75 fe c8 3d 11 c6 a5 bd f9 ee 93 bc
       -0.054649424 0.09814159 -0.08094419 -0.018058287
000050 a6 b8 b0 bc 7b 17 8c bd 9d 4c 5b 3d 1d 9d 6e 3d
       -0.021572422 -0.06840416 0.05353986 0.058255304
000060 41 d7 b7 bd 46 ff 4b 3d 44 9c 16 3d c8 0b a6 bd
       -0.08976603 0.049803995 0.03677012 -0.08107716
000070 7f 9c 92 bd 11 cd be bd 25 ce 8a bd 75 0d 70 3c
       -0.071587555 -0.09316457 -0.067776 0.014651646
000080 19 53 b7 bd 09 73 9e bd 12 f3 d3 bc 98 13 91 bd
       -0.089513965 -0.07736785 -0.02587274 -0.07083815
000090 a9 c1 2f bc c9 a2 db bd 40 82 cc 3d be d7 01 3c
       -0.0107273245 -0.10724408 0.09985781 0.007924972
0000a0 91 26 a3 bd 14 57 7b bd 04 8d e1 bd c0 9e 27 bd
       -0.0796634 -0.06136234 -0.11013225 -0.04092288
0000b0 cb 83 ba bd 39 65 86 3d bc 11 d2 bd 61 7f 87 3c
       -0.09107169 0.065622754 -0.10257289 0.016540231
0000c0 46 66 5b 3b 44 2c 18 bb 93 c2 54 3d 80 53 c0 bd
       0.0033477708 -0.0023219744 0.051943373 -0.09390926
0000d0 ab e7 d6 3a da 67 80 3c 12 fe 15 3e b5 ca 11 3e
       0.0016395947 0.01567452 0.14647701 0.14237483
0000e0 43 aa 16 3e 63 9e da bd c6 64 33 3d c3 3c 16 3d
       0.14713387 -0.10674741 0.043797277 0.03667904
0000f0 c1 fa 05 3d 3b 35 69 3d 81 dd 0e 3d 29 34 dc 3b
       0.03270984 0.05693553 0.03487921 0.006720085
000100 d0 bd 29 bd ac d7 6e bc 4a e6 99 bd fb d2 d7 bd
       -0.041440785 -0.014577787 -0.07514627 -0.10538288
000110 08 b9 31 bd 4d 44 91 bc ec 36 2d bc 6c 8d 3d bd
       -0.04338935 -0.017732764 -0.010572176 -0.04627745
000120 cc c0 ba bd fa fd d8 bd c5 38 9f bd 72 58 e3 3c
       -0.09118804 -0.10595317 -0.077745 0.027752135
000130 25 2a ee bd 52 2c fa bd 8f ed ce bd 8e a7 6c 3c
       -0.11629132 -0.12215485 -0.101039045 0.014444245
000140 f6 e0 03 be 57 fa 46 3d 69 af b5 bd 18 ea 86 bd
       -0.12878785 0.048578586 -0.088713475 -0.065876186
000150 eb 03 89 bd b5 28 9c bd f0 e6 4d bd 96 e7 c7 bb
       -0.066902004 -0.07624952 -0.050269067 -0.0061006052
000160 17 29 82 bd c5 f4 d7 bd 38 1a 55 bd 33 9c a0 bc
       -0.063554935 -0.10544733 -0.052026957 -0.019605732
000170 5e e8 a5 bd bf 98 a9 ba 02 07 90 3c 65 63 85 bc
       -0.08100961 -0.0012939199 0.017581467 -0.016282747
000180 e5 0e 00 3d 65 37 11 bd aa 6d e9 3c f5 d7 47 3d
       0.031264205 -0.03545322 0.028494675 0.048789937
000190 89 ef 87 3d 63 3c a1 3c 7c a8 0f 3c 8e 2f 98 bd
       0.066374846 0.019682115 0.008768197 -0.07430945
0001a0 69 7e 89 bd 85 60 18 bc 48 76 df 3b 02 5e 21 bd
       -0.06713564 -0.009300356 0.00681952 -0.039396293
0001b0 fc 3a 9a bc ec a4 99 bb 13 c1 06 3d 73 41 90 bd
       -0.018826954 -0.0046888497 0.032898974 -0.070437334
0001c0 43 06 68 bd 58 88 0c bd 4a 70 3b bd 80 17 9b bd
       -0.056646597 -0.034309715 -0.045761384 -0.07572842
0001d0 a4 b1 a2 bd a6 90 fd 3b 6a 51 db ba 0f 02 1a 3e
       -0.079440385 0.0077381907 -0.0016732637 0.15039848
0001e0 ea ee 71 b9 df 0a 74 3d 70 37 39 bd eb 43 9d bd
       -0.00023072553 0.05958068 -0.045218885 -0.0767897
0001f0 87 0c fc 3c e6 18 b4 3d 00 68 85 bd 91 9e d8 bd
       0.030767692 0.087938115 -0.06513977 -0.10577119
000200 e5 ba 75 bd ad 1b 67 bc d5 bf e8 bb f7 cc e3 3c
       -0.05999269 -0.0141057195 -0.0071029463 0.027807696
000210 10 f2 51 bd 7e 0a 20 bd 9c bc 9f bd 4b 85 31 3c
       -0.05125624 -0.039072506 -0.07799646 0.010835002
000220 26 a4 51 bd d5 b3 e6 3d 27 e1 e0 bc e0 7b 79 bd
       -0.051181935 0.11264769 -0.027451111 -0.060909152
000230 99 40 8d bd 7b 75 c6 bd 08 8c 44 bc bf a9 99 bb
       -0.06897087 -0.09690376 -0.011996277 -0.0046894248
000240 72 c8 df bd bd 2b 48 bd 40 1b 3a bc a4 07 ee bd
       -0.10926904 -0.048869837 -0.011359036 -0.11622551
000250 06 53 8f bd c0 b1 6d 3d 58 43 85 bd 85 b9 b8 3d
       -0.06998257 0.058030844 -0.065069854 0.0901976
000260 e9 85 64 3d 0b 49 bc 3d 5a 9a 3c 3d a1 ad ca 3c
       0.05579177 0.09193619 0.04604564 0.024740996
000270 f8 3c 52 3d 92 e4 76 3d a4 a0 2b 3e 5e 06 88 bd
       0.051327676 0.060276575 0.16760498 -0.066418394
000280 55 d1 28 be 4c 0c 3a bd 60 2e 80 bb 34 c9 5b 3d
       -0.16486104 -0.045421883 -0.0039117783 0.05365868
000290 2c 6b b0 bd 72 4e dc 3d b8 f4 12 3d 05 7d 1c 3c
       -0.086141914 0.1075715 0.035877913 0.009551291
0002a0 7e a8 9f bd cf 9b c7 bc a5 f1 f8 bd fa c4 22 3d
       -0.07795809 -0.024366288 -0.12155465 0.039738633
0002b0 5f 81 8b bc f0 b3 1a 3d ae cb 5d bc 12 45 81 bd
       -0.017029462 0.037769258 -0.013537331 -0.06312002
0002c0 68 05 9c 3c b4 a1 a7 3d 99 f3 0e 3d 93 d1 00 bc
       0.019045547 0.08185139 0.03490028 -0.007862466
0002d0 f9 3d 7b bc df 65 20 3e a3 61 6b 3d d0 ac 2a bc
       -0.0153346 0.1566386 0.05746616 -0.010417178
0002e0 6d c9 f2 3c 9e a8 9c bc 33 af 11 be 72 e2 74 3d
       0.029637063 -0.019123372 -0.1422699 0.059786268
0002f0 7b 84 a0 3d 0c 27 b3 bd 3e a3 c8 3d 8f ff 47 bd
       0.07837769 -0.08747682 0.09796761 -0.048827704
000300 41 7a d3 3b 8f bc 18 3c 0f 0f dd bc 45 de ae 3d
       0.006453783 0.0093223 -0.02698472 0.08538488
000310 db 6d 81 bc a8 35 3e bc 34 00 bd 3d 67 59 39 3d
       -0.015799453 -0.011609472 0.09228554 0.045251276
000320 2b b9 b1 3d 95 d6 ca 3d 35 14 b2 3d 47 51 8f 3b
       0.08677896 0.099042095 0.086952604 0.0043737027
000330 76 4a c2 3d 77 07 4d bd 2a 3b c2 bd 46 6d f9 bd
       0.094868585 -0.050055947 -0.09483941 -0.121790454
000340 39 12 9d 3c f4 f7 bb 3d 68 8c e1 bd 3e 62 73 bd
       0.019173728 0.09178153 -0.110131085 -0.059419863
000350 a1 85 09 3d 96 de 77 bc f9 dd 01 bd 36 f2 34 bd
       0.033574704 -0.015128752 -0.03170583 -0.044176303
000360 13 df d6 bc b2 c7 27 ba ef d0 36 bd 17 f4 ef bd
       -0.026229417 -0.00064003014 -0.04463285 -0.11716478
000370 53 b5 f3 b9 b5 78 54 3b 55 20 9c 3d 89 c3 89 bd
       -0.0004648367 0.003242058 0.07623354 -0.067267485
000380 77 fa 6d 3c 39 7e bb bd 2c 00 01 3c 35 65 9d 3d
       0.0145250475 -0.091549344 0.007873576 0.07685319
000390 5e a0 0a be 31 6f 9f bd 4e 92 1a 3d c9 7f ed bc
       -0.13537738 -0.0778488 0.037737183 -0.028991597
0003a0 0f 12 e3 3c d7 e8 17 bd 9a c5 c1 3c e3 7a c3 3d
       0.027718572 -0.037087288 0.023653794 0.09544923
0003b0 66 5d 7b bd 91 98 cb bc 39 5e 67 bc 04 83 09 3c
       -0.06136837 -0.024853023 -0.0141215855 0.008393053
0003c0 9e 29 46 bc 6a 25 b0 bd 48 4b 67 bd bd c7 33 3d
       -0.012094883 -0.08600886 -0.05646828 0.043891657
0003d0 d0 19 90 3d 56 92 95 bd 0f 3f 04 bd 20 85 fb 3d
       0.07036173 -0.07303302 -0.0322867 0.12281251
0003e0 3c 5e 52 bd 2a a5 4c bd 02 2e c6 bd 62 51 b3 bd
       -0.0513594 -0.0499622 -0.09676744 -0.08755757
0003f0 5a 8a 67 bd b7 a9 df bb a9 b1 89 3d 96 04 b9 bd
       -0.056528427 -0.0068256515 0.06723339 -0.09034078

conv2.0.bias f4 [32]
000000 b2 e4 08 bd 6e 4a ae bc c2 15 95 bd 59 92 52 3d
       -0.033421226 -0.021275725 -0.072795406 0.0514091
000010 ac 6c 82 3c 6b 7f f5 3d 18 3b 1f 3e 55 d6 09 3e
       0.01592096 0.11987194 0.15549886 0.13460667
000020 80 5c ba bc ac 27 08 3e 0a 21 3a bd fb d9 23 3e
       -0.022749186 0.13296384 -0.045441665 0.16001122
000030 28 6c 0b 3e ef be bb bd 13 f6 00 be f7 0e 26 be
       0.13615477 -0.09167277 -0.1259387 -0.16216646
000040 54 6f 0c 3e c7 41 75 3d 4b 9d 64 3d ff ae 71 3d
       0.13714343 0.059877183 0.05581407 0.05900478
000050 06 85 37 3d 66 9e d3 3d 47 82 06 3c 51 b6 c1 3d
       0.044804595 0.103329465 0.0082097715 0.09458602
000060 28 3f fd 3d 5b 38 84 3e 7b 36 61 3e 0b 9b bc 3c
       0.12365562 0.25824246 0.21993439 0.023023149
000070 cb 92 ad bd 0f db 7c 3c d3 09 cb bc e0 57 cb 3d
       -0.08475264 0.015433087 -0.024784958 0.0992887

conv3.0.weight f4 [64, 32, 3, 3]
000000 5a d0 ba ba 09 77 70 3d 52 e2 95 bd fe 21 2e 3a
       -0.0014252767 0.05870727 -0.07318558 0.00066426385
000010 6b 02 d4 bb c7 84 3d 3b 26 3c 0d 3d ff c4 67 3d
       -0.006470015 0.0028918253 0.03448119 0.056584354
000020 0b 1d 9a bd a2 67 10 bb 76 e5 91 bb 41 49 7c bd
       -0.07525071 -0.0022034426 -0.0044524027 -0.061593298
000030 4b ed 9d bb 0c 32 8f bd 49 60 ca bb d0 2c e8 bc
       -0.0048195473 -0.069919676 -0.006176029 -0.02834168
000040 10 c3 18 bd 6b 48 8c bd 25 9a 3e 3d 68 a2 67 3d
       -0.0372954 -0.0684975 0.046533722 0.056551367
000050 e8 e7 fd bb e4 9e 04 3d ce bb 21 bd 89 04 c6 3c
       -0.0077485926 0.032378092 -0.039485745 0.024172084
000060 7c 93 aa 3d a0 b6 09 3e d5 27 80 3d f5 2f a1 bd
       0.08328912 0.13448572 0.06257597 -0.07870475
000070 44 85 d9 3c c2 34 1d 3d a7 1d 88 bd 5a 9e 77 3c
       0.026552804 0.038380392 -0.06646281 0.015113438
000080 b8 13 80 3c 17 cb d7 bb 27 55 22 3c 2d be a0 bd
       0.015634403 -0.0065854895 0.009907997 -0.07848773
000090 84 85 fa bc 50 19 4a bd 26 7c ad bd d5 89 c6 3c
       -0.030581243 -0.049340546 -0.08470945 0.024235645
0000a0 9e c9 82 bd 82 65 11 bd c2 92 45 3c 75 a6 a2 bc
       -0.06386112 -0.035497196 0.012058916 -0.019854764
0000b0 b9 19 52 3d f9 04 27 3d e4 42 85 bd e2 1f 16 bd
       0.051294062 0.040776227 -0.06506899 -0.0366515
0000c0 af 50 a4 3d f5 fb b1 3d b1 66 1b 3d 48 14 3d bd
       0.08023202 0.08690635 0.03793973 -0.04616192
0000d0 ee 99 29 bd ce d4 a2 bd 00 0c 3f 3e 7b 02 85 bd
       -0.041406564 -0.079507455 0.18656921 -0.06494614
0000e0 08 e6 dc bc 89 00 af 3d 17 9f 14 bd 03 6e bc 3c
       -0.026965156 0.08545024 -0.036284532 0.023001676
0000f0 b2 ff be 3d 3f bf 00 be f9 c8 7b bc 6e a1 3a 3d
       0.09326114 -0.12572955 -0.01536774 0.045564108
000100 d3 5d 78 bc 44 d0 ce 3c 42 85 84 3d bf 2b df bc
       -0.015159088 0.025245793 0.064707294 -0.02724254
000110 08 d5 0e bd b9 d3 2a bc 61 e8 97 3b 83 4d 97 3c
       -0.03487113 -0.010426455 0.004635856 0.018469578
000120 e3 e9 95 3d 44 db 8f 3d 0c e9 7b bd 75 b0 83 3c
       0.07320001 0.070242435 -0.061501548 0.016075352
000130 b5 72 82 3d b5 df 89 bc a5 90 01 bb 99 ed 3b 3d
       0.06369535 -0.016830305 -0.0019770053 0.045880888
000140 f9 6c 65 bc 9c 9c 93 3d cc b1 20 bd c4 46 33 3d
       -0.014003032 0.07207605 -0.03923206 0.04376866
000150 61 8e a6 bd d3 5f 7e 3d ca 92 47 bc 52 be 85 bd
       -0.08132625 0.062103104 -0.012180993 -0.06530441
000160 ca e1 cd bd 79 14 98 bd 80 e4 11 bd 67 51 0e bd
       -0.100528315 -0.0742578 -0.035618305 -0.0347456
000170 46 a2 08 3c 24 29 17 bd ff 42 92 bc 9c 81 af bb
       0.00833947 -0.03690447 -0.017854212 -0.005356027
000180 f0 88 35 bc 11 79 5a bd 73 7e 14 bd f9 9f e3 3b
       -0.011080012 -0.053338114 -0.036253404 0.0069465605
000190 73 c3 ef 3c ee f9 8b bc ac 70 23 bd 76 d3 c6 3c
       0.029268002 -0.01708695 -0.039902374 0.024270754
0001a0 90 9e 45 3b 08 e6 9a bd e4 0e 01 bb 4b 63 9a bd
       0.0030154325 -0.07563406 -0.0019692713 -0.0753847
0001b0 c8 45 88 bd ae 8e 65 bd 17 68 a6 bb e9 32 cf 3c
       -0.06653935 -0.056044273 -0.0050783264 0.02529283
0001c0 4a e4 cf bd 63 95 af bd 65 6d 90 bc 66 6f 40 bd
       -0.101509646 -0.08573415 -0.017630288 -0.046981238
0001d0 69 de f7 bc d3 7c 4b 3d a2 73 6c 3d f2 6b 85 bc
       -0.03025742 0.04967959 0.057727464 -0.016286824
0001e0 7f 45 8a 3d 2d 4b d6 3c 4f 49 aa bc 8b 21 a6 3d
       0.067515366 0.026158893 -0.02078691 0.081118666
0001f0 63 12 6a bc e6 0c 98 3b 5e 4d 4d 3c c6 ce 7c ba
       -0.01428661 0.0046402095 0.012530653 -0.0009643849
000200 c7 9f 41 3d 9d d2 8f 3c 32 79 c6 3c 8e 30 24 bc
       0.047271516 0.017556483 0.024227712 -0.010021342
000210 a7 c0 4b 3d af 8a 02 3d f7 8b 63 3d e3 52 e7 ba
       0.049744274 0.03187054 0.055553403 -0.0017648604
000220 34 69 34 3b 6c 4a 17 3d 12 23 25 bd 85 80 f4 3b
       0.0027528526 0.03693621 -0.04031665 0.00746161
000230 64 0d 7d 3b 00 2d e6 3c e6 a6 2d 3d 51 d4 a0 bc
       0.0038612718 0.02809763 0.042395495 -0.01963249
000240 5e ec 1b bd 30 64 5f 3b a8 8d 06 bd 1c 0b 2d bd
       -0.038067214 0.0034086816 -0.032849938 -0.042246923
000250 99 5c 32 3d 30 90 94 bc 31 29 bd bc eb 43 be 3c
       0.04354534 -0.01813516 -0.02309093 0.023225745
000260 82 63 a8 bd 7c d2 90 3d b7 01 ca bb 83 f0 72 bd
       -0.082221046 0.07071397 -0.006164755 -0.0593114
000270 04 d0 28 3d 4c 31 5f bc d8 6d 55 3c 07 ea ef bb
       0.041214004 -0.013622593 0.013026677 -0.0073215994
000280 86 ee d8 bd 51 5c 32 bd a0 2d c6 bd 64 1b fe bd
       -0.1059237 -0.04354507 -0.09676671 -0.12407568
000290 8c 1a 96 bc 6a aa 1b be b4 30 ba bd 5d 8a 1d 3b
       -0.018323205 -0.15201727 -0.09091321 0.002403877
0002a0 0d 0a dc bc 22 8b ea 3c 41 d6 e1 bc 5a 59 45 3b
       -0.026860261 0.028630797 -0.027567985 0.0030113072
0002b0 a0 25 28 3d 48 c6 80 bd cc 27 e7 bc 67 c8 fc 3c
       0.041051507 -0.06287819 -0.028217219 0.030857278
0002c0 40 09 83 bc a7 cb 1b bd 22 c1 c4 bd 78 c5 5f 3b
       -0.015995622 -0.038036015 -0.0960715 0.00341448
0002d0 60 e0 92 bd 95 1e d7 3c a7 03 98 bc e8 f5 6d bd
       -0.071717024 0.0262597 -0.01855643 -0.058095843
0002e0 31 d0 9e 3d 95 7f c3 3d 6a b4 62 bc 97 6a e2 bc
       0.07754553 0.09545819 -0.013836959 -0.027638717
0002f0 9f f1 b6 bc d7 7f a4 bc 69 cc ee 3a 89 d5 f5 3c
       -0.02233201 -0.02008049 0.0018218878 0.030009048
000300 a1 dd b8 bd 12 96 60 bd 4a 35 31 bd e1 53 de bc
       -0.09026647 -0.05483062 -0.04326371 -0.027139606
000310 9e ec 08 bd 41 8f aa bd b7 1e a8 3a 74 79 4e bd
       -0.03342878 -0.08328105 0.0012826537 -0.050408795
000320 79 8a e5 3b 80 2d c1 3c 36 be 02 bd b7 ef c0 3c
       0.0070050326 0.023581266 -0.03191968 0.023551805
000330 7b 19 ce bc bf 7a 43 bd ab e8 14 3c 4f d5 01 bd
       -0.025158634 -0.04772448 0.0090886755 -0.031697568
000340 57 61 e8 bc 9b 97 54 bd 90 bc 49 3d 3b 06 9b 3d
       -0.028366728 -0.051902395 0.049252093 0.07569548
000350 a3 2b 86 3c 10 98 a5 bd 4a b1 8f bd c3 0f c4 bc
       0.01637823 -0.08085644 -0.07016237 -0.023933297
000360 7f 50 47 bd df 32 8a 3d 36 0f 86 3c 20 5d b1 bd
       -0.04866075 0.06747984 0.016364675 -0.0866034
000370 e2 6b 2b bc 8b f8 27 bd ec e3 26 3d b1 cf d0 bc
       -0.010462733 -0.041008513 0.040744707 -0.02548966
000380 ae fa 46 bd c1 17 e1 bc 25 4b f0 bd 0f 63 5f bd
       -0.04857891 -0.027477147 -0.11733083 -0.05453783
000390 e5 5c 30 bd ff 1d 10 3e cb 79 6b 3d d4 5a 04 be
       -0.04305734 0.14073943 0.057489198 -0.12925273
0003a0 b6 72 d5 bc 38 6d 6c bd 8a 35 36 bd a7 24 c1 3d
       -0.026055675 -0.057721347 -0.044484653 0.09430819
0003b0 63 2d 37 bc 75 9c 96 bd 7c 55 a5 bc ad 1f 9d bc
       -0.011180255 -0.073540606 -0.020182364 -0.019180143
0003c0 bb 8e 74 3c 3d 42 99 bc 3a 01 f4 bc 74 af dc bb
       0.014926608 -0.018708343 -0.029785741 -0.006734783
0003d0 63 f0 b5 3d 1f a7 86 bc c5 97 9f bd cc c9 6a bd
       0.08883741 -0.016437111 -0.077926196 -0.057321355
0003e0 4b 0d 87 bd 84 ab 36 3c 0f 7f 71 3c d7 ca 07 bd
       -0.06594332 0.011149291 0.014739766 -0.033152428
0003f0 a4 ec c2 3b e4 ed ec ba a3 61 28 3d 83 31 3b bd
       0.00594862 -0.0018076268 0.04110874 -0.045701515

conv3.0.bias f4 [64]
000000 0a 7f 18 3d 09 c3 3c 3c 0e af 46 3d c8 95 84 bb
       0.03723053 0.011521109 0.04850679 -0.0040461756
000010 55 17 92 3c 86 05 88 bd 9f 13 42 3d 36 69 54 bd
       0.017833391 -0.066416785 0.047381993 -0.05185815
000020 df 90 b4 bb 3b bb 27 3d f3 da d6 3c fc 90 8b 3c
       -0.005510434 0.04095004 0.02622745 0.017036907
000030 4f b5 3f bc fe d0 01 3d d9 a4 07 3e 07 9b d9 3c
       -0.011700942 0.03169345 0.13246478 0.02656318
000040 69 9f d7 3a bc 0c 32 3a 1e a4 a0 3d 65 1e 67 3c
       0.0016450706 0.00067920587 0.07843803 0.014106368
000050 ba a5 d9 bb 07 f1 2a 3d 30 99 8a 3d 64 ee 91 3d
       -0.0066420706 0.041733768 0.067674994 0.071255475
000060 8d 64 ef 3c 73 d9 a7 bd 40 e6 d5 3b b8 de bb bb
       0.029222751 -0.08195772 0.006527692 -0.0057333373
000070 1c 88 04 3d e5 49 3a be 19 a5 97 bd f2 85 99 3c
       0.032356367 -0.18192251 -0.07404537 0.018740628
000080 51 4b 98 3d eb 4d cf bd 08 1e 4e 3d 8d a7 b9 3c
       0.074362405 -0.101222835 0.05032161 0.022662902
000090 b3 67 18 be 20 9c 4e be f2 78 33 3d 7b 80 a7 3c
       -0.14883308 -0.20176744 0.043816514 0.020447006
0000a0 ef e7 ec 3c b8 af 1c bd 46 a5 72 3d 52 4f 8c 3c
       0.028919188 -0.038253516 0.05923965 0.017127667
0000b0 06 5e b7 3d b1 a0 1c 3d c7 f8 1b bc 41 c7 f7 3b
       0.089534804 0.038239185 -0.009519762 0.0075615947
0000c0 79 40 2d be a2 fe 15 3d ea 2a 29 bd 32 a2 ad bd
       -0.16919126 0.03661979 -0.04130069 -0.08478202
0000d0 94 57 77 3d c2 c7 0a 3e 8f f0 c1 3c 0d bc 83 bd
       0.060386255 0.13552764 0.023674278 -0.06432352
0000e0 23 86 b0 3d 72 3e 88 3d c2 e2 e4 bd ae c7 1c be
       0.086193345 0.066525355 -0.11176063 -0.15310547
0000f0 4f ce 38 bc 07 54 d6 3c ae 9c 81 3d a0 27 0f 3d
       -0.011279657 0.026163114 0.063287124 0.0349499

conv4.0.weight f4 [128, 64, 3, 3]
000000 55 a4 da bc 15 45 1d bd af fe 26 bc a4 b4 aa bc
       -0.026689688 -0.03839596 -0.010192557 -0.02083809
000010 c8 7a c1 bc e7 f3 32 39 6b 44 a6 bb 7f c8 1e 3c
       -0.023618117 0.00017066264 -0.005074074 0.009691357
000020 3b aa 82 bd 1c 9b 32 bd fb 7f 32 bd c7 41 15 3c
       -0.06380125 -0.043604955 -0.043579083 0.009109921
000030 bd ef 11 3d 75 f1 19 bd 60 b8 27 bd ae 75 0e bd
       0.035629023 -0.037583787 -0.040947318 -0.034780197
000040 3a 77 6e bd ba 32 05 bd 52 53 87 bc 76 7a f4 bd
       -0.058219172 -0.03251908 -0.016519222 -0.1193742
000050 51 40 a4 bd 4b 69 15 3d 1b a9 85 3d aa f6 f0 3c
       -0.0802008 0.03647737 0.06526395 0.029414494
000060 f0 98 8c 3c 28 49 4c bc 44 a3 d8 3c a4 34 f0 bc
       0.01716277 -0.012468614 0.026445039 -0.029321976
000070 65 b6 05 bd 5e b5 3b bd 9e 59 4e 3c d1 e0 97 3c
       -0.032644648 -0.045827262 0.012594609 0.018539818
000080 88 d4 1a bd 6b 2b 9c bc b6 22 2a bd 18 4c 38 bd
       -0.03780034 -0.019063672 -0.04153701 -0.044994444
000090 26 bb f6 3b e5 1e 03 bb 72 bb 05 3c e9 0b 02 bd
       0.007529634 -0.0020007428 0.008162366 -0.03174964
0000a0 3d 98 e1 3b ed 9b 55 bd 41 ec 32 3d c4 d1 8b bd
       0.0068846033 -0.052150656 0.04368234 -0.06827119
0000b0 3f 6f 82 bd e5 37 08 ba 90 a2 82 bc ad c1 fd bc
       -0.06368875 -0.0005196317 -0.015946656 -0.03097614
0000c0 af 4c 0f 3d 66 47 cc bc 65 a6 9b 3c 27 da 5c bd
       0.03498524 -0.02493639 0.019000242 -0.053918984
0000d0 38 79 8a ba d7 63 10 bd 84 c8 57 3b 8a b3 d1 bc
       -0.001056469 -0.035251465 0.0032925913 -0.025598306
0000e0 1c 38 51 3c 7d cb b5 3c e7 46 06 3c c8 21 85 bd
       0.012769725 0.022191757 0.008195615 -0.06500584
0000f0 fb 79 82 bd ea 5e a8 bc b0 18 85 3d b5 05 ad bc
       -0.06370922 -0.020553071 0.064988494 -0.021120885
000100 c9 98 24 bc ae 16 af bc c4 be f5 bc d6 02 17 3d
       -0.010046192 -0.02137312 -0.02999819 0.03686794
000110 f5 3c d0 3c 2e 96 8d 3c a8 b7 63 3c 72 a6 94 bd
       0.025419692 0.017283525 0.0138987675 -0.072583094
000120 a7 04 e6 3a f7 fb 88 bc e7 41 22 bd d3 94 cf 3c
       0.0017548994 -0.016721709 -0.03961363 0.02533952
000130 00 2b 45 3b ac f3 05 bd 87 aa 80 3b 62 55 3b bd
       0.0030085444 -0.032703087 0.0039265784 -0.045735724
000140 12 29 b1 3b e3 3e d3 bc c1 fb 07 bd 22 40 ae 3c
       0.0054065073 -0.025786823 -0.033199076 0.021270815
000150 e3 5c 67 3c 31 b0 22 3b 89 1b 22 bc f6 fb 3c bd
       0.014121267 0.0024824257 -0.00989426 -0.046138726
000160 f8 bf f6 bc d9 70 22 bd 7e 71 20 bd 42 83 2c 3b
       -0.030120835 -0.0396584 -0.039170735 0.0026323353
000170 8b 14 2d bd 4f b1 ec bc 04 b8 84 bc e0 36 cf 3c
       -0.04225592 -0.028893141 -0.016201027 0.025294721
000180 cf 78 38 bd e1 bd dc ba 3f fb 9c bd de d7 aa bc
       -0.045037087 -0.0016841256 -0.07665109 -0.020854887
000190 bd 47 dc 3c 65 46 2b bd a8 13 25 3d 82 84 1b bd
       0.026889676 -0.04181518 0.04030195 -0.037968166
0001a0 12 27 8d 3b 21 8d d4 3c 88 b1 3f bb ee f9 86 bd
       0.004307636 0.025946202 -0.0029250104 -0.06590639
0001b0 7b 97 0d 3b 52 a2 8c ba a6 c9 52 bd bf 32 50 bc
       0.0021605182 -0.0010729528 -0.05146184 -0.012707411
0001c0 b4 99 1d bc ef f4 1d bd b1 54 23 bd 6b 03 1d bc
       -0.009619165 -0.038563665 -0.03987569 -0.009583334
0001d0 b2 28 11 be 75 db 8c bc e6 17 a9 bc fe 8e e1 3b
       -0.1417568 -0.017194489 -0.020641278 0.006883501
0001e0 6a 58 d5 3c 93 15 a1 3b 4c b2 bd 3c 24 ce 4f 3d
       0.026043136 0.004915902 0.023156308 0.0507337
0001f0 63 db 1f 3d 0d b5 d5 bb df ef 64 bd 51 ca 27 3b
       0.039027583 -0.006521827 -0.05589282 0.0025602768
000200 d2 a3 f4 bc 0b 73 db bc fb 52 20 bd 7e 29 ea bc
       -0.029863272 -0.026788255 -0.039141636 -0.028584238
000210 a1 d9 59 bc 00 eb 84 3d 52 ac 26 3d b4 76 49 bd
       -0.013296516 0.06490135 0.04069168 -0.04918547
000220 26 b3 97 3a 8d a3 2a 3d 47 f1 36 bb c6 b5 0b 3d
       0.0011573776 0.04165988 -0.0027914809 0.0341089
000230 07 a1 c7 3c 8f 8e 45 3d c2 4a 0b 3d ca 00 d0 3c
       0.024368776 0.048231658 0.03400684 0.025391001
000240 25 1d c3 bc eb 6b b7 3c 3c 44 a6 bd de 0b d8 3c
       -0.023817608 0.022390326 -0.081184834 0.026372846
000250 6b e7 0c bc 33 87 da bb cd 5b 38 bc 2a dc da bc
       -0.008600096 -0.006668949 -0.011252356 -0.02671631
000260 f9 20 87 3c 28 a1 53 3c 4a a7 a6 bc 45 3c be 3c
       0.016495215 0.012916841 -0.020343442 0.023222098
000270 2f 67 85 bd 9e 2d 2c 3c fb 02 d2 bc 38 83 01 bd
       -0.06513821 0.010508923 -0.025636187 -0.03161928
000280 53 2d 08 bd 6b be 42 bd 3d ea c6 3c 92 d5 16 bd
       -0.03324635 -0.047544878 0.024281615 -0.03682477
000290 fb 70 c8 bc 3f 05 69 bb e9 a0 e6 bc 4e cb af 3c
       -0.024467936 -0.0035556105 -0.0281529 0.021459248
0002a0 8a e5 02 3c ee db b7 bc 1b 60 e5 bc 98 1d 63 3b
       0.007989297 -0.022443738 -0.027999928 0.003465509
0002b0 94 c0 af 3b e3 ae 80 bc db bd 69 bc 50 bb dc 3b
       0.0053635333 -0.015708392 -0.0142664565 0.0067361966
0002c0 aa 3f 46 bc 54 e0 25 bd fb 16 9e bb 88 65 65 bd
       -0.01210014 -0.04049714 -0.004824517 -0.05600503
0002d0 49 f3 47 3d c2 65 30 3d f1 d7 97 bc f8 67 8b 3c
       0.048816 0.043065794 -0.018535586 0.01701735
0002e0 ef 82 eb 3c 57 5c 88 bc b2 84 da bc 93 e6 e3 3c
       0.028748957 -0.016645594 -0.026674602 0.027819907
0002f0 ed 1d cb bb 3a b1 d5 bc 3e b8 16 bd ec c8 28 bd
       -0.006198636 -0.026085485 -0.0367968 -0.04120724
000300 92 d4 7a 3c 31 45 9a bc 3a 9c ab 3c 7f 28 8d bd
       0.01530947 -0.018831821 0.020948518 -0.0689249
000310 2e a8 18 bd ad 29 cc ba 67 79 3c bd 1a 4d b8 3c
       -0.037269764 -0.0015576385 -0.046014216 0.022497702
000320 e1 10 2f 3c 72 20 1b bc cc 20 10 bb 59 22 81 bc
       0.010685177 -0.009468185 -0.0021992205 -0.015763449
000330 5d 53 93 3c 68 96 6b bd fa fb dc bb 11 2a 84 3c
       0.017984087 -0.057516485 -0.006743905 0.01613334
000340 53 6f 02 bd 91 04 bf bc 88 00 8f 3a 47 54 0e 3d
       -0.03184445 -0.023317607 0.0010910193 0.034748342
000350 26 f4 5b bd 8e 9b 58 bd 52 81 88 bd 1e 49 fb bc
       -0.053699635 -0.052882724 -0.06665291 -0.030674513
000360 ed ec 35 bd 41 53 1e bd 9c 79 d0 bc 95 7a b2 bc
       -0.044415403 -0.038653616 -0.025448613 -0.021786967
000370 7f bf 15 bd 98 98 10 3c 25 b0 0d bd f1 ca be bd
       -0.036559578 0.008825444 -0.034591813 -0.09316052
000380 42 b9 ea bd f2 72 8a 3c 35 46 eb 3b b9 71 06 bc
       -0.114611164 0.016900513 0.00718 -0.0082058245
000390 f6 d2 0a bd 37 eb 08 3c 11 15 53 3c b6 80 ea 3c
       -0.033892594 0.008356861 0.012883441 0.028625827
0003a0 a8 3c 76 bc c3 47 0e bd 82 6d d2 bb b5 cd d6 3c
       -0.01502911 -0.034736406 -0.0064217458 0.026221136
0003b0 11 a7 d0 bc 78 34 62 bc 80 5a 18 bd 57 e9 59 bc
       -0.025470288 -0.013806455 -0.037195683 -0.013300261
0003c0 1e 0b 05 bd 91 0c 32 bd ff 73 19 bd 39 fd ea bc
       -0.032481305 -0.043469016 -0.037464138 -0.0286852
0003d0 d8 82 b5 b9 93 d3 df 3c e0 65 17 bb 2b bb 3e bd
       -0.00034620496 0.027322566 -0.0023101494 -0.046565216
0003e0 d0 d8 1e bd 18 30 88 3c 68 0e 90 3a d5 b8 ae 3c
       -0.038780987 0.016624495 0.0010990622 0.02132837
0003f0 01 d8 b3 3c 1d 03 02 3d cf 87 84 bc 7d 5b 3d bd
       0.021953585 0.03174125 -0.01617804 -0.04622983

conv4.0.bias f4 [128]
000000 ba c8 20 3e 73 ca 89 bb bf 88 bb bc 9b 8f 74 3b
       0.15701571 -0.004205042 -0.022892354 0.003731704
000010 de c3 70 bc 78 98 84 bd 44 64 b9 3d 93 c5 37 3d
       -0.014695136 -0.064743936 0.09052327 0.044866156
000020 d7 6c 81 3d 37 a1 f7 bd 52 18 ab bd 2f 36 38 bc
       0.06319588 -0.12091296 -0.08354248 -0.011243387
000030 75 77 ae 3d 18 52 7b 3d cd de 22 bd a4 7b 70 3d
       0.08518878 0.061357588 -0.03976326 0.058711663
000040 f9 2a 8d 3c 14 a7 a3 3d b4 ee 7d 3d 02 e9 7c 3d
       0.017232405 0.07990852 0.061995223 0.06174565
000050 55 16 47 3d 62 c4 17 3c 18 3c 19 bc 21 b8 9f 3d
       0.04860528 0.00926313 -0.009352706 0.07798792
000060 63 b8 0a be df f6 29 be d0 bb 12 3d 15 9a 99 3d
       -0.135469 -0.1659808 0.035823643 0.07500092
000070 e3 71 5f bc 5e d7 1b bc 45 57 4a 3c 75 b4 76 bd
       -0.013637993 -0.009511797 0.012349908 -0.06023069
000080 bf 51 a2 bd 58 6f f4 3d c9 9a 7c bd c9 d2 b9 3b
       -0.07925748 0.119353 -0.061671052 0.0056708795
000090 bc fa 5a 3d 5c 61 05 3e 4d 43 78 bc 4a d7 ab bd
       0.053461775 0.13025421 -0.0151527645 -0.083906725
0000a0 6d 69 6c 3d 99 78 9e 3d 7e da 82 3c 3d 35 e4 bd
       0.05771773 0.07737846 0.015973326 -0.11142967
0000b0 ae ad 06 3e b9 cb 32 3d 28 5d f0 3d b3 7a 67 3d
       0.13152191 0.043651316 0.11736518 0.0565135
0000c0 89 be 04 3d c6 40 df bd 67 6d 91 bd 4b b7 c9 bd
       0.03240827 -0.109010264 -0.07100945 -0.098494135
0000d0 79 76 cb bd 72 e7 4a bd eb f3 40 3d be 8d 93 3c
       -0.09934706 -0.04953713 0.04710762 0.018011924
0000e0 73 65 39 bc cd da e1 3d 6f 84 e9 3d b0 dc 32 bd
       -0.011315691 0.11028061 0.11402213 -0.043667495
0000f0 8f 2a 1f bd 59 5e 55 bd 6f 43 bd 3d af 0e 04 bd
       -0.038858946 -0.05209193 0.092413776 -0.032240566
000100 d9 4e 2c bd 0d 2b 06 3e d5 cd c2 be be 56 ac 3c
       -0.042067382 0.1310236 -0.38047662 0.021037456
000110 25 ae 6d bc f0 f0 34 3e 1f 49 80 3d db b0 b0 bd
       -0.014506851 0.17670035 0.06263947 -0.086274825
000120 f2 46 d5 3d 6e f9 9d 3d 28 fa c6 bc eb a9 69 3d
       0.10413922 0.077135906 -0.024289206 0.057046812
000130 f9 a9 fa 3c 54 64 9c 3d 10 6b c8 bd 93 c1 94 3b
       0.030598627 0.076363236 -0.097860456 0.0045396774
000140 96 22 21 3e 92 a6 22 bd 24 14 05 bd 39 c6 8c 3d
       0.1573585 -0.039709635 -0.03248991 0.068737455
000150 bf 91 13 3d d0 9b 6d 3d c5 af 0c 3d 2d 48 86 3d
       0.036027666 0.058009923 0.034347314 0.06556735
000160 38 02 c1 3d cc 08 72 bd ce 5b 22 be dc e4 21 3e
       0.09424251 -0.05909042 -0.15855333 0.15809959
000170 f7 be 92 3d 08 f1 4a 3d c7 89 b8 3d b5 d2 88 3d
       0.0716533 0.04954627 0.09010654 0.06680814
000180 a3 b8 7b 3b f7 66 67 bb 87 98 25 bd 0f c2 89 bd
       0.0038409613 -0.0035309175 -0.040428665 -0.06726467
000190 45 7c cb 3b a6 a2 9c 3c 8a 75 a5 bd 00 61 7a bc
       0.0062098824 0.019120526 -0.080790594 -0.015281916
0001a0 6c ad d9 bb eb fc 8b bd d8 55 91 3d dd 20 a7 3d
       -0.006642988 -0.0683535 0.070964515 0.08160565
0001b0 9e f0 47 3e b5 73 ca 3c f4 63 bb 3d 1d 73 9d 3d
       0.19525382 0.024713377 0.09149924 0.07687972
0001c0 90 aa 98 bc bc 09 88 3c f4 37 90 bc e9 14 15 3e
       -0.018636018 0.016606204 -0.017604806 0.14558758
0001d0 e8 f8 91 3d a7 2b 57 bd b4 e6 db 3c cf 06 40 bb
       0.07127553 -0.052531864 0.026843406 -0.0029300933
0001e0 de f9 b3 3d d4 75 18 3e 32 2a 08 bc 0e e5 0e 3d
       0.08787893 0.14888698 -0.008310841 0.034886412
0001f0 88 7e ad 3d 5a 2e 1c 3d c7 07 08 bd 4d ff c5 3d
       0.084713995 0.03813014 -0.033210542 0.096678354

linear.weight f4 [3, 7040]
000000 13 f6 74 3d 89 00 33 3e 26 a7 2a 3e 04 44 38 3d
       0.059804987 0.17480673 0.16665325 0.04498674
000010 23 70 60 3d 8d 4d f9 3d 0b 9a cf 3d e8 6b ab 3d
       0.054794442 0.12172995 0.10136803 0.08370191
000020 af 30 09 bc 08 9a fe 3b 86 dd 85 3c f5 cf e3 3c
       -0.0083734235 0.007769827 0.016340982 0.027809123
000030 98 0e 2d 3c cd ce f2 3b 38 09 b1 3b 51 37 af bb
       0.010562561 0.0074099065 0.0054027103 -0.0053471704
000040 30 d3 5a 3d ab a5 53 3d 25 27 1c bc ac 5f 49 ba
       0.05342406 0.051671665 -0.009530817 -0.0007681798
000050 98 31 71 bc 9f a4 94 3c e6 7d fa 3a 58 b0 02 bb
       -0.014721297 0.018144904 0.0019111007 -0.0019941535
000060 af 6b 77 3b bb 81 0f bc 0b 09 65 bc 3f 5f 3d 3b
       0.0037753393 -0.0087589575 -0.013979207 0.0028895882
000070 4e c3 a4 3b ea 1e ab bc a7 88 86 bc 3d c2 d4 bc
       0.005028165 -0.020888764 -0.016422583 -0.025971526
000080 2b 2b d7 3c e6 9f 67 3d aa 59 46 3c 95 74 10 bc
       0.026265701 0.056548975 0.0121063385 -0.008816858
000090 d5 6b 91 bc 3b aa bd bc 6d a1 7b bc d6 e2 a3 bc
       -0.017751614 -0.023152461 -0.015358311 -0.020005625
0000a0 49 59 02 bd 8c 20 bc bc 09 92 8d 3b d3 7f b7 3c
       -0.03182343 -0.022964738 0.0043203873 0.022399819
0000b0 54 df 45 3d f5 08 57 3d 5a 97 5b 3d ca 3f 5d 3d
       0.048308685 0.052498776 0.053611137 0.054015912
0000c0 87 4a ea bc 36 34 7b 3d f4 0f 0d bc f2 f0 29 bc
       -0.02859999 0.06132909 -0.008609761 -0.010372387
0000d0 90 c7 94 3c 48 01 85 3c a1 5e fa 3c 03 7a 2e 3d
       0.018161565 0.016235963 0.0305627 0.04259683
0000e0 9d 87 7b 3d 3e 89 2d 3c 26 70 89 bd 58 80 73 3c
       0.061408628 0.010591803 -0.06710844 0.0148621425
0000f0 85 72 f7 ba 09 41 ec bc 99 64 28 3d ad b7 6d 3c
       -0.0018878734 -0.028839605 0.041111562 0.014509124
000100 79 20 8e bb 51 44 4f 3d a5 a9 3e bd db 48 0d 3d
       -0.004337367 0.05060226 -0.046548504 0.03449331
000110 2f 78 a1 3c c4 69 94 bc 73 57 63 bd 23 2e 24 3c
       0.019710628 -0.01811684 -0.05550332 0.0100207655
000120 b7 48 4c 3c 2d 67 cb 3b 76 d1 2d bc d0 28 2f bd
       0.012468508 0.006207368 -0.010609021 -0.04276353
000130 da 1e 85 3d 15 c7 8f 3d 4f a0 ab 3c 75 5a f4 3b
       0.06500025 0.07020394 0.020950465 0.0074570724
000140 92 4d a2 38 f4 59 d8 3c 7e f0 1b 3c dc 48 da bc
       7.7392106e-05 0.02641008 0.009517787 -0.02664607
000150 c4 1d df ba e6 f8 f7 bb d4 41 8d bd 4c e8 75 3b
       -0.0017022421 -0.007567513 -0.06897321 0.0037522493
000160 e5 fd 15 bd 2b d1 57 bd dc fc f5 bc 99 bb 9a bc
       -0.036619086 -0.052689712 -0.0300278 -0.018888282
000170 a4 78 4a bb 8b 06 4c bc 3e 27 fd 3c 6e 07 1c 3d
       -0.0030894661 -0.012452732 0.030902501 0.038093023
000180 7a 9d 02 3c cb 4a dc bd f0 5d 28 3d 17 1b 60 3d
       0.007972116 -0.10756453 0.04110521 0.054713335
000190 1b bd cd 3c 8f a3 2c 3d d4 6e 20 3e 07 a4 e1 3d
       0.025114587 0.04214817 0.15667278 0.11017614
0001a0 ee 5e 85 3d cd b0 c4 ba d6 84 10 3c 26 b8 ac 3c
       0.06512247 -0.0015006304 0.008820733 0.021083903
0001b0 56 87 ca 3c de 8f 8a 3d d9 95 b3 3c 78 45 b9 bb
       0.024722736 0.06765722 0.021922039 -0.0056540333
0001c0 c4 9e 1d bc 81 93 6e 3b c5 31 c5 3c 33 52 e0 bb
       -0.009620372 0.0036403837 0.024071584 -0.0068457364
0001d0 35 c0 07 3d 53 20 07 3d 60 34 8e 3b 35 da 85 3b
       0.033142287 0.03298981 0.0043397397 0.00408485
0001e0 a4 16 88 3d 34 01 45 39 d1 31 1d 3c 34 af 51 bc
       0.06644943 0.00018787832 0.009594397 -0.012798119
0001f0 e6 45 94 3c 1a 41 c8 bb 46 2a 89 3c 88 68 bb 3c
       0.018099736 -0.0061112763 0.01674379 0.022876993
000200 90 5c c1 3c 7f e5 15 bc d4 79 d2 bb f3 1a 7b 3d
       0.023603708 -0.009148954 -0.0064232145 0.061304998
000210 8d 4f 65 bd d7 c8 42 3c 2b 73 c1 bc 3e 5c 12 3c
       -0.05598407 0.011888704 -0.023614487 0.008933125
000220 7a 84 92 bc cf 3a 6d bc 38 15 3c bc 31 79 ee 39
       -0.017885435 -0.014479353 -0.011479668 0.00045485192
000230 70 87 8d bc d2 e8 e5 3a b7 dc d7 3d 74 3e 44 3c
       -0.017276496 0.0017540699 0.10540145 0.011977781
000240 c2 9a a8 bc bd e9 33 bc 6b 4c 7e bc 01 25 07 bb
       -0.020581607 -0.0109810205 -0.015521149 -0.0020621421
000250 90 42 90 3b 9d 5f af 39 0a 25 5c bc 45 eb 4c bc
       0.004402466 0.00033449839 -0.013436565 -0.0125072645
000260 2b 41 9a bc a7 45 b1 3d 76 ff 9c 3c 10 d7 a2 bc
       -0.018829903 0.08655863 0.019164782 -0.01987794
000270 60 52 43 3d 17 fc fc 3c a6 ed 0a 3d 04 f2 29 3d
       0.04768598 0.030881925 0.033918045 0.04149057
000280 e9 51 af 3c 27 50 15 bd 42 b7 82 bc 65 f7 cf 3c
       0.021401362 -0.036453392 -0.015956525 0.025386522
000290 82 25 b3 3d 9f 52 25 3d ea bb 32 bc 14 98 36 37
       0.087473884 0.040361997 -0.01090906 1.0883454e-05
0002a0 74 f9 a2 3c 99 1c 13 3b 11 c4 10 bd 3f 66 c8 bc
       0.01989434 0.0022447465 -0.035343233 -0.024462817
0002b0 7a e2 25 3c 75 37 f1 3c 18 ef 0c 3d 69 12 67 bc
       0.010124797 0.02944539 0.034407705 -0.01410351
0002c0 e2 ad c2 3b f5 31 34 bd 38 aa 81 3c f9 39 5e 3c
       0.0059411386 -0.043992955 0.015828237 0.013563626
0002d0 f3 29 b1 3c 5f fb c8 bb 96 06 63 3d 79 af 11 3c
       0.021626448 -0.0061334814 0.055426203 0.008891934
0002e0 3c 35 06 3d 32 4d 3c 3b d3 a7 ea bc 3a f0 aa 3d
       0.032765612 0.0028732535 -0.028644478 0.08346601
0002f0 7f 2e 62 3b 04 fc 81 bb ba f3 9c 3b 62 dd 13 bc
       0.0034512577 -0.00396681 0.0047897967 -0.00902495
000300 4a 67 b4 bc ec ea 6c bc ec a1 d7 3a bb 51 34 bc
       -0.022021908 -0.014460307 0.0016451455 -0.011005814
000310 4e a6 f3 bc d8 7a 21 bd 53 9c 29 3d c2 d6 34 bc
       -0.029742386 -0.039423794 0.041408848 -0.01103753
000320 32 b3 dc bb 71 1b 18 3c 4f 7f cf bb df 47 2b 3c
       -0.006735229 0.009283886 -0.006332315 0.010454147
000330 e6 df cb bc e6 fc 7b bc af 4d 97 bc 3a 5b 15 bd
       -0.024887037 -0.01538012 -0.01846966 -0.036463954
000340 01 46 5e bd d1 7b 5b 3d a4 10 05 3c 08 ed be bc
       -0.05426598 0.053584877 0.008121643 -0.023306385
000350 3d b3 e7 3b 3b 71 66 bc 3f a9 c3 3d e8 43 6b 3c
       0.0070709274 -0.014065082 0.095537655 0.014359452
000360 4c 7d 76 3d 6c fd 71 bc f0 41 7f bd d7 db 7c 3b
       0.060178086 -0.014769893 -0.062318742 0.0038583183
000370 eb 69 8d 3d 40 81 6c bc 32 50 5c bc 3c f4 3a bd
       0.06904968 -0.0144351125 -0.013446854 -0.045643076
000380 d8 e7 f3 bc 9a b6 69 bd 8e ce 19 be a5 f7 b5 bd
       -0.029773638 -0.057058908 -0.150202 -0.08885125
000390 6f ac 08 bd 63 f4 d2 bc 16 ff 27 3d 46 56 3b 3d
       -0.03336757 -0.025751298 0.041014753 0.045736574
0003a0 79 9d 13 3d c3 d9 f3 3c 27 14 5d 3c 23 f1 5e 3c
       0.03603885 0.029766923 0.013493574 0.013607296
0003b0 4b 3a 41 bb 25 86 de bd 41 7e 9f bd 4c 14 7f 3c
       -0.0029484208 -0.1086543 -0.07787753 0.015568804
0003c0 5d 96 35 bd cd 4b 47 3b c7 c2 c9 bc ab 60 3c 3c
       -0.04433285 0.003041017 -0.02462901 0.011497657
0003d0 18 03 56 bd 5f a4 07 bd b7 c0 23 3d 60 e2 58 bd
       -0.052249044 -0.03311574 0.03997871 -0.052950263
0003e0 c2 b0 c5 3c ce c8 a4 bc 46 1b 5f bd 28 af 10 bd
       0.024132136 -0.020115282 -0.05446937 -0.035323292
0003f0 ae af 22 3d b6 f3 90 3e 9e ed 66 bd 11 78 ff bd
       0.039718322 0.28310937 -0.056378953 -0.12474073

linear.bias f4 [3]
000000 ca 6b 3c 3d 04 d1 bb 3c de 17 83 bd
       0.046001233 0.022926815 -0.06401037
