models/void.pth (torch, 673187 bytes, 10 tensors)

conv1.0.weight f4 [16, 1, 3, 3]
00000000: 81da 493e e819 9ebe d626 54bc 8e54 74bc
00000010: bfe7 473e 50e0 b83e c750 ecbd 8589 20be
00000020: 7934 67be 13ac 393e 2848 b6be 7a60 53be
00000030: 0ed1 b7be dead 0a3e 595a 49be 4257 2d3c
00000040: 15df 91be fa71 b63d b967 093e 8960 42bd
00000050: 3bb7 013e 57ac c03c 98e1 cc3e 1a03 543e
00000060: ac82 1b3e f78b a0be 9808 65be 5b77 52bd
00000070: b9b1 49be c606 e93e 002c 83be ea82 a2be
00000080: bb0a 55be f747 1c3e 9b04 db3e ccee 5dbc
00000090: 7e4e 8bbe a611 18be a4f4 bcbe 6bd3 bb3b
000000a0: 24ef 613e 1b5f 7e3d fc27 713e 705e bebd
000000b0: 289e b03d 8f8c a6be fcdb aebe 0743 0ebe
000000c0: 5e6c b6be 8776 1fbe dbe2 8d3e a537 c63d
000000d0: 573b 4dbe d538 39bc b849 123e 1d44 81be
000000e0: 0b17 0d3e 44f6 743d 42e1 9f3e a777 963e
000000f0: 16c3 853e 9886 36be 6c45 9ebe d3ef c4bd
00000100: 89c9 8b3e a2f1 95be dc45 f43c c1c7 a63e
00000110: 7ec4 b43e 6093 8a3d da89 9cbe 8ddb f4bd
00000120: 0282 a1bd 42a7 57bd f0b1 1cbe da9a 133e
00000130: 4c09 433e cea0 cb3d 23a6 44bd 8bba 8d3e
00000140: c334 4abe 414d a6be f549 2b3e f1f8 94be
00000150: 836a a0be b440 363e 74c7 3fbe df7c 973d
00000160: 2475 a9bd fd2a cdbc 2cab 643e ebaa 8c3d
00000170: c48d 9dbe 943a aebe b07e adbc d1aa acbe
00000180: 16b9 403e 5a55 b8be fefd 6bbd 6736 e7bd
00000190: fba9 78bd d93d bf3c 9a14 8c3e d87a ef3c
000001a0: a86a 0f3e 22a1 adbd 51aa 713e 1aab 08be
000001b0: ad25 643e 6838 c1be 9ec2 a1bd 61df 1cbe
000001c0: e088 8cbe aa32 c8bd 47c2 c23e bad6 003e
000001d0: c96a 823e 2c75 8bbe 9487 ef3d d9c2 873e
000001e0: 2890 3cbe c697 e6bd 2608 b83e 963f 863d
000001f0: 470b 8b3e 6f8e a7bd f7d5 9b3e fae1 80be
00000200: de3d 3b3e 1905 80be b386 a3be f552 ca3e
00000210: 1ae8 1abd a367 03be 80b7 95bc 3432 fb3d
00000220: fbd3 82be 5dfe 8dbe 4f34 c1bd f8eb 62be
00000230: 073d 86be 5f6c 90bd 1658 453d 30d5 913e
0.19712259 -0.3087914 -0.012948712 -0.0149127375 0.19521998 0.36108637 -0.115388446 -0.1567746
-0.2257861 0.18132047 -0.35601926 -0.20642272 -0.35901684 0.13542888 -0.19663371 0.010579886
-0.2849051 0.08908458 0.13418473 -0.047455344 0.12667553 0.023519678 0.40015864 0.20704308
0.15186566 -0.31356785 -0.2236656 -0.051383357 -0.19696702 0.4551298 -0.25619507 -0.31740505
-0.20804875 0.15261827 0.4277695 -0.013545703 -0.27208322 -0.14850482 -0.36905396 0.00573199
0.22063881 0.06210242 0.23550409 -0.09295356 0.08623916 -0.32529113 -0.3415221 -0.13892756
-0.35629553 -0.15572558 0.2771214 0.09678582 -0.20042168 -0.011305054 0.14285934 -0.2524728
0.13778321 0.05980517 0.31226546 0.29388162 0.261254 -0.17824781 -0.3091234 -0.09616055
0.27302197 -0.29285914 0.029818468 0.32574275 0.35306162 0.06766391 -0.30573922 -0.119559385
-0.07886125 -0.052649744 -0.15302253 0.1441454 0.19046515 0.099427804 -0.048010003 0.27681383
-0.1974669 -0.32480815 0.16727431 -0.29096177 -0.31331262 0.1779812 -0.18728429 0.07396864
-0.08274296 -0.025044912 0.22330922 0.068685375 -0.3077222 -0.34029067 -0.021178573 -0.33724073
0.18820605 -0.36002618 -0.057615273 -0.11289673 -0.06070898 0.023344921 0.27359468 0.029233381
0.1400553 -0.08477999 0.23600127 -0.1334652 0.22279997 -0.37738347 -0.078984484 -0.15319587
-0.27448177 -0.097752884 0.38038847 0.12581912 0.25472096 -0.27237833 0.11695781 0.26515844
-0.18414366 -0.11259417 0.35943717 0.06555097 0.2715704 -0.08181464 0.3043668 -0.25172406
0.18285319 -0.2500389 -0.31938705 0.39516416 -0.037819006 -0.12832503 -0.018275976 0.12265435
-0.25552353 -0.27733126 -0.09433805 -0.22160327 -0.26218435 -0.0705192 0.04817971 0.28482962

conv1.0.bias f4 [16]
00000000: 6777 1bbe a012 b73d 2376 c4be cec8 333e
00000010: 5bd0 7a3d f7fe fd3d 68a4 0cbe fe88 163e
00000020: 49de 223d 7ad7 943e cd3a 3cbd e3db 4d3d
00000030: fb5b 98bd f411 96be a3da a03e 0f4d cdbb
-0.15182267 0.08939099 -0.3837138 0.1755707 0.06123386 0.12402146 -0.13734591 0.14700696
0.03976277 0.29070646 -0.045954514 0.05025853 -0.07439419 -0.29310572 0.31416807 -0.0062652896

conv2.0.weight f4 [32, 16, 3, 3]
00000000: d485 46be 9bc6 0abe 4226 9ebd db68 f8bc
00000010: d194 87bd 0825 093c dd68 a63d 0866 8e3d
00000020: f20c 2ebd cb1c 22bb 242a 9cbd 3db4 d8bc
00000030: 2d06 dcbc 9a2c 97bc a632 cf3d e8e3 df3d
00000040: 658f cf3d a4b2 b73c d891 82bd ce3e 1fbe
00000050: 2910 76ba d5f8 26bd f181 de3d bebf c13a
00000060: 4320 103b 7fba 8a3d e88f bebd ef25 62bb
00000070: d301 efbc 62c2 7a3d e024 e93d df67 2e3e
00000080: ad23 873d 7206 a73b ec29 51be 1e95 45be
00000090: a738 433c a53f 513d a95c 8dbd 11ed cabd
000000a0: 2879 d33d 394f 0bbd f889 33bd df6d d63d
000000b0: 941b 66bc 748d f33c 98e3 2cbd 937d 0f3e
000000c0: 9839 773c 1bc2 b93b bdec f23c ca7d b63d
000000d0: 8b92 8cbd 12a1 33bc 9676 4dbc 5e18 d2bd
000000e0: e450 98bd 5cbc 27bd 7a0f 093d 4c6b 443b
000000f0: 0608 553d 6cd7 afbc 7d7c e3bd 9cd8 0dbe
00000100: c8b2 eabd b7d3 df3c d765 d53c 0c9f 6a3d
00000110: 3b10 0ebd 92f1 b53d 4777 74bb e0cd a3bd
00000120: 54de fabb dcc4 6dbc 8d99 553d 3583 583d
00000130: d0da 28bd 7c7a 763d c1bd c63c a071 3ebd
00000140: 2c7d 1cbd f599 c2bd ed8d 26be 7ec8 aabd
00000150: 66e2 81bc f4a0 043d b11a d33d 799a 613d
00000160: 1972 a2bd c51f b4bc 8e48 20bd b9a2 9cbd
00000170: b41a 543d d2e8 803d f019 743c 530a 9f3c
00000180: 239f 9d3d d623 d63c cc34 d7bc c1a6 f8bc
00000190: 0c80 5d3d b004 6c3d f90d 913d 2a98 adbd
000001a0: 5c0e 95bd c1b8 4f3d 00fc 0abc ae22 e3bd
000001b0: dcab 833d bb10 c5bd 86d0 d93b 391f c93d
000001c0: 14b1 193d fbb4 8abd 24e7 10be 7326 28bd
000001d0: bb65 7fbd 2fce 0bbe ac4e 4dbd 2a61 8f3d
000001e0: 80c0 533d fb3d 94bc d2a4 d9bd dc44 013b
000001f0: 8d5b 99bd fffd 973b 7f14 b6bd 6d77 0a3c
00000200: e1ea d2bc f1c4 853c 6886 0abe 0fe3 4c3d
00000210: 8822 adbd a7d5 44bd 5979 88bb 234e 5ebd
00000220: 69ab 0dbd 4d73 153d dfd0 cf3d f013 9fbd
00000230: bb5a 0dbd 679e 69bd 12bf cd3b da90 e23d
00000240: c3bf edbd f867 26be df32 9c3c c906 88bc
00000250: 668e a7bd 4a8f c23b 11cb 573d 2156 e03d
00000260: 5159 f33d 475b 013c e43d 51bd 931b fbbd
00000270: bac5 67be a7fa 803d a958 07be 47b1 b63c
00000280: 4f08 10be 8846 c23d dad1 cdbd 93d3 1fbe
00000290: dd61 993c 340b 38bd 7e45 b3bd a992 a9bd
000002a0: 82a9 0b3e 9737 0dbc 99cd 34bd 92c6 5dbd
000002b0: c234 bbbd 3b92 bb3c 186c b1bd 6129 f43c
000002c0: 56f5 243e f532 a63d bff9 003e eae7 26be
000002d0: ef0c 3fbb 7da5 98bd f331 57bd 2231 303b
000002e0: a8de 453d 6928 5839 133a a4bd afb5 4f3d
000002f0: bb9b 3e3c 88ba 8c3c 7f00 14be eef5 993d
00000300: 4d19 433c 82ec 203d 0ab8 10be 8d87 36bd
00000310: 8037 a03c 45ee bd3d bcc3 bdbc 840a f4bc
00000320: 5cf1 233c 1897 793d 0f9b c5bd 5532 d2bc
00000330: 5ecf be3d 4e3d 0b3e 86e6 0a3b b5b7 17be
00000340: 6cfe b6bd 449a ff3c 7ef8 c3bd 5f7c a9bd
00000350: 50e5 32bd 58ac a83c 3e86 003e 435c e73d
00000360: 1e28 56bd b5ca e4bd 318c 94bd c005 fe3c
00000370: 8cca 5e3b cb2a 13bd 9d5b fb3c 6445 0a3e
00000380: 8226 013e 10be 27bd edfa 0bbe 019d d0bd
00000390: c4f7 553d f732 79bb fe36 223e 37a2 ab3c
000003a0: a137 083d 5730 f13c 4167 0ebe 4314 86bc
000003b0: 8069 d8bc da41 28be cb20 76bd 9b2b 083c
000003c0: 8e62 08be 6178 ca3c 46e4 d03d c134 10be
000003d0: 8a18 c1bd e268 6ebd 850c 80bd 86ce 4cbc
000003e0: c553 32bd eb5f 2ebd fd2c 13bd 0ad6 be3d
000003f0: c7b9 7e3b 8135 b23c 927e 2a3d 85c7 8dbd
-0.19386989 -0.13552324 -0.07722141 -0.030323436 -0.06620181 0.008370645 0.0812547 0.06953055
-0.042492814 -0.00247364 -0.07625225 -0.026453132 -0.026858414 -0.018453885 0.10117082 0.109321415
0.10134772 0.02242405 -0.06375474 -0.15551302 -0.00093865633 -0.04076465 0.10864628 0.0014781875
0.0021991886 0.067738526 -0.09304792 -0.0034507473 -0.029175675 0.061220534 0.113839865 0.17031811
0.065986015 0.005097204 -0.20426148 -0.19295165 0.011915362 0.051086087 -0.06902439 -0.09908498
0.10325843 -0.0340111 -0.04383275 0.10470175 -0.014044661 0.029730536 -0.042209238 0.14012747
0.015089415 0.005668891 0.029653901 0.08910711 -0.06863888 -0.010963695 -0.01254048 -0.10258554
-0.07437304 -0.040951118 0.033462025 0.002997118 0.052009605 -0.021465026 -0.11107729 -0.13852161
-0.11459881 0.027322633 0.026049538 0.057280585 -0.034683447 0.088839665 -0.003730254 -0.07998252
-0.007655898 -0.014512267 0.05214839 0.052859504 -0.0412243 0.060175404 0.024260404 -0.04649508
-0.03820531 -0.09502021 -0.16265078 -0.08339022 -0.015855026 0.03238006 0.10307825 0.055078957
-0.07931919 -0.021987805 -0.039131694 -0.076482244 0.05178328 0.06294407 0.014898762 0.019414103
0.076963685 0.026140135 -0.026270293 -0.030352952 0.054077193 0.057621658 0.07082743 -0.084762886
-0.072781295 0.050713304 -0.008482933 -0.11090599 0.06429264 -0.09622332 0.0066471724 0.098204084
0.03752239 -0.067728005 -0.14150673 -0.041052293 -0.062352877 -0.13652872 -0.050123855 0.070009544
0.051697254 -0.01809596 -0.1062714 0.0019724881 -0.07488165 0.004638433 -0.08890628 0.008451325
-0.025746765 0.01632926 -0.13527834 0.050021227 -0.08453852 -0.048055317 -0.0041648564 -0.054273736
-0.034587298 0.036486913 0.10147261 -0.07767475 -0.034510355 -0.05703583 0.006278881 0.110627845
-0.11608841 -0.16250598 0.019067226 -0.016604798 -0.08181457 0.0059374915 0.052683894 0.10953928
0.1188227 0.007895297 -0.051084414 -0.12261119 -0.2263402 0.06297808 -0.13217415 0.02230133
-0.1406567 0.09486109 -0.10049792 -0.15608053 0.018723423 -0.04493256 -0.08753489 -0.08279926
0.13638881 -0.008619211 -0.044141386 -0.05414445 -0.09140922 0.022896877 -0.08663195 0.029804887
0.16109213 0.08115188 0.1259527 -0.16299406 -0.0029151996 -0.074534394 -0.05253787 0.0026884754
0.048308045 0.00020614419 -0.08018889 0.050710376 0.011633809 0.017178789 -0.14453314 0.075176105
0.011907888 0.03928805 -0.14132705 -0.044562865 0.019557714 0.09273962 -0.023164622 -0.02979017
0.010006275 0.06093511 -0.09648716 -0.025658766 0.09316896 0.13597605 0.0021194532 -0.14816172
-0.08935246 0.03120149 -0.095688805 -0.08275675 -0.04367572 0.020589992 0.1255121 0.112968944
-0.052284352 -0.11171476 -0.07253302 0.031008601 0.003399524 -0.035929482 0.030683333 0.13503033
0.12612346 -0.040952742 -0.1366994 -0.10186196 0.05223824 -0.0038024762 0.1584129 0.020951374
0.033256177 0.029441996 -0.13906576 -0.016367083 -0.026417494 -0.1643137 -0.060089868 0.008311178
-0.13318846 0.024715604 0.1019979 -0.14082624 -0.094285086 -0.058205493 -0.06252388 -0.012500411
-0.04353692 -0.042571943 -0.035931576 0.093181685 0.0038868056 0.021754028 0.041624613 -0.06922821

conv2.0.bias f4 [32]
00000000: f9c4 25be 4f62 21be 8b95 8c3d 3736 f23d
00000010: c9fa 7ebe 00d7 413d f41a a83d 3964 b9bc
00000020: a8ab 7d3d 5973 c23d 70b9 6cbc 5b62 523e
00000030: 8632 98bd 24e2 bdbd e8c9 d83d a00f 993d
00000040: 2887 b0bd 4574 033e 2aa4 19be 1431 793d
00000050: 5565 4f3e 2a57 c73d 2de9 263d 82ae 613d
00000060: 88bc 23bc d5df 1abe fa78 6f3d eda8 8b3c
00000070: bd96 f73d 7ee1 03be e8fa 1c3e edc5 a03d
-0.1618842 -0.15760158 0.068644606 0.11826747 -0.24900354 0.04732418 0.08208266 -0.022630798
0.061931282 0.09494657 -0.014448509 0.20545332 -0.074315116 -0.092716485 0.105853856 0.07473683
-0.08619529 0.12837322 -0.1500403 0.06083782 0.20253499 0.09733422 0.040749718 0.055098064
-0.00999368 -0.15124448 0.05846498 0.017048324 0.12089298 -0.12878987 0.15330088 0.07850251

conv3.0.weight f4 [64, 32, 3, 3]
00000000: 57aa 9dbc 8547 5bbd d65a a83d 0308 45bd
00000010: b69a e8bb f2a2 753d 0cab e23c d9bc 6dbd
00000020: ac38 1fbd f931 13bd 2293 0b3d 92f2 983d
00000030: ce50 7bbc d4e8 59bd 562e 3dbd e4e2 fa3c
00000040: 269f ac3c 9a7c 4e3c f229 51bd 1d42 37bd
00000050: a793 b83d 5a77 1a3b 742e 533d 47d3 e1bc
00000060: fa8f 243c c2da 673d 78e8 403d 9efa bfbb
00000070: a4ee 903c 8ffd 9fbd 78cf 13bd 0352 0c3c
00000080: 8f9e 3a3d 22df edbc 5c69 cabc cefc 5d3d
00000090: 0191 ae3d b5ff 15bc cd47 ec3d 73be 883c
000000a0: 5444 8f3b 3c49 a63d 305e 023d c11b b23c
000000b0: de97 1dbc 5139 883b f87c a33b 96c6 b23d
000000c0: 43e2 a73d 2c0f ae3d 3884 233d 19b5 9a3d
000000d0: 31f4 bfbc 3d1b 5c3b ce76 57bb c4a8 c4bd
000000e0: ab53 b13d 2cc3 f6bd dc11 85bd 4854 f63d
000000f0: 82fd 09be 1fc1 cdbd 5a42 023d 0e9a 11bc
00000100: 969c fb39 d4bc 9d3d df0c 51bd ccbe 74bd
00000110: d945 173b de51 e03b 2753 bdbc cdbd 4e3d
00000120: 92c0 f53c 8e30 553c 58fb a0bc 6ff6 0cbd
00000130: 8783 823c 44b4 36bc 9161 36bd f1db 53bd
00000140: f563 6d3d ff23 603d 24ba b83c 450d 1e3c
00000150: ad3e 15bd 9f71 10bd 05f3 25bc c09d 123c
00000160: a782 033d b6d3 24bc e61e 3bbc c6d8 983d
00000170: 8260 f63c 64bc 1bbd 40a3 5cbd 7c81 04bc
00000180: 21aa 2ebd 4e0b 1f3d 9100 95bd c4bc 5cbd
00000190: 6173 4c3d 4aa9 d4bc bd21 55bd ebe2 72bd
000001a0: be78 233d fdae ee3b 5799 b8bc 7b59 63bd
000001b0: 92c0 a2ba 8e55 3ebd 1057 8b3d a617 d5bc
000001c0: fe04 9bbb 89ae 47bd f29c febc 2227 67bb
000001d0: 26b7 69bd 158e 203c 8ca8 02bb c339 fcbc
000001e0: 5c0a cd3c 36f2 71bb 200c a33d c755 7d3d
000001f0: a2a2 e6ba a9a4 003d 491b 6bbd 1733 383c
00000200: d39d 183e 4e5a d2bd 523d 7abc 70b4 723d
00000210: 1646 143d b40d 03be 36d5 03bd 6e17 5fbd
00000220: 6d91 0dbd 2f73 7d3d 24a0 11be a985 d4bc
00000230: da3a 8d3d 2887 dabc 5bc1 9ebd 6ad7 3bbc
00000240: 883a 9dbd e5a2 0bbd 57b0 aabc 0567 5dbd
00000250: 8825 143c 1757 deba 8f61 933d 9f5b 703d
00000260: d702 83bc 4b05 cfbc 2245 25bc 4192 053d
00000270: dce8 383d 4302 ff3a a629 fa3b 8014 5ebc
00000280: b019 90bd 3cba 723d 04d9 f9bc b3cb 85bc
00000290: bbc8 99bd 5c86 9dbc 16f1 4f3c 332e 643d
000002a0: 863a 14bd cc0c 4ebd 96f0 243d a784 ff3b
000002b0: 1b5e f6bb f939 84bd 7699 1d3d 6d07 46bd
000002c0: 1e92 8d3c bddb 0bbd e4d7 0b3d 4ccb 8b3c
000002d0: 2c39 ae39 1088 84bd f67c 2fbd e4e7 ccbd
000002e0: c55d 02bd 49e2 c03d 8c03 853d 24f3 a0bc
000002f0: 686e 3c3b cb17 953d 321d 393d c4ce a63d
00000300: dd66 6c3d e736 a53d 54d2 883d 8180 323d
00000310: e665 4a3d a544 6f3c e608 1dbd 8ac3 2abd
00000320: e25c f23d 4622 3f3c 41a7 86bc 9e8b 41bd
00000330: c303 303d 5c8e ba3a 11f6 d6bc 623b bebc
00000340: 222d 713c 2916 0f3d 74ff 4cbc 8d10 0abd
00000350: 4abc de3c c92e 8cbd 56d7 7e3c e44b eebc
00000360: 8d1b f7bd 1628 33bd c8ad 3bbc 4e3f c0bd
00000370: 0856 2dbe 20de 4e39 41b0 f1bd 49fe 02be
00000380: 4d38 4fbd 1c1a 103c 0a79 d03d b7ba b6bd
00000390: 8cbb 3dbd d8a2 0fbd 510b a0bc bf7c 8ebd
000003a0: e88a dfbd 30ad 8b3c 4521 4b3d 9116 eabc
000003b0: 9cf8 f4bb 1a5a 5a3d 8eb8 3abd de62 d83b
000003c0: c50f 453d 4f8f fbbc e593 513c fbd3 58bd
000003d0: 4ca7 8fbd b368 583c 3a2e 4bbb 8780 78bd
000003e0: 1bd7 893d e2e5 3abd fc27 96bc 4699 9b3d
000003f0: 62c4 6abd a3e9 cebd 3b82 983d 38a0 c2bd
-0.019246263 -0.053535003 0.082204506 -0.048103344 -0.007098521 0.05996985 0.027669452 -0.058041427
-0.038872406 -0.03593633 0.034075864 0.074681416 -0.01533909 -0.053200558 -0.046186768 0.030625768
0.021071982 0.0126029495 -0.051065393 -0.044740785 0.090125374 0.0023569674 0.051557973 -0.027566565
0.010044092 0.056605108 0.0470967 -0.0058587333 0.017691918 -0.07812034 -0.03608653 0.008564475
0.04556137 -0.029037062 -0.024708442 0.05419617 0.08523751 -0.009155204 0.115371324 0.016692376
0.004372159 0.08119437 0.031828105 0.02174175 -0.0096187275 0.0041572233 0.0049892627 0.087292835
0.08197453 0.084989876 0.039921016 0.07554073 -0.02343187 0.0033585571 -0.003287721 -0.09602502
0.086585365 -0.12048945 -0.06497547 0.12027794 -0.13475612 -0.100466006 0.03180156 -0.008886827
0.00047991116 0.07702032 -0.051037665 -0.05975227 0.0023082404 0.006845697 -0.02311094 0.050473977
0.029999051 0.013012065 -0.0196511 -0.034414705 0.015931858 -0.011151377 -0.04452664 -0.051723424
0.057956655 0.05472183 0.022549696 0.009646718 -0.036436725 -0.035264608 -0.010128741 0.008948743
0.03210702 -0.010060241 -0.011420941 0.07463221 0.030075315 -0.03802146 -0.053866625 -0.008087512
-0.042642716 0.03882914 -0.07275499 -0.05389096 0.04991472 -0.02595963 -0.05203413 -0.059298437
0.03991007 0.007284044 -0.022534056 -0.055505257 -0.001241701 -0.04646831 0.06803715 -0.026012253
-0.0047308197 -0.048750434 -0.031080697 -0.0035271128 -0.05705943 0.0097995 -0.0019936888 -0.030789262
0.025029354 -0.003691805 0.07961297 0.06184938 -0.0017596076 0.031407032 -0.057399068 0.0112426495
0.14903955 -0.102711305 -0.015273409 0.05925411 0.03619965 -0.12798196 -0.032185756 -0.054465704
-0.034562517 0.061877426 -0.14221245 -0.02594264 0.06895991 -0.026675776 -0.077517234 -0.011464933
-0.076771796 -0.034090895 -0.020836039 -0.054053325 0.009042151 -0.0016963211 0.07196342 0.058681127
-0.015992565 -0.025271079 -0.010087283 0.03261018 0.045143947 0.001945563 0.0076343594 -0.013554692
-0.070361495 0.05925964 -0.030498989 -0.016332483 -0.075089894 -0.019229107 0.012691757 0.05570812
-0.036188625 -0.050305173 0.040268503 0.007797796 -0.0075185425 -0.0645637 0.03847643 -0.048346926
0.017281588 -0.034145106 0.034141436 0.017064713 0.00033230463 -0.06471264 -0.04284378 -0.10005167
-0.031827707 0.094181605 0.06494817 -0.019647188 0.002875233 0.07279929 0.04519386 0.08144906
0.057715286 0.080671124 0.06680742 0.043579582 0.049413584 0.0146037685 -0.038338564 -0.041690387
0.11834122 0.011665886 -0.016437175 -0.04725229 0.042972337 0.00142331 -0.02624038 -0.023221675
0.014720233 0.034933243 -0.012512077 -0.03370719 0.027189393 -0.06844861 0.01555427 -0.029088922
-0.12065802 -0.0437394 -0.011455007 -0.093870744 -0.1692735 0.00019728439 -0.11801196 -0.12792315
-0.050590802 0.008795287 0.10179336 -0.08922332 -0.046321437 -0.03506741 -0.019536646 -0.06957387
-0.10915166 0.017050356 0.049592275 -0.028575214 -0.0074759256 0.053308584 -0.04558616 0.0066035828
0.048110742 -0.030707983 0.012791608 -0.052936535 -0.07014331 0.013208556 -0.0031002895 -0.06066945
0.06730481 -0.04562939 -0.018329613 0.07597594 -0.05731619 -0.101031564 0.074467145 -0.095032156

conv3.0.bias f4 [64]
00000000: e371 713d d41f 14be 91c6 3c3e e3ce 043e
00000010: db21 77bc 7967 9a3d 2f72 c3ba 8748 c53d
00000020: 549b 423d 23e8 e63d c875 ec3d 3113 e93d
00000030: 66bd b33d 590c 9fbd dfc7 ea3d 84ab 9e3d
00000040: ea3f 963d 8396 a23d a024 1abe d9dc 833d
00000050: 3f73 ca3d ff0b 9a3d e46c 38bc dd18 75bd
00000060: 6e6c f33d ee32 12be f062 21bb 5108 de3d
00000070: 2e48 993d 1d55 fc3d 318d a3bc cfa8 693d
00000080: 2d6e c73b 6de3 853d 6b9b 24be fd20 923d
00000090: 8959 2d3d 386e 91bc 5b4b e8bd 1ce8 cdbc
000000a0: f24c aa3d 94a0 ef3d 72b6 033e 151a 693d
000000b0: 91a9 9b3d 36fc 143e 44d1 be3d 7d7e 183e
000000c0: 0c27 b23d ac29 ea3d edf1 9e3d 3c7d b4bd
000000d0: 6287 173e 87f7 f43d 93dc a33d 9082 f53d
000000e0: 5520 8fbd 8365 603c 8128 fb3c 0ac9 66bd
000000f0: 2466 993d 163d f53d 4020 993d 5fbc 56bd
0.0589465 -0.14465266 0.18435122 0.12969546 -0.015083755 0.07539267 -0.0014911349 0.09632974
0.047511414 0.11274745 0.115459025 0.113806136 0.08776359 -0.07766027 0.11463904 0.07747558
0.073364094 0.07938864 -0.15053034 0.06438608 0.09885263 0.07521819 -0.01125643 -0.059838165
0.11885916 -0.1427724 -0.0024625622 0.1084143 0.0748447 0.123209216 -0.019964786 0.057045754
0.006086132 0.06537519 -0.16074912 0.07135198 0.042321716 -0.017752752 -0.11342498 -0.025135092
0.083154574 0.1170055 0.12862566 0.05690964 0.076007016 0.14549336 0.09317258 0.14892001
0.08698854 0.114337295 0.077609874 -0.08812949 0.14797738 0.119612746 0.080010556 0.119877934
-0.06988589 0.013696077 0.030658962 -0.05634407 0.07490185 0.11974542 0.07476854 -0.05242574

conv4.0.weight f4 [128, 64, 3, 3]
00000000: 0f2c 8fbd b5f1 9c3c 7e69 bfbd 6b2d a13c
00000010: 2b7b b0bc 5ac8 eeb9 9858 3cbd 6a06 24bd
00000020: e751 c43c 0995 0fbe cc0a d2bd ffa6 01be
00000030: 3f94 b33d df40 c73d 2311 1e3d 952b 80bc
00000040: 623e 0ebc 8e96 ccbd 0105 84bb c871 3cbd
00000050: b5fd 153c 2edb d73d 012b 6e3d 203c 233b
00000060: a475 c43d 78e3 ff3c 1f52 cdbc 831f 2abd
00000070: 57b6 97bd 9605 fa3c 9ca7 1e3d f808 5f3d
00000080: 3d76 8cbc aa03 53bc 59af 0abc 7b44 bcbd
00000090: ad56 f93c b144 ddbc f845 33bd ad08 323b
000000a0: 31ad 06bc f18b ebbc aaa3 ae3d 4d28 7e3d
000000b0: cc0b f8bb 655f 183d 9ccb 6c3d 0c2f 923c
000000c0: 60f7 733d 9874 213d 2115 243d 6da2 373d
000000d0: 834b 853b 82e4 0d3c be17 2a3d a006 76bc
000000e0: d6a9 86b9 7c74 d1bc 0e6d 7fbd 39ae de3c
000000f0: 1d2e 553d 3955 fcbb 42ef a7bc dcb8 2ebc
00000100: df7b 013d 7f80 4b3d e12a ad3d c4e5 94bc
00000110: 8814 8e3d 578e 933d f1ef a73d a66b 41bd
00000120: d925 34bc 2844 83bc b71f 803a 781c ec3c
00000130: 7474 ba3d 1ebd 9ebb 05d7 06bd a3ae a33c
00000140: f78d e6bc 8989 8cbd 5763 3bbc 3566 173c
00000150: 5fc8 673d 34c7 873d e5be 8b3d 92d5 543d
00000160: 7253 943c 5488 88bd dd1b f2bc 73d3 073c
00000170: 6498 63bd 733d cfbd 8241 06bb ea94 b8bd
00000180: 78e1 af3d b055 d53c 33c5 663d 503b cfbc
00000190: 67af eb3b e671 453d e3f1 a83d 9984 ad3d
000001a0: 8e36 123d df8d 6cbc a6a4 5abc 9394 413b
000001b0: f529 d53b 2784 0abc e996 233b 2482 083c
000001c0: 6dfe c6bd 1082 41bc 58d5 253e c17c b33d
000001d0: 137a 373d d1ba fe3b 88b4 443d 8c5b 4eb7
000001e0: a5a9 373d 53a3 313c d34b 3c3d e96f 0c3d
000001f0: 56ae 80bb 4720 153d 85c0 06bc 68cd 9cbc
00000200: bad9 a2bc c1c9 97bc 2774 063c 9102 c9ba
00000210: d7f0 863c 541a 2e3d 1054 1e3c 3023 1dbd
00000220: 7563 1ebd 7514 e0bc b1d9 b63d 2607 303d
00000230: 2dae 9c3c 096e 533d fe6d 87bc e169 1dbd
00000240: 661e 1c3c effe ab3c 7816 3abd bf94 cdbd
00000250: 48a0 a8bc 9b0c 0fbd 76e9 a93d 946a b53c
00000260: 83b8 853d bc94 353d ea8a 4e3d b58f 18bd
00000270: f321 6a3c 449f 42bd 9bd8 52bc d391 083d
00000280: 52fd 73ba 84cd 753c e93b 6dbd 763a 1fbc
00000290: 5d6d 2fbc 2c8b 803d d1ff 8a3d 32ab 2ebc
000002a0: 6f12 07bd debd 23bd c356 a7bd 731a 6bbd
000002b0: cb88 8bbd 5e13 a3bd 3804 2c3d 86e3 5a3d
000002c0: 73b8 853d 8e2e 45bd 5975 ffbc 90cd 74bd
000002d0: ba24 e63c d3b8 963d 8c3c 133c 6574 873c
000002e0: 6767 b8bc 8620 b0ba 9914 f13c 0a3e 783d
000002f0: 087d f73b 53bc 8d3d fee5 533c 3638 383d
00000300: 94ca f2bd 3f31 543c 50e6 84bc 5da2 b73d
00000310: af11 71bb 79af ddbb 4b25 3dbd 1b4e 01bd
00000320: 0c93 373d e073 2d3c a93f b9bd 1b6b 40bd
00000330: 530f d13c 6764 6d3d 0bfe 9c3c 7611 a0bd
00000340: 70d1 eb3c 0747 c6bc 8f59 e739 6220 853d
00000350: 974b 873b 4bbd 41bc e551 20bd c989 9dbd
00000360: 6bf2 c2bc 3a5d 8f3c febd d23b bb59 5f3d
00000370: 94de 80bb 22cc 2d3d 7578 233d 8332 30bc
00000380: 2ba9 423c 69b1 89bd bc73 26bc 6dce a93a
00000390: b6ed 913d 1939 153d dc94 b43d c061 a4bd
000003a0: 7f7b eabd 460f c9bd b680 8ebd 57df e6bd
000003b0: 02c2 6dbd 7505 b53d fec5 883d 3003 663d
000003c0: 34aa 323d 02d8 003c e57d 63bd 570f a9bc
000003d0: 4c3e 33bd 6ddc f43c 302a 83bc bd57 d93c
000003e0: 9ed9 fc3c 3330 1b3d a91d 1c3c 9bd5 7d3d
000003f0: 4285 7e3d 4c28 12ba 597e d43c de31 a3bd
-0.069908254 0.019158224 -0.09346293 0.019674977 -0.021543106 -0.0004554417 -0.045982927 -0.04004518
0.023964835 -0.14021696 -0.102559656 -0.1266136 0.0876851 0.0972917 0.03859056 -0.015645782
-0.008681865 -0.099896535 -0.004028917 -0.046006948 0.009154727 0.10539852 0.05814648 0.0024907663
0.09592751 0.031236395 -0.025063572 -0.04153396 -0.074078254 0.030520242 0.038734064 0.054451913
-0.017146224 -0.012879292 -0.008464658 -0.09192749 0.030436838 -0.027010294 -0.0437679 0.0027165816
-0.008220003 -0.028753253 0.0852731 0.062050153 -0.0075697657 0.03720035 0.057811365 0.0178447
0.059562087 0.039417833 0.040059213 0.044832636 0.0040678396 0.008660438 0.04152655 -0.015016228
-0.0002568501 -0.02556824 -0.062359862 0.027182685 0.05204593 -0.007700589 -0.02049983 -0.010664191
0.031612273 0.04968309 0.08455444 -0.018175967 0.0693751 0.072048835 0.08200062 -0.047221802
-0.010995352 -0.01602371 0.0009775077 0.028822169 0.09104243 -0.004844322 -0.032919902 0.019980734
-0.028143866 -0.0686217 -0.011437259 0.009240677 0.056587573 0.06629792 0.068235196 0.05196149
0.018106196 -0.066666275 -0.029554302 0.0082901595 -0.055565253 -0.101191424 -0.0020485823 -0.09012778
0.085879266 0.026041836 0.056340408 -0.025296837 0.0071925404 0.048204325 0.08249261 0.084725566
0.03569656 -0.014438122 -0.013344919 0.002953802 0.006505246 -0.008454359 0.0024961776 0.008331809
-0.097164966 -0.0118107945 0.16194665 0.08764029 0.044794153 0.007773735 0.04802373 -1.2299872e-05
0.04483952 0.010842162 0.04597075 0.034286413 -0.0039270325 0.036407735 -0.008224611 -0.019140914
-0.01987921 -0.018528821 0.008206404 -0.0015335848 0.016472263 0.042505577 0.009663597 -0.038363636
-0.03866907 -0.027353505 0.0892824 0.042975567 0.019126022 0.05161861 -0.01653194 -0.038431052
0.009528732 0.020995585 -0.045431584 -0.10038137 -0.02058424 -0.03492413 0.08296482 0.022145547
0.065293334 0.044331297 0.050425448 -0.037246425 0.014290321 -0.04751517 -0.012869026 0.033342194
-0.0009307462 0.015002612 -0.057918463 -0.009718528 -0.010707227 0.06276545 0.06787074 -0.010660933
-0.032976564 -0.039975993 -0.08170845 -0.05739827 -0.068132006 -0.079626784 0.04199621 0.05343964
0.065293215 -0.0481401 -0.031183885 -0.059766352 0.028093684 0.07359471 0.0089866035 0.016534993
-0.022510244 -0.0013437427 0.029428767 0.06060604 0.0075527467 0.069206856 0.012933252 0.044975482
-0.11855045 0.012951194 -0.016223103 0.08966515 -0.0036784222 -0.0067653027 -0.046178143 -0.031568628
0.04481797 0.010586709 -0.09045345 -0.046977144 0.025520002 0.05795708 0.019164106 -0.078158304
0.028786391 -0.02420379 0.0004412648 0.06500317 0.004128884 -0.011824916 -0.0391406 -0.07692296
-0.023797235 0.017500509 0.0064313402 0.054528933 -0.0039327834 0.042431004 0.0399098 -0.01075423
0.011881153 -0.067232914 -0.010159429 0.0012955196 0.07125418 0.036431406 0.08817455 -0.08026457
-0.11449336 -0.09817366 -0.069581434 -0.112730674 -0.05804635 0.088389315 0.06678389 0.056155384
0.04361935 0.007864 -0.055539984 -0.020637197 -0.043760583 0.029890263 -0.016011328 0.026531095
0.030865487 0.037887763 0.009528556 0.06197129 0.062138803 -0.0005575463 0.025939154 -0.07968496

conv4.0.bias f4 [128]
00000000: 46e0 8e3d 8f24 75bd 0011 34bc e990 403b
00000010: 1b2b 303d 404a e6bd e15b 4c3d 44ba b63d
00000020: 7216 093d d94f 9b3d 5be9 b13c de5d eb3d
00000030: cf38 693d 270b a4bd e46f dd3d 78d6 5b3d
00000040: 8075 143e afaa ca3d 5a1b 23bd 6c31 1fbd
00000050: 6300 c33d 4baa 473d edf3 19bb 3a91 993d
00000060: d802 663d cf12 973d 6f2b df3d 2447 c8bd
00000070: 700b ee3d d2d3 873c dd58 bf39 88b1 cc3d
00000080: deec d5bd 494a 23bd 015d 913d f893 55bd
00000090: 34a3 8f3d 3665 39bd c4aa 0f3d d290 67be
000000a0: 9879 c03d c375 5839 3dcf b23d 16e1 b73d
000000b0: 3db4 893d 8c43 fa3c 0dd9 f63d df97 ae3c
000000c0: b2ec 443d 4cc6 f7bd fc31 87bd bd6d 043e
000000d0: ad24 863d 7dbc 553d cf80 d93d faf7 cebc
000000e0: 5479 103d c6c9 e33d 632b 943d 4f92 fcbb
000000f0: e055 0d3d 2a9b 603d f3a1 843c 572e 10bd
00000100: b900 babd d7f0 003e b38b 183d 3baa bdbd
00000110: 36fb f03d 3bcf 693d bfaa bcb9 d1eb 4b3b
00000120: 62d6 17bc 499d 2dbb b189 b0bb a60d d93d
00000130: f840 c73d 1039 64bc db3d 843d 7f78 803d
00000140: e147 8d3d 0201 50bd 344a 9d3d ba6a 0cbe
00000150: 994b 013e 6bcd f3bb 611b 9d3c 4aa9 dd3c
00000160: 006b b1bc 588c 0a3e 3125 5e3c c4e1 8b3c
00000170: bbe9 e83d 8f76 edbb 519b 0cbe 1660 81bc
00000180: b30b 1d3d 9ada c93c ec83 58bd 8615 21bd
00000190: 9a11 cb3d 9a52 ff3d 99d4 ac3d 991e 063e
000001a0: 86d4 703d 71a7 6d3d 3990 093c 55f8 153e
000001b0: e044 883d cfd7 2ebe b6d4 91bc 5be5 e8bd
000001c0: 1f8a 1e3d 008e 54be dd9a c93d 743a ee3d
000001d0: d506 ae3d 2efc 0e3d 688b 283d eed6 663d
000001e0: 47c4 cfbc 5bbb d63d 2a96 13be 7780 7a3d
000001f0: 6f54 ef3c 329f 843d 060b aabd c7db 2cbd
0.069763705 -0.059849318 -0.010990381 0.0029383248 0.04300986 -0.11244631 0.04989231 0.08922246
0.03346867 0.07583589 0.021717718 0.11492513 0.056938943 -0.0800994 0.10812357 0.05367133
0.14497948 0.098958366 -0.039821006 -0.03886549 0.09521558 0.04874639 -0.0023491338 0.07498403
0.056155056 0.07376634 0.10896956 -0.09779194 0.11623275 0.016580496 0.00036496567 0.09994799
-0.104455695 -0.039865766 0.07097817 -0.052143067 0.070135504 -0.045262538 0.035074964 -0.22613838
0.09398192 0.00020643235 0.08730934 0.089784786 0.06723831 0.030549787 0.12053118 0.021312652
0.048077293 -0.12098369 -0.06601331 0.12932487 0.06549964 0.05218171 0.106202714 -0.025264729
0.035271958 0.111224696 0.07234838 -0.007707871 0.034505725 0.054835476 0.016190505 -0.035200443
-0.09082169 0.12591873 0.037242603 -0.092609845 0.11766665 0.057082396 -0.0003598537 0.00311159
-0.009267421 -0.0026491454 -0.005387508 0.10598306 0.09729189 -0.01392962 0.064571105 0.06272983
0.068984754 -0.05078221 0.07680169 -0.13712588 0.12626494 -0.007440259 0.019178094 0.027058262
-0.021657467 0.135301 0.013558672 0.017075427 0.113727055 -0.0072467993 -0.13731124 -0.015792888
0.038341235 0.02464037 -0.052860186 -0.039327167 0.099154666 0.12466927 0.08438987 0.1309761
0.05879643 0.058021013 0.008396202 0.14645512 0.06653762 -0.17074512 -0.017801624 -0.11371871
0.03870594 -0.20757294 0.09843991 0.11632243 0.08497397 0.034908466 0.041148573 0.056357317
-0.025362147 0.10484954 -0.14412752 0.06115767 0.029215066 0.064756766 -0.08302884 -0.042201784

linear.weight f4 [10, 7040]
00000000: 031a 1f3d 0e60 073d 7f21 823d 1503 4f3d
00000010: 1c4a 993d f137 a53d b4f5 193d 1bfb c7bb
00000020: cb3b 633d 01a4 95bd 6d1c 14bc 3996 153c
00000030: e452 133c 812c 16bd 334a 60bd 7822 2bbd
00000040: 4c99 02bd 8e76 53bd 8ee0 2e3c 863b f9bb
00000050: 2d14 aebd 4b1e 4b3d df9e 91bb d3f6 dabb
00000060: 7ac6 263b 74b5 293c 3715 f1bc 8e91 263c
00000070: f8fd 2a3c 9de8 483c 8ed2 943d 10f3 31bd
00000080: 4439 333d 3fc1 7e3b 3f99 5ebd b0d1 d2bc
00000090: 4c07 8bbd e6fe e0bc 0192 453d 960c 08bd
000000a0: 80fb 8c3d ad6a 7d3d ff72 b0bc c5e1 5d3d
000000b0: 554f 6e3d d936 813d 0c19 c43c 634c 4e3d
000000c0: 7d8d ab3d f1e5 303d 12a5 c63d d026 d23d
000000d0: fbea e03d 588f c73d e293 e43d 55f1 acbc
000000e0: ee09 11bd da22 f4bd fdb8 13bd a9ea a3bc
000000f0: 2967 373d 6ba4 e1bc 60d8 f5bd 84e9 843d
00000100: e064 21bc d346 2dbd f176 8c3c 28b7 193d
00000110: a8ff a9bc 0753 4d3d 9dc5 283d 50e2 1d3c
00000120: ebcc 0bbd e4af 67bd bf29 463d 0115 193d
00000130: 46c1 f7bd a0bf 94bd 474c 3dbc 6a1c 72bd
00000140: c4fc d83c 2c62 95bb 53b5 9abd 3dde 80bc
00000150: a422 25bd 9569 083c d200 53bd 4151 a1bd
00000160: e94c 903d 5af3 0d3d c958 7ebd 762e 7e3d
00000170: 5b75 25be c161 98bd aa78 e9bd 5789 ae3d
00000180: 4339 afbc 416e 03be e3e5 31be 5b24 59bd
00000190: dff1 bdbc e288 993d 9553 c0ba 1042 043e
000001a0: 9723 d33d 4fbe 4bbd d318 d13d 850e 8cbd
000001b0: 4b1f 063d 51b6 9e3d 7dc5 0e3d 23c2 293d
000001c0: ea19 053d 8a6f 223d 8904 3b3d 28c5 b73c
000001d0: 4cdd 823b 2647 4e3c 4526 7bbb 200f 15ba
000001e0: 8345 b2bc 7d64 1cbe 4d95 0bbd 3db7 61bb
000001f0: d6d3 b4bb a82c 343c 977e 93bc 3cfd 013c
00000200: ad3a 85bc b4e6 863d 6971 acbd d068 91bc
00000210: 409a 503d 2c31 0dbd 7a5a 0bbc a092 a3bc
00000220: 76ed bfbc bb17 4ebc f7bb d5bd 7de8 cc3c
00000230: 0e45 b4bb cd01 c0bd c496 b53d 7907 6abc
00000240: 7675 56bd f24e b3bc 282e 7ebd 3779 fa38
00000250: e324 8cbd 5a13 f63c 789d 43bb d27c 583d
00000260: a9ff 08be a8ae 1b3d 9fd0 4d3d 1b0e 1b3c
00000270: aaf0 103d 1d1f ed3d 2599 663d b3bc e53d
00000280: 2663 c33d ac2f 1c3d 3206 093e e0f0 1dbd
00000290: c691 c03d 2754 34bc e184 a63b cb17 d9bb
000002a0: 0620 81bc c8b5 1ebc ceab 00bc 73f0 b4bb
000002b0: 59ab f73b ee73 0bbd e19c 5fb9 7cc1 87bb
000002c0: 514d 76bc 5163 25bc 47da 213d 5ff2 023d
000002d0: 7d1d a33b ee4e 4c3d a24b 193d e40f ca3c
000002e0: bd3a 263d 1006 c1bc 73b4 f6bc d09f 3abd
000002f0: 1e6b 30bd ae73 2abd 48f8 fd3b b60c 1dbb
00000300: 4855 1d3d e11a 863a f523 96bc 1ac9 903d
00000310: 6beb 53bc 99d2 b9ba 441e b83c 9266 ec3c
00000320: 408f 90bd 73ce 6d3c 951c 69bd 70ee e8bc
00000330: 985c a4bc 8760 6d3d df4a f6bc 5551 09bd
00000340: 7079 15bc 64f5 9dbc 0e60 87bc 80ab df3d
00000350: 6f26 903d 7931 093d 576b 713d cf0b 49bd
00000360: 903b 9a3c 916e bdbb ad40 303b 19d2 ebba
00000370: 4cbc f23c f934 b13c 3c86 693b d5a3 4f3c
00000380: 6db0 cc3c 7897 dc3c e04b 5c3b 9074 653c
00000390: 1418 49ba 1bf6 fbbc fa92 cf3c 7e90 05bc
000003a0: afb2 f1bb c43b 53bc 0371 c4bc eeac 9dbc
000003b0: 516f a1bc 40cb 3c3b 7642 363c 5ddd 1abc
000003c0: 4260 57bd 6846 243d e6ed 35bd 2645 72bd
000003d0: 7932 b2bd e9b3 e4bc ea37 d9bc 1ac0 07bd
000003e0: 49b1 313c cea5 1e3c 9c69 133d 30a1 8ebc
000003f0: 32c6 793d be9e 593d 0e02 a4bd 94c6 1cbb
0.038843166 0.03305059 0.06354045 0.05054005 0.07484838 0.080673106 0.037587836 -0.006102932
0.055476945 -0.07306672 -0.00903998 0.009130054 0.008991931 -0.036663536 -0.054758262 -0.04178092
-0.031884477 -0.051626734 0.010673655 -0.0076059727 -0.08499942 0.049589437 -0.0044439877 -0.006682256
0.002544789 0.010358203 -0.029429061 0.010166539 0.010436527 0.012262491 0.072667226 -0.043444693
0.043755785 0.0038872508 -0.054345366 -0.025734752 -0.06788501 -0.027465295 0.048234943 -0.033215128
0.06883907 0.061869312 -0.02153921 0.05417039 0.058181126 0.063092895 0.023937725 0.050365817
0.08376596 0.04318804 0.096994534 0.10261309 0.10982319 0.097441375 0.11161019 -0.02111117
-0.03540986 -0.1192071 -0.03606509 -0.020009356 0.044776116 -0.02754422 -0.12004161 0.06489852
-0.009850711 -0.04230387 0.01714656 0.037528187 -0.02075179 0.05012801 0.041204084 0.009636477
-0.034130972 -0.056564227 0.048379656 0.037373547 -0.12097411 -0.07263112 -0.0115538305 -0.05910913
0.026487716 -0.004558822 -0.07554116 -0.015730971 -0.04031624 0.008325954 -0.051514454 -0.07876826
0.070459194 0.034655906 -0.06209639 0.062056027 -0.16158049 -0.0744052 -0.11399968 0.08522289
-0.02138961 -0.12835027 -0.17372851 -0.053013187 -0.023186622 0.074968114 -0.0014673347 0.12915826
0.103095226 -0.04974204 0.10209813 -0.06838707 0.032744687 0.07749618 0.03485631 0.04144491
0.032495417 0.039657153 0.045658622 0.022432879 0.003993666 0.012590205 -0.003832237 -0.0005686153
-0.021761661 -0.15272708 -0.03407793 -0.0034441494 -0.005518417 0.010996975 -0.018004699 0.007933911
-0.01626333 0.06586972 -0.08420069 -0.017750174 0.050928354 -0.034470722 -0.008505458 -0.019967377
-0.02342866 -0.0125789 -0.10436242 0.025013203 -0.005501396 -0.093753435 0.08866647 -0.014284008
-0.052358113 -0.02188823 -0.062055737 0.00011943507 -0.06842973 0.030038524 -0.0029848497 0.052853413
-0.13378777 0.038008362 0.050247785 0.009463812 0.035385765 0.115782 0.056298394 0.11217632
0.095403954 0.0381314 0.1338127 -0.038559794 0.09402804 -0.011006392 0.0050817584 -0.006625151
-0.01576234 -0.009686895 -0.007853461 -0.005521828 0.007558268 -0.034046106 -0.00021325379 -0.004142938
-0.015033082 -0.01009448 0.039514806 0.031969424 0.0049778805 0.04987996 0.037425645 0.02466578
0.04058336 -0.023562461 -0.030115342 -0.045562565 -0.043070905 -0.041614227 0.0077505447 -0.0023963875
0.03841141 0.0010231399 -0.018327693 0.07069607 -0.012934546 -0.0014177143 0.02247537 0.028857503
-0.07058573 0.014514553 -0.056912024 -0.028434008 -0.020063683 0.057953384 -0.030064998 -0.03352483
-0.009123191 -0.01928205 -0.016525295 0.10921383 0.070385806 0.033494446 0.058940258 -0.049083527
0.01882723 -0.005781003 0.0026894019 -0.0017991691 0.029630803 0.021631705 0.0035632988 0.012673338
0.02498647 0.026927695 0.003361456 0.014004841 -0.00076711294 -0.030757 0.025338639 -0.008152125
-0.007376037 -0.012892667 -0.02397967 -0.019247498 -0.0197064 0.002880767 0.011124244 -0.009452191
-0.052582033 0.040106207 -0.04441633 -0.059147976 -0.08701033 -0.02791782 -0.02651592 -0.033142187
0.010845491 0.009683086 0.03598939 -0.017410845 0.06098003 0.053129904 -0.080082044 -0.0023922073

linear.bias f4 [10]
00000000: f879 6a3d ea68 90bc 53e0 19bd c820 96bc
00000010: b366 ddbc 0f6b a3bc b043 93bc 5405 c2bc
00000020: 9c01 f4bb c8dc 94bc
0.057245225 -0.017628152 -0.037567448 -0.018326178 -0.02702651 -0.01994851 -0.017976612 -0.023684181
-0.007446481 -0.018171683
