models/void_demo.pth (torch, 820767 bytes, 10 tensors)

conv1.0.weight f4 [16, 1, 3, 3]
00000000: 89e3 4b3d a7b6 773d efbf 4dbd b954 8c3c
00000010: 1b0a 0dbd c484 8d3e 4777 b8bd 01ba a7bd
00000020: c1af 65bd c789 88bd 4e84 27be a40f 6f3d
00000030: 49f0 9a3e 6456 2cbe 9c54 8cbe a484 213e
00000040: a031 81bd 3f38 813e cbeb 823d 14db 883e
00000050: 09d7 0b3e 7f73 3dbc 4342 823c 5fec 01be
00000060: 183e 6cbe 3e53 b1be 331f 5bbe bc6f ce3d
00000070: e6b6 12bd c4a5 6dbe 4f9d f03d 92d4 813e
00000080: be52 593e d85d 133e 858f 69be d520 4b3e
00000090: 4031 f6bd 8d98 1d3e 746b 923e e5d2 8a3e
000000a0: 9168 83be f823 3bbe 7683 75be d7ca 693e
000000b0: 1cbf 913d 5bcf 3abd ba8e 1dbe 6496 d33d
000000c0: 1b1e 143e 12b1 e0bc 80b1 463e 2662 943e
000000d0: 6904 503e c5c3 dabd 4f2a 4e3e c329 a53e
000000e0: 73a0 173d c5a0 c9bd c89b 6cbd 79ef 283e
000000f0: 6d01 9dbe d502 623e 3cb1 7dbd c72b 6ebe
00000100: da31 5d3e 5a0e 553e 2d72 1dbe 2fb3 bfbd
00000110: c686 6bbe e860 6ebc 4cb3 013e d46b 1cbe
00000120: a177 44bd 3c9f 533e a0c5 5f3d 267a 26bc
00000130: 8964 633d 6d6e 61be dbd3 6dbe 49cc 8ebe
00000140: 3630 6ebe 3a04 93be 7ffb 853e 7741 8dbe
00000150: 8373 70be bd49 073e 23d6 b33d d382 8d3c
00000160: 7005 cfbc a2a7 8cbc db76 973e befd 04be
00000170: dced 933e 4d8d 6d3e 1406 36be 1a4b 963e
00000180: 0fad e03c 90ee 17be b6ad 573e 3c49 2cbe
00000190: 1ce7 93be e616 bc3e 8312 293d 7b95 4fbe
000001a0: 56ab 9a3c 1c69 953e ab87 b5bd 664c 723e
000001b0: 510c d73d 940e 10be c9b9 3cbe dc09 3fbc
000001c0: 5b2b a5be 0c53 213e c802 d83d fb9f 82bc
000001d0: 635f 42be 1df5 3c3e a87c 77be 1f3a c5bd
000001e0: 31dc 46be 8114 7bbe ecd7 a13d 4267 21be
000001f0: cfa7 913e f699 1fbb a326 e43c c0a5 27be
00000200: ea83 20be a753 06bd 7299 e33d acd2 f33d
00000210: 75c0 6a3e 8822 993d b465 8d3e cf8e 92bd
00000220: 363e 243c 239d 18be 5597 893d 2cc5 4abe
00000230: 5c7a b33d 22eb 6abe 8e5a 7f3e 3da3 8e3e
0.04977754 0.060476925 -0.05023187 0.017130243 -0.034433465 0.27640355 -0.09007125 -0.08189774
-0.056075815 -0.06666904 -0.16359064 0.058364525 0.30261448 -0.1682983 -0.27408302 0.15773255
-0.06308293 0.25238225 0.0639263 0.26729643 0.13656248 -0.011563181 0.015900737 -0.12687825
-0.23070562 -0.3463382 -0.2139862 0.100799054 -0.035818957 -0.23207766 0.11748754 0.2535749
0.2122297 0.14391267 -0.22808655 0.19836743 -0.120211124 0.15390225 0.28597605 0.27114025
-0.25665715 -0.1827544 -0.2397593 0.22831284 0.07116529 -0.045607906 -0.15386477 0.10331419
0.1446461 -0.027428184 0.19403648 0.2898113 0.20314182 -0.10681871 0.20133327 0.32258424
0.03701825 -0.098451175 -0.057765752 0.16497602 -0.3066515 0.22071393 -0.061936602 -0.23258887
0.21601048 0.20806256 -0.15375586 -0.093603484 -0.2300063 -0.014549471 0.12666053 -0.15275508
-0.04796565 0.20666212 0.05463183 -0.010160958 0.0555158 -0.2201478 -0.23225348 -0.27890232
-0.23260579 -0.28714162 0.2616844 -0.27589008 -0.23481564 0.13211723 0.08781078 0.017274296
-0.025271147 -0.017169777 0.29582867 -0.1298742 0.2889241 0.23198433 -0.17775756 0.29354173
0.02742627 -0.14837098 0.21062359 -0.16824812 -0.2888726 0.3673622 0.04127742 -0.20271866
0.018880527 0.29181755 -0.08863767 0.23661956 0.10500396 -0.14068061 -0.18430246 -0.0116600655
-0.3225964 0.15754336 0.105474055 -0.015945425 -0.189817 0.18452878 -0.24168646 -0.09630226
-0.19419934 -0.2451954 0.07902512 -0.15762046 0.2844834 -0.0024353242 0.027850455 -0.16371822
-0.15675321 -0.03279462 0.11113252 0.11905417 0.22924979 0.074772894 0.27616656 -0.07156145
0.010024598 -0.14903693 0.067183174 -0.19801778 0.087635726 -0.22941259 0.24936888 0.27858916

conv1.0.bias f4 [16]
00000000: c3a9 7e3e 443a 43be ff8a 3f3d b0fe 0c3e
00000010: ad82 c33d 354f e43d 19b3 7a3e e9ff 433e
00000020: b9ab 7d3d eac0 763e b840 673e 6672 303e
00000030: b86e 973e a4f2 213e 3a3b d9bd 5525 42be
0.24869446 -0.19065195 0.046763416 0.1376903 0.09546409 0.1114792 0.24482383 0.1914059
0.061931346 0.24097028 0.22583282 0.1723114 0.2957666 0.15815216 -0.10607 -0.18959554

conv2.0.weight f4 [32, 16, 3, 3]
00000000: 9705 99bd 1fb1 9bbd 1b21 fcbd f61e ac3c
00000010: 9ba3 6abd 17a9 ac3b e714 723d 2cf6 9a3d
00000020: c447 53bd 6f1e 8abc 1c0e 80bc 14ed 20bd
00000030: b460 333d 4373 c23d b4ec b83d 3aa1 aebd
00000040: d089 2d3d 966d 66bd 1c4c 393c e37d e6bc
00000050: 7883 7ebc 8666 d8bc 8ad9 c13c ed7d 6fbd
00000060: 90c5 a03d 7dbe b0bb 66a2 9e3d 7598 b43c
00000070: 1aa7 1fbd 28d7 31bc f9af 413d 48ca 113c
00000080: 28a6 93bc cbf9 d8bc e5c6 7e3d 879c 873d
00000090: c207 583b 0be4 1bbd ed75 3e3d 97f6 06bd
000000a0: 4e5b 47bd 33f6 f33c 8fdd 333a 9ec4 103e
000000b0: 54b2 af3d 5ba3 52bd 51c1 cf3b 4ec2 7b3d
000000c0: df03 94bd 8fea e6bc 1a43 04bc 0e60 903d
000000d0: 3296 873c 2d07 2b3b 0f3a 9bbb 8ca6 b0bd
000000e0: 7e99 81bc ac2e a73d 96ff 903d 4f4c 44bd
000000f0: 06db 673d 7c25 c03b 688b a83d 10ad a8bc
00000100: d14d 8dbd d9da bb3a e020 dd3c 7061 72bd
00000110: f599 84bd 645b a23d 3b9d 2d3d 6f6b 5ebb
00000120: a400 d43d 089f 8c3d 199d 4cbd 6e2e c3bd
00000130: 1ad0 60bd 8c37 e73d 4268 2fbd 9304 a53c
00000140: 059b 103e 81ab 7bbd 2fe8 12bd 90ce b9bd
00000150: 8290 79bc 4971 c6bc f0d4 0abd b52e c9bc
00000160: b7eb 8e3d 3c6f 26bd 5ec1 86bd 3f3c b5bd
00000170: 8906 50bd 6718 50bd 8d8c 663d dd33 c9bb
00000180: 6b41 443d e267 903d dd2e a13d 6fb1 3dbc
00000190: 651a 3a3d 6141 683d b178 adbc d6b9 0bbc
000001a0: 95d2 95bc b279 9e3d f253 543d 8611 c1bd
000001b0: f7f5 183c 9a4e 803c e0e4 8cbc 41bc 14be
000001c0: 04a8 793c dd59 22bd 52f4 c2bd 087d 86bd
000001d0: 671d 5abc ecb8 a43d 3ffa 1e3d 5a01 913d
000001e0: 639b 4f3d 97f6 463c 7049 af3d 482c d93d
000001f0: 978f a43c f8b5 5c3d 9391 613d d48b 95bb
00000200: c1ff 973d 04e8 813d db4b 933d 6fc8 3a3d
00000210: d493 003d c349 613c 740b 373b 66b7 9ebc
00000220: 44a2 ac3a 0241 d33d 95e5 893d 2233 e73d
00000230: e357 0ebd 68c4 17bd a89b e8bb 31db d03b
00000240: 32ee 8fbd f498 6cbd 87a1 563d 5072 3a3d
00000250: 5f51 bdbd 2762 423c 0921 0c3d 362b 33bd
00000260: 30d6 9fbd 772c babd eb70 6cbc 1842 303d
00000270: c554 753c e553 0e3d 63fe 79bd 6793 9b3d
00000280: 6c1e aabc 1000 d1ba 7ae0 b73d 75c1 b6bc
00000290: 583c 7f3d 5ac9 333c 154b 77bd 5441 923c
000002a0: c778 68bc 7d7e 3ebd 2b55 853c fa17 bdbd
000002b0: 36d4 8abd d421 8a3c 6a69 acbd f264 683c
000002c0: c98d 51bd bf3c e63b 6f1c 4f3d b3e2 01bd
000002d0: 4198 4b3d 80f8 e5bc 9c9a c0bb 0f8a f5bc
000002e0: dbba 1bbd cff0 0b3b 849d 53bd 94b9 de3c
000002f0: 4de1 3dbb ecdf 3fbc 5ee6 2d3d 306d 78bd
00000300: 08f6 a8bd 4e66 b6bd 7ae9 0cbd 6a53 bf3b
00000310: d037 573c 3009 023d 8b24 163d 3b47 88bc
00000320: f853 973d d278 e6bc 377a 333d fd97 3fbd
00000330: 42b3 76bd 9c17 7cbb 0f30 b53c 8e9e e9bc
00000340: 9d62 63bd 1ce1 c73a 4495 043c a85f 65bd
00000350: 2996 6bbd 1194 92bd 782d 4a3d c45f 4ebd
00000360: 1fd2 1a3b 5b1b 3bbc 8355 ad3d 3973 9cbd
00000370: 58b8 463c 1a8a bfbd 40e1 353c 2f83 343c
00000380: 6e7a 3a3c 3be4 9a3c 356f 80bd 7c73 763d
00000390: 33a2 f23c 390b b83d 5e77 373d 09d3 c53c
000003a0: 3f21 e53c a1e9 8cbd 5eec 413d 50ac 673d
000003b0: 15a9 1b3d 2c33 57bd 0fab a9bd 1530 473d
000003c0: b21a 96bd cedf b7bd cb83 343d b37e b33c
000003d0: 95bc 8bbd 7811 003d 51be 2d3d 5205 abbc
000003e0: e5d7 dabc 895b 5c3d 72bb 183d 1bed 333c
000003f0: 7573 07bd 3ce2 a1bd eda9 93bd 1236 403e
-0.07471769 -0.076021425 -0.12311002 0.021010857 -0.057284933 0.0052691805 0.059101965 0.07566485
-0.051582113 -0.016860215 -0.015631728 -0.039288595 0.043793395 0.09494641 0.090295225 -0.08526845
0.042367756 -0.056256853 0.01130965 -0.0281362 -0.015534274 -0.026416074 0.023663301 -0.0584697
0.07850182 -0.0053938017 0.07745819 0.022045353 -0.03897772 -0.01085452 0.04728696 0.008898325
-0.018023565 -0.026486298 0.0622014 0.06621652 0.0032963608 -0.038059276 0.04649918 -0.03295001
-0.04867106 0.029780483 0.0006861323 0.14137504 0.08578935 -0.05142532 0.006340184 0.0614646
-0.07227301 -0.028188018 -0.008072639 0.07049571 0.01655111 0.0026096806 -0.0047371457 -0.08625516
-0.015820261 0.08163199 0.07079999 -0.047924336 0.05660536 0.0058638435 0.08229715 -0.020590335
-0.06899608 0.001433219 0.026993215 -0.059174955 -0.064746775 0.07927588 0.042386275 -0.0033938547
0.10351685 0.0686627 -0.049954507 -0.0953034 -0.05488596 0.112898916 -0.042824037 0.020143783
0.14121635 -0.061442856 -0.03586596 -0.09072602 -0.015232207 -0.02422394 -0.03389448 -0.024558404
0.06978553 -0.040633425 -0.065798506 -0.08849382 -0.050787482 -0.050804522 0.056286383 -0.006140216
0.04791395 0.07051064 0.078702666 -0.011577948 0.045435328 0.056702975 -0.021175714 -0.008528193
-0.01828889 0.07738055 0.05183787 -0.094271705 0.009335986 0.01566248 -0.01719898 -0.14524938
0.015237812 -0.03963648 -0.09519257 -0.065668166 -0.013312674 0.080430835 0.038812872 0.07080336
0.050685298 0.012143753 0.08558929 0.10604149 0.020088 0.053884476 0.05507047 -0.004563788
0.07421828 0.063430816 0.07192203 0.045601305 0.03139098 0.013750496 0.002793041 -0.01937456
0.0013170918 0.10315134 0.067332424 0.1128905 -0.034751784 -0.037052542 -0.007098634 0.006373786
-0.07027854 -0.057763055 0.05240014 0.045519173 -0.09244036 0.011864222 0.034211192 -0.04374238
-0.07804525 -0.09090512 -0.014431219 0.043031782 0.014973824 0.034747977 -0.061033618 0.07596474
-0.02076646 -0.0015945453 0.089783624 -0.022309044 0.062313408 0.010973299 -0.06037434 0.017853417
-0.014188952 -0.046507347 0.016275963 -0.09233089 -0.06778757 0.016861834 -0.08418544 0.0141842235
-0.051160607 0.0070262845 0.050564226 -0.031710338 0.049705748 -0.028072596 -0.005877806 -0.029973058
-0.038019996 0.002135325 -0.05166389 0.0271881 -0.00289734 -0.011711102 0.042456023 -0.060651004
-0.08250052 -0.08906232 -0.034402348 0.005838801 0.013135865 0.031747043 0.036655944 -0.016635528
0.07389063 -0.028133783 0.043817725 -0.046775807 -0.060229547 -0.003846622 0.022117643 -0.028517988
-0.055513967 0.0015249583 0.008092228 -0.055999428 -0.05751625 -0.07157148 0.04935977 -0.050384298
0.0023623777 -0.011420096 0.08463576 -0.076391645 0.012128912 -0.09352513 0.011101067 0.011017605
0.011381729 0.018907657 -0.06271211 0.06016873 0.029618358 0.089865156 0.04479157 0.024148481
0.027969955 -0.06880499 0.047344558 0.056560814 0.038003046 -0.052539036 -0.0828458 0.04862984
-0.073293105 -0.08978234 0.044071 0.021911 -0.068230785 0.03126666 0.042417828 -0.02087656
-0.026714275 0.053798232 0.037288137 0.010981823 -0.033069093 -0.07904479 -0.07210145 0.18770626

conv2.0.bias f4 [32]
00000000: a22a b5bb dc15 163e d9e7 ce3c f24c 043d
00000010: 6851 ae3d 7c6b 0e3d 6c3a 4b3d 3d83 22bd
00000020: ea53 6f3d 85ab 9a3d b24a 39bc 08d6 553d
00000030: b44d 973c 37e4 f63c ca93 6cbd 9b82 733d
00000040: 84b6 de3d 2980 94bd 2012 793d 8537 c23d
00000050: ee6d 233d e412 39bd 0d33 7d3d 7089 b93d
00000060: 06ce e63d cc40 5e3d 1547 8d3d 552a 92bd
00000070: 067d d53d e591 793d 22ec 04bc 2c89 eabd
-0.005528764 0.14656776 0.025257038 0.032299943 0.08511621 0.034770474 0.049616262 -0.03967594
0.058429636 0.07552246 -0.011309313 0.05220607 0.018469669 0.030138118 -0.05775813 0.059450727
0.10874656 -0.07251007 0.0608083 0.09483246 0.03989976 -0.04518403 0.061816264 0.09059417
0.112697646 0.054261014 0.068983234 -0.071369804 0.10424237 0.06093015 -0.008112939 -0.11451945

conv3.0.weight f4 [64, 32, 3, 3]
00000000: 69dc 5abc 331a 3bbc efc4 3d3d dedb a63c
00000010: 6427 da39 efe1 903d 1c6f f4bc 4b90 6cbc
00000020: 5637 2d3c 0703 843c 6ce9 8b3d 1400 653d
00000030: 98be 693c c925 4f3d 4981 343c ab85 23bc
00000040: 1ebd 383d 7b92 253d e159 a4bc 1e96 353d
00000050: f7ef 453b a3ca 37bd f857 4ebd 6b97 8837
00000060: 400e 90ba 9ab8 9dbc cf25 623c ba19 6d3d
00000070: c190 3e3d 6720 91bd 72dd 943c 8f9c df3c
00000080: d864 51bd e1b9 eb3c 22ef 8aba f1dc b83c
00000090: 13f5 ed3c 9d5e 7bbc 3467 04bc fd16 c53c
000000a0: 8eb7 9a3c ea70 aebb 9710 053c 59f3 45bd
000000b0: d35e 23bd 11ea e63c 458e 0ebd 836c 213c
000000c0: 301a 623d edbc 9a3c cb29 41bd b3bc d7bc
000000d0: 7324 b139 c77e 24bd 1f6f 90bd 8ac9 383c
000000e0: 6c5c 39bd 0d34 383a 15ab 843d a374 0bbd
000000f0: 1704 21bd a580 c0bb 0732 173c c735 123d
00000100: 8e70 74bd ac43 143c 0be1 283a 785a 96bc
00000110: cee4 913d 4872 a73c cbbb 83bc 6a27 993c
00000120: c9e8 82bd df1d 793d 6633 14bd 5ca6 90bd
00000130: e766 4abd 13ba 7bba 5927 683c d517 bc3d
00000140: 382a a83c 6e49 acbd fc12 3b3d 5956 80bd
00000150: 2039 8dbd 44ec a83c 1513 4a3d d505 953c
00000160: 9abb 8fbd 0798 d0bc a001 0ebc 7ff1 463d
00000170: 077b 1f3d 422d 8e3c 1b82 06bd 6300 90bb
00000180: 26a5 40bc e870 19bd 2405 e7bb 88e0 08bd
00000190: fe4c a138 1050 8ebc 43f5 3fbd 6b95 c3bc
000001a0: b783 84bc fafc c0bc 5eed c2bc 8220 de36
000001b0: 5e6c b8ba e8a8 e9bc 345c 7e3c 34b6 cfbb
000001c0: 06ea 5d3d a002 32bd 0cb5 903c a1e4 563d
000001d0: edd9 fabc 18e5 9abd 45b8 08bc 7158 38bd
000001e0: eb62 ce3c e8e9 9a3b 352a 113b d449 8abc
000001f0: cde5 993c e4f0 473b f058 30bd 5269 e3bc
00000200: e03f 8bbd 98b6 c0bc 64e9 423c 74f2 903d
00000210: 4a6d 6cbd 8b0b 38bd 5e0b 9ebc 7643 2a3d
00000220: 8ae0 2b3c f282 18bc 9137 5bbc 3fcb 6ebc
00000230: b4d4 00bd 4e92 a9bc 9f2a 373d c385 71bd
00000240: ece2 57bb 65f7 f9bc 3433 40bb 7bd4 173c
00000250: ec37 c43c a7c3 9a3d db15 363d 96da cf3c
00000260: 6e23 493d e5a6 9c3b 9bd9 8cbc 9855 79bb
00000270: 833e ad3b 4e5b 64ba 3429 29bd b13c a8bc
00000280: 93a5 46bd c450 1d3d 8a43 64bc 64f4 a7bc
00000290: f7c0 b7bc 2441 363c 3246 1e3d c029 8ebc
000002a0: 2440 41bd 8f56 8fbd b6e3 7cbd f5dc d8bd
000002b0: 6765 86bd b791 d73c fc95 1dbd afe2 e63c
000002c0: a364 603c decc 243b e590 44bd feda d7bc
000002d0: b865 31bd ec86 ddbb 9ae1 9b3b 2c31 04bc
000002e0: 51cd 39bc 78d1 6fbc ba5e ba3c b6d7 6a3c
000002f0: 82b1 94bd 351d 82bd c559 e1bc c11f 1ebc
00000300: b2f5 04bc 8eb6 da3b 85cb 873d 493a febc
00000310: bf1e 613d 308b 33bd 2935 acbd ef8b 2cbd
00000320: 869a 9fbd 4dfd a0bd a5a5 7b3d d709 183b
00000330: b7f1 5bbd b526 fa3b 9535 8eba 2ded b8bd
00000340: 96ef 603d 25b4 cebc aa7c 823d 1b86 a33d
00000350: 8e1a 423d a8a3 b8b9 5cad 353d b97e 6b3a
00000360: a487 35bd 2867 bdba ec48 dfbc f87e 4cbd
00000370: 7fbd d23c 2c50 263d efd0 0dbd a3e3 863d
00000380: 2ed7 813d a19d 913b 722e f83c e5fd 413d
00000390: 2b4f 66bd 6695 9d3c 43c7 88bd 4209 54bd
000003a0: c6e1 243d f88e 3f3d 99e3 41bd 9e48 933c
000003b0: dde1 e0bc aa8a 9d3a a9b1 833d 09fe 4ebc
000003c0: 93ec 3fbd a049 69bb 59af eb3c 0657 d13b
000003d0: 3e9d 583d a1e5 a13c b0a8 59bd 21c3 8f3d
000003e0: 81c9 e33c f055 35bd 42c8 383c 6fab 9f39
000003f0: 0059 05bd cc8f 77bd aa9b 01bd a647 0cbc
-0.013358214 -0.011419821 0.04633039 0.020368513 0.00041609548 0.070743434 -0.029838137 -0.014438699
0.010572275 0.016114725 0.06831631 0.055908278 0.0142666325 0.050573144 0.011017152 -0.009980599
0.04510223 0.040422898 -0.020062389 0.044332616 0.0030202845 -0.044870984 -0.050376862 1.6282973e-05
-0.0010990575 -0.019253064 0.01380296 0.057885863 0.046524767 -0.070862584 0.018172 0.027296333
-0.051121563 0.028775157 -0.0010599832 0.02256629 0.029047525 -0.015342382 -0.008081246 0.024058813
0.018886354 -0.005323519 0.008121631 -0.048327778 -0.039885353 0.028187783 -0.034803648 0.009852531
0.055200756 0.018888915 -0.047158998 -0.026335096 0.00033787228 -0.040159967 -0.07052445 0.011278519
-0.045254156 0.0007026799 0.06477944 -0.03404678 -0.03931054 -0.0058747106 0.009228236 0.035695817
-0.059677653 0.009049337 0.00064422254 -0.018353686 0.07123719 0.020440236 -0.016080758 0.018695552
-0.063920565 0.060819503 -0.03618183 -0.070629805 -0.04941454 -0.00096026174 0.014169537 0.09184233
0.020527944 -0.08412443 0.0456724 -0.062664695 -0.06895661 0.020620473 0.049334604 0.018191257
-0.07018204 -0.025463117 -0.00866738 0.048570152 0.038935687 0.017355565 -0.032838922 -0.0043945774
-0.011758124 -0.03746119 -0.0070501734 -0.033417255 7.691419e-05 -0.017372161 -0.04686476 -0.023874959
-0.016176088 -0.023558129 -0.023794826 6.6199e-06 -0.0014070382 -0.028522924 0.015524913 -0.006338859
0.05417826 -0.043459535 0.017664455 0.05246413 -0.030621493 -0.075632274 -0.0083447145 -0.04500622
0.025193652 0.004727591 0.0022150401 -0.016880907 0.018786335 0.0030508572 -0.043053567 -0.027760182
-0.067992926 -0.023524567 0.011896465 0.07077494 -0.057721414 -0.044932883 -0.01929253 0.041568242
0.010490546 -0.009308564 -0.013379947 -0.014574825 -0.03145285 -0.020699646 0.04471838 -0.058965456
-0.0032941652 -0.030513475 -0.0029327394 0.009266968 0.023952447 0.07556849 0.044454437 0.025372785
0.049106054 0.0047806376 -0.017193606 -0.0038045403 0.005286993 -0.0008711115 -0.04129906 -0.020536752
-0.048497748 0.038407102 -0.013932118 -0.020502277 -0.02243088 0.011123929 0.038641162 -0.017353892
-0.04718031 -0.069989316 -0.0617406 -0.10589019 -0.0656231 0.0263146 -0.038473114 0.028184263
0.013695869 0.0025146524 -0.047989745 -0.02634954 -0.043309897 -0.0067604687 0.0047571184 -0.008068364
-0.011340455 -0.014637344 0.022750247 0.014333656 -0.072604194 -0.06353227 -0.027508626 -0.009651125
-0.008115219 0.0066745942 0.06630615 -0.031033652 0.054960962 -0.04383391 -0.08408577 -0.04212564
-0.07793145 -0.07860813 0.061437268 0.0023199224 -0.053697314 0.007634009 -0.0010849709 -0.09029613
0.054915987 -0.025232384 0.06371434 0.07984563 0.047388606 -0.00035217148 0.04435478 0.0008983422
-0.04431881 -0.0014450299 -0.027256452 -0.049925774 0.025725124 0.0406038 -0.034623083 0.06586387
0.063398704 0.0044438397 0.030295584 0.047361273 -0.056227844 0.019236278 -0.06678631 -0.05176664
0.040254377 0.046767205 -0.047336195 0.017978963 -0.02745145 0.0012019475 0.0643037 -0.012633809
-0.046856474 -0.0035596862 0.028770136 0.006388548 0.052884333 0.019762816 -0.05313939 0.0701964
0.027806045 -0.04427141 0.011278214 0.0003045457 -0.03255558 -0.06043987 -0.031642593 -0.008562004

conv3.0.bias f4 [64]
00000000: 7cce 14bd dab0 783d b88e 903c 06fc 3b3c
00000010: adba dfbc 11b3 693c 0266 653b a371 3a3d
00000020: 9b88 e93b 770d a5bd 8e31 eebc 17ac 89bc
00000030: 6759 01bc 8a1d 263d 258d 103d a7db 81bd
00000040: 1318 8e3c ec7a 453d eea6 b53c c4b3 403d
00000050: d8c8 e1bb 4154 b53c 5fff 39bc 7836 963c
00000060: 0030 563d bda1 9e3c 4ef5 b5bd 9196 52bd
00000070: 564f 8fbd 632d 353d 6f25 3b3d 5556 053d
00000080: f264 0d3d bb89 52bb 9efd 4cbd 321c b0bc
00000090: 490f 733d 2949 eabb f188 953b 3699 b33c
000000a0: b6f9 133c 7234 a8bb b53a e3bb 7967 bdbc
000000b0: cb60 593d 7735 533d 9a96 d1bc c3ec 4639
000000c0: c663 b13c 1186 ea3c f7b6 c1bd 396d bc3c
000000d0: e222 833c 8d40 e53b f6b8 3b3d a1d1 4f3d
000000e0: f224 82bc 1960 f63b 563a 6fbc 370e 563d
000000f0: f90a 2abc 0ea2 243d ea6d c43c 5f0b 013c
-0.03632973 0.060715534 0.017646179 0.011473661 -0.027310694 0.014263884 0.0035003428 0.04551853
0.0071268803 -0.08059209 -0.029076364 -0.016805692 -0.00789485 0.040555514 0.035290856 -0.063407235
0.017345464 0.04821293 0.022174325 0.047046438 -0.0068903975 0.022134902 -0.011352389 0.01833652
0.05229187 0.019364232 -0.08884679 -0.051413123 -0.06997554 0.044232737 0.045689996 0.032553036
0.034520097 -0.003212555 -0.050046556 -0.02149782 0.05934075 -0.0071498347 0.004563444 0.021923643
0.009031704 -0.005133205 -0.0069344887 -0.023120629 0.053070825 0.05156466 -0.025584508 0.00018970952
0.021654021 0.028628381 -0.09458726 0.0230013 0.016007844 0.0069962204 0.04583069 0.050737027
-0.015886758 0.00751878 -0.014601311 0.05225965 -0.010378593 0.04019361 0.023978192 0.007876246

conv4.0.weight f4 [128, 64, 3, 3]
00000000: 0bb9 dcbc b70b f13c 712f 3cbd 425c 003d
00000010: 7256 6d3c a0f4 d7ba b60c edbc 49b3 763c
00000020: 23b6 ccbc a2b2 343c c853 3d3d 4bd5 a73c
00000030: bf4f 60bd 7c73 5cbd 0353 083d 1a9d 95bc
00000040: 60c2 84bc 7a7b 9cbc 4ad7 613c 4452 a23d
00000050: b60e 0ebd 189e 07bd 0f7a 07bd 7ddd 2abc
00000060: 468f a3bb c62a dcbb bdd7 9d3c 51d6 bdbc
00000070: 7555 44bd 27da b5bc 8a44 c23c 2f16 333b
00000080: 02eb 97bc c3db 743c 511a 0cbd 30fd c2b9
00000090: effc 08bc 0248 9f3c 5dfa bfbc cf00 2b3d
000000a0: e3fc 113b 104d 3bbd 2508 23bd 5550 c5bc
000000b0: c318 983c 2e79 923c 143e 42bd 3363 653b
000000c0: 3265 15bd 98c1 8d3c adf6 3dbb 486b d83c
000000d0: e710 a63b a109 27bc 3e34 e3bc 7a9b c73c
000000e0: cbc6 323d 04cb 3abd a664 1cbd 6765 603b
000000f0: 3d45 4bbd 58cb 17bd 82b8 55bd e3c4 b2bc
00000100: 413e 313c 6f79 e9bb 465e 993b a948 783b
00000110: 718b 2bbd 332d 49bd 02d6 0fbd 9e47 91bc
00000120: 8ccc eabc 8ec5 e5bc d6bb 36bd 74ba 353c
00000130: ddcc c9bc c814 2bbd 0fa3 acbc c08f 0f3d
00000140: 349e 41bd 3762 32bd c3bb e83c 1445 163d
00000150: 1b83 10bd febd 1bbd 2553 9d3c cc4c 8a3c
00000160: 4177 f5bc 86de 843c 1b18 06bd 168b ba3c
00000170: 662d 053c df14 e33c e644 59bc f6eb 86bb
00000180: b0e8 90bc eb57 20bd dcf5 d63b 911a fa3c
00000190: 0e48 59bc 083a 333c 2001 fbbb 3027 f33c
000001a0: 83e6 69bd a64c 843b b882 b8bc 2d05 28bd
000001b0: f6df 85bb 5611 d3bb 1a09 053d 57d6 743b
000001c0: 42b4 8bbd d570 71bd 972b 193c 42d5 90bd
000001d0: caa3 6bbc 7d52 053d 0f7f 8b3b 25cb 0e3d
000001e0: daf6 1d3d 07d4 96bb 941a 4bbc 4b3e 833b
000001f0: c965 48bd 5939 8cbd 500a e23b b637 0d3c
00000200: b9e4 81bc beb9 69bc 786e 803c e467 063d
00000210: b03b 82bd 2d4d 14bb c7dd 953c 522f 0dbd
00000220: 9ba2 0cbd 440d 1fbd fa08 903c aca6 be3c
00000230: 9d4d 73bd 2125 28bd e10a 0e3d b950 0838
00000240: 5a9e dfbb 6a04 87bd 72d9 8c3c e782 d1bc
00000250: 0dc9 47bd 6886 913a 8226 ec3c 5d75 053b
00000260: 938b 6b3d b960 05bb ad58 36bc 1e97 0a3c
00000270: 90e8 31bc e0b8 a53b d6fc 3c3c f85a 05bd
00000280: 0cd9 023c cf81 ccbc 97fd 25bd fbff 583b
00000290: 153f 03bb 32aa f0bb 98a3 0dbd 9812 31bd
000002a0: 3142 70bc db80 4bbd 52bb 86b9 27a5 32bd
000002b0: de53 01ba 8c98 f9bc 9482 b8bc b345 253c
000002c0: e629 9dbc 4311 45bd 298e d63c 138d 3abc
000002d0: c926 ae3c efc9 673c c3d0 193c 508c ef3b
000002e0: d5e7 0bbd 9078 933c 3aa2 b13c 367c 07bd
000002f0: ee31 9fbc d8ef de3a 214f 213d bfbf 353d
00000300: beb5 323a 27dc 97bc f159 22bc 3ad0 ddba
00000310: 97ec d8ba be54 28bd 3226 20bd ae98 4fbb
00000320: 75a7 613b f02f 7fbc bbbb beba a3a2 e23c
00000330: 6645 d3bc 9101 01bd 9725 e6bc 3560 90bc
00000340: f84f 033c 24e3 bbbc 7fc6 f03c dfdd 4e3c
00000350: 3715 25ba 1772 ae3c 222c 40bd 6733 813c
00000360: 5e68 8d3b ea7e b33d c0e1 76bc a75c 00bd
00000370: 6274 b2bc dd74 523c 3fe5 473d eeb9 a33c
00000380: b270 c63c 7632 15bc 6ad8 f83c eada b0ba
00000390: b80d a3ba 9740 efbc dbb7 483c c237 9c3c
000003a0: f795 34bd f3b6 ba3c ad18 f2bc 7a94 fe3b
000003b0: 5417 4b3c 2180 79bc a62b 9b3c 3b3e 35bd
000003c0: 3b17 fbbc 94d4 a03c 23e9 903c 9596 27bd
000003d0: d4ed fb3c a46d 943c 2453 b33c fb60 643c
000003e0: 052e 2ebd 190d 7abd 1386 2cbd 8d4e 003d
000003f0: 1fce 0dbc 43fb d63b 312a f33c 152b 33bd
-0.026943704 0.029424531 -0.04594368 0.031337984 0.014485942 -0.0016476102 -0.028936725 0.015057393
-0.024989193 0.0110289175 0.04622248 0.020487448 -0.05476355 -0.053821072 0.03328229 -0.018263388
-0.016205966 -0.019101847 0.013784239 0.07925847 -0.034682 -0.033109754 -0.03307539 -0.0104287835
-0.0049914448 -0.006718966 0.019267911 -0.023173483 -0.04793306 -0.02219875 0.023714323 0.0027326455
-0.018544678 0.014944973 -0.034204785 -0.00037191203 -0.008361085 0.019443516 -0.023434812 0.041748818
0.0022275976 -0.04572779 -0.03980269 -0.024086157 0.018566495 0.017880049 -0.047422484 0.0035001754
-0.03647346 0.017304227 -0.0028986142 0.026418343 0.005067933 -0.010195167 -0.027734872 0.02436613
0.043646615 -0.045603767 -0.038181923 0.0034240128 -0.049626578 -0.037059158 -0.052177913 -0.021822399
0.010818065 -0.0071250717 0.0046804277 0.0037885106 -0.04188103 -0.04911537 -0.035116203 -0.017734345
-0.028661989 -0.028048303 -0.044612728 0.011091817 -0.02463382 -0.041767865 -0.021073846 0.0350492
-0.047270015 -0.043550696 0.028409844 0.03668697 -0.035281282 -0.038022988 0.019204685 0.016882323
-0.029964091 0.016219389 -0.032737833 0.0227714 0.0081285 0.027719913 -0.013261056 -0.004117484
-0.017689079 -0.039146345 0.0065600704 0.030530246 -0.013261808 0.010939129 -0.007660046 0.029681772
-0.0571046 0.0040374575 -0.022523269 -0.04102056 -0.004085536 -0.0064412756 0.032479383 0.0037359202
-0.06821491 -0.058945496 0.009348772 -0.07071926 -0.014382312 0.03254937 0.00425709 0.034861702
0.038565494 -0.0046029123 -0.012396473 0.0040052286 -0.048925195 -0.06846876 0.006898202 0.00861924
-0.015856134 -0.014265476 0.015677676 0.03281392 -0.06359041 -0.0022629008 0.018294228 -0.034468956
-0.03433476 -0.03883101 0.017582405 0.023272835 -0.05940019 -0.041051034 0.034678344 3.2500106e-05
-0.006824297 -0.06592639 0.01719353 -0.025575114 -0.04877572 0.0011102678 0.028826956 0.0020364143
0.057506155 -0.002035184 -0.01112954 0.008458881 -0.01085867 0.005057439 0.01153489 -0.032557458
0.007986318 -0.024964241 -0.040525045 0.003311156 -0.0020026613 -0.0073445076 -0.034579843 -0.043230623
-0.014664219 -0.049683433 -0.00025698036 -0.043614533 -0.00049334567 -0.030468248 -0.022523202 0.010087418
-0.019185018 -0.048112165 0.026190834 -0.011386174 0.021258729 0.014147266 0.009388152 0.0073104277
-0.03415664 0.018001825 0.021683801 -0.03307744 -0.019432988 0.0017008735 0.039382104 0.044372316
0.0006817243 -0.018537594 -0.009909139 -0.0016923018 -0.0016550001 -0.04109644 -0.039098926 -0.0031676698
0.0034432088 -0.015575394 -0.0014551798 0.027665442 -0.025789928 -0.031495634 -0.028094096 -0.017624
0.0080146715 -0.022935458 0.029391525 0.01262614 -0.0006297412 0.021294637 -0.04691709 0.01577158
0.00431542 0.08764441 -0.015068471 -0.03133836 -0.021784011 0.012845245 0.04880261 0.01998612
0.02422366 -0.009106269 0.030376632 -0.0013492976 -0.0012440002 -0.029205604 0.012250866 0.019069556
-0.04408833 0.022792315 -0.029552782 0.0077691646 0.012395699 -0.015228302 0.018941712 -0.0442488
-0.030650726 0.019632615 0.017689293 -0.04091509 0.030753054 0.018118687 0.02189023 0.013939138
-0.042524356 -0.061047647 -0.04212005 0.03132491 -0.0086551 0.0065607144 0.029683204 -0.043742258

conv4.0.bias f4 [128]
00000000: 716b 5abd 80cb 2dbc b51c c03b 0207 f53b
00000010: ebac 5dbc a00f 9bbc 10ad 32bc 2e15 a53c
00000020: 18c5 06bd c687 01bd feb7 1b3c 10da 963c
00000030: acba 173d dd7a 5d3c fa8d dd3c 09c6 7c3d
00000040: e928 083d f8ed 1ebd 58ae ffbc 1079 10bc
00000050: 5737 6e3d 36cf 793d 00c9 22bb 76e0 c73d
00000060: 7d8d 8a3d 6ed9 b9bc f8e1 b23d f563 013c
00000070: 8f54 5a3d c0ce b6bc bd8f 6abc 1eeb 9fbc
00000080: 0bf9 833d 5006 463d 50bc c43c 1383 763a
00000090: 221c a53b edd2 523d d6cb e2bc 1478 4f3c
000000a0: e85e 983d c670 12bc 139b 073b 5221 1fbd
000000b0: 31ce 73bd e7d3 cabc aab4 cb3c f21b a4bc
000000c0: d282 9f3c 6193 a1bc febc 68bd 69c9 76bd
000000d0: 7dce 093d 6f3d 683d 5b9c 453d 5ff4 1abd
000000e0: a34d b63c 5c09 523c 616b 3a3b 6de6 503d
000000f0: 2040 abbd 0c6c d2bb 45d4 063d 2d0d 09bc
00000100: d1da a63d 3e69 103d f98d 8ebd a49d 493d
00000110: 50b6 8abb 271c a4bd 9208 8dbd c6f8 1cbd
00000120: 1472 393d f19d 163c 588b 453d dca0 103c
00000130: 354d 83bd 40b1 573b e7b8 5d3d 2ff8 063b
00000140: 3c12 30bd 8d7a 0dbd 7f8f f03c 7564 903d
00000150: 4797 263d 3a30 17bd e51d 10bd 3968 a3bd
00000160: e6b6 903d 4c3e 2f3d fea8 70bb 85b7 843d
00000170: f17e 9737 51fa db3c 5470 8f3d f063 c43c
00000180: 09f2 94bd 9173 003c 725a a2bd 0666 ccbb
00000190: 9529 903c 4bac 8a3d 452e 9bbc edc9 4dbd
000001a0: 9857 833d 3d03 673d 992f b2bc 26d4 163d
000001b0: 5169 a83c fee8 95bc 4f58 2abd b532 c2bc
000001c0: 2748 963d 2ee3 963d c978 953d 373a c43c
000001d0: 1d31 f3bc 70fd 38bc 5ba2 86bd fb80 833d
000001e0: 6831 e6bc 2f9c 29bd 5e0e 393d dd8a 18bd
000001f0: 8851 8a3d fa42 533d 7fad 55bc 7c79 1f3c
-0.05332512 -0.0106076 0.005862797 0.007477642 -0.013529996 -0.018928349 -0.010905519 0.0201517
-0.032902807 -0.031623624 0.009504316 0.018414527 0.03704326 0.013518062 0.027045239 0.0617123
0.03324214 -0.038801163 -0.031211063 -0.008817926 0.058158245 0.060988627 -0.0024839044 0.097596094
0.06765268 -0.022686686 0.08734506 0.007897367 0.053303298 -0.022315383 -0.014316496 -0.019521292
0.064439856 0.048345864 0.024015576 0.0009403687 0.005038754 0.051470686 -0.027685087 0.012662906
0.07439977 -0.00893802 0.0020691797 -0.038850136 -0.05952281 -0.024759246 0.02486642 -0.020032857
0.01947156 -0.019723596 -0.056820862 -0.060250673 0.03364419 0.056699213 0.048244815 -0.037830707
0.022253817 0.012819614 0.002844535 0.051001 -0.0836184 -0.0064215716 0.03291728 -0.008364958
0.08147205 0.035256617 -0.06960673 0.049222603 -0.004233159 -0.08013182 -0.068864 -0.038323186
0.04527481 0.00919293 0.04822859 0.008827414 -0.064112104 0.0032912046 0.054131415 0.0020594706
-0.04298614 -0.0345407 0.0293653 0.07050411 0.040671613 -0.036911227 -0.03518476 -0.07978863
0.07066135 0.04278402 -0.003672182 0.06480316 1.8059714e-05 0.026852759 0.07003847 0.023973435
-0.07272727 0.007840053 -0.07927407 -0.006237748 0.017597953 0.067711435 -0.018942961 -0.0502414
0.064131916 0.056399573 -0.021751212 0.036823414 0.020558031 -0.018299576 -0.041588124 -0.02370582
0.07337981 0.0736755 0.072984286 0.02395354 -0.029686505 -0.011290893 -0.065739356 0.064210854
-0.02809973 -0.041408714 0.045179717 -0.037241805 0.06753832 0.051577546 -0.013041853 0.009733554

linear.weight f4 [3, 35712]
00000000: 1637 9abb 5c11 edbb 7531 f339 5389 c43b
00000010: 0188 623b fd3e d33b b0b3 663c 7de7 843c
00000020: 2608 423c 95b2 09bc 7e4d 9e3b 9826 ae37
00000030: 7dc2 64bb b717 5e3c 9b24 83bb 086d 83bb
00000040: d0da bb3b a0b0 5e3b d7eb 3c3b 879f c1bb
00000050: 01cb 08bb bfe3 d6ba 556b fcbb f574 b0bb
00000060: e5b8 cebb 06ee c5bb bc68 b8bb 4844 833c
00000070: 8eb2 b0ba 5cff e23a a56a 9b3b 6c56 27bd
00000080: a879 62bc 01b4 ad3b 2317 933c 2aed 303d
00000090: 5704 5dbc d277 fcbb 0439 07bb c2bb 233c
000000a0: 14b2 123b 088b 8c3b 06a9 063b bcc2 433b
000000b0: c9b5 db39 3985 efb9 c277 883b 0b43 963b
000000c0: 22b7 dd3a f3f5 5e3c 434e 2bbb 0662 1fbb
000000d0: 635a 41b9 f534 04bb 5dd6 92ba a9b4 81bb
000000e0: 23db 07bb 9b2c 9e3c 3b58 d03c abee 863b
000000f0: 776f a43c d37d eb3b 01de ecbc a7cd 82ba
00000100: 6fe8 003c 7eb4 a1bb 0315 8ebc 21be 513d
00000110: a9c3 65bc 15fe 813a 7d06 353c 2d19 ea39
00000120: c5da 903b ded1 963a 01d2 9dbb 166a a73b
00000130: 29df ddba 6797 b33b 8289 dc3b c2a3 b13b
00000140: c7cf ae3a 6515 d33b e262 31bb 6037 843b
00000150: 96c8 72bb 4afa 27bb 7d43 debb fd14 05bc
00000160: 9280 3c39 b2a1 043d 70ea 173c 1ca2 233b
00000170: 7fdd 80bb efe3 06bc 9b24 3abc 5f2f ef3a
00000180: 098b ce3c c423 313c 98cb 03bc e012 96bb
00000190: 1349 33bc d5ec 39bc 262a ba3c 8672 2ebc
000001a0: 8ced c6b9 baec 2bbc db5e f73c 6758 02bc
000001b0: bb49 b1bc 3c00 66bc 8d93 6cbb 87eb b1bb
000001c0: 6cc9 a9bb fbcb 10bb ebfd c9bb fc8b e73b
000001d0: ced0 c2ba 0ffd 3bbc 596f b5bb cbab dc3c
000001e0: 5d93 133d f794 1fbc 82bc 683b 24b8 6abb
000001f0: 32b6 3d3c b885 bfbc da42 b53d d321 693b
00000200: d2f9 563c fbed f1bb 333b afbc 63c1 e33c
00000210: 7b78 aebb e914 c8bc f9ce da3b 60b1 1a3c
00000220: 6b75 c3bc 2e57 3b3d 9425 283d 7cee df3b
00000230: 8989 fc3c ba9d 44bb 5190 80bc 07f5 d5bb
00000240: 6e72 e53c be66 0fbc 24d3 c8ba b923 c73b
00000250: 0d55 d9bc 8896 e9bb 3b8a 413c a7e8 ec3c
00000260: 6ee2 90bb 6811 923a 0f25 48bb 12c5 aabc
00000270: c707 f5bb 0a57 a53d 3778 5b3d 847d 28bd
00000280: 31f9 1cbc 7447 05bd 7501 bf3b ae1a 90bb
00000290: 660f 843c da9f cbbb e54a eb3c 7f64 a4bd
000002a0: ede6 febc d480 d73c eada b1bc fdd3 4a3c
000002b0: badc 0c3c 97d0 383b 4132 26bb 4433 203c
000002c0: 2f67 e93a a9f2 e7bc 3e6c eabc 26c3 c0bc
000002d0: f63f 80bc c95b 9cbb 14ff 82bb 828c 07bb
000002e0: 3a45 193b 6098 71b9 d91e 73bb f619 37bc
000002f0: 2c10 08bc 6970 76bc 307a e9bc 3d50 1bbc
00000300: 82fa 3e3a 0eb3 0d3d 9b07 4d3d 6e8d 473d
00000310: c2be 5eba 854b 943c 084c 88bc 8cc8 a8bd
00000320: c953 8ebd d805 2fbd da0d 713b 7c04 133b
00000330: d82d d83c 1d93 a8bc 1ee1 88bc 1945 89bd
00000340: 6627 8cbb 8ef9 8bbc 4413 19bd bd73 f4bc
00000350: c67e 0f3b e55d a4bb 82bd dcba f798 a7bb
00000360: 842f 95bb 2e2c d4bb 6c84 0bbc 362b bb3b
00000370: 0e24 21bc c65d 7fbb a0ca b4ba 3efd 78bb
00000380: d56b ca3b d467 d83b 8341 e8bc 7132 313c
00000390: f451 473b 4c71 53bc cf8c 16bc c767 653b
000003a0: 2614 0dbc 4ef9 ce3b ed0d 8d3c 80c8 a73a
000003b0: a691 f2bb 27a4 e1bb f57a b13b d9b7 13bb
000003c0: e718 d6bc 185b 8eba eebe 3a3b 2a26 113b
000003d0: 8b75 a4bb d409 d33a c3a7 953b 40b3 a9bb
000003e0: e8d2 9ebb 639f 34bb 81ad e33b de17 b4bb
000003f0: 1e5f f63b 5cfd 65bb cc51 1bba 1943 113b
-0.004706274 -0.0072347354 0.0004638542 0.0059978156 0.0034565928 0.006446718 0.014080927 0.016223663
0.011842763 -0.008404394 0.004831015 2.0760388e-05 -0.0034905963 0.013555459 -0.0040021664 -0.0040108003
0.0057328716 0.0033979788 0.0028827095 -0.0059089097 -0.0020872953 -0.0016394778 -0.0077032247 -0.005385036
-0.0063086622 -0.0060403375 -0.0056277197 0.01602377 -0.0013480948 0.0017318535 0.0047429376 -0.040853903
-0.01382295 0.005300999 0.017955368 0.043194927 -0.013489804 -0.0077047134 -0.002063335 0.009993495
0.0022383975 0.0042890348 0.0020547523 0.002987071 0.00041906376 -0.0004568489 0.004164667 0.004585629
0.001691554 0.013608444 -0.0026139177 -0.00243199 -0.00018439586 -0.0020173166 -0.0011202801 -0.003958304
-0.002072998 0.019308379 0.025432697 0.004117807 0.020072682 0.0071866303 -0.028914453 -0.0009979502
0.0078679165 -0.0049348464 -0.017344004 0.05120671 -0.0140237 0.0009917641 0.01104891 0.00044650715
0.0044206106 0.0011506637 -0.004816294 0.005109082 -0.0016927469 0.005480695 0.0067302594 0.005421133
0.0013337069 0.0064417594 -0.0027066995 0.0040349215 -0.0037045828 -0.0025631362 -0.0067829476 -0.00812268
0.00017976973 0.032380767 0.009272203 0.002496845 -0.0039326544 -0.008233055 -0.0113612665 0.0018248371
0.025212782 0.01081175 -0.008044146 -0.004579887 -0.010942715 -0.011347969 0.022725176 -0.010647422
-0.0003794249 -0.010493452 0.030196598 -0.007955647 -0.021641603 -0.014038142 -0.003609869 -0.0054296884
-0.005181482 -0.0022094238 -0.0061643026 0.007066248 -0.0014863254 -0.011473908 -0.0055369553 0.026937386
0.03602921 -0.009740106 0.003551275 -0.0035815323 0.011579083 -0.023379192 0.088506415 0.003557314
0.013121085 -0.007383106 -0.021390533 0.027802175 -0.005324421 -0.024424033 0.006677505 0.009441704
-0.0238597 0.045737438 0.041051462 0.0068338495 0.0308273 -0.003000124 -0.015693815 -0.0065294537
0.028008666 -0.008752523 -0.0015321714 0.0060772565 -0.026529813 -0.0071285404 0.011812742 0.028919531
-0.004421524 0.0011144103 -0.0030539667 -0.020845924 -0.007477734 0.08073242 0.053581443 -0.041135326
-0.009580896 -0.032538846 0.005829031 -0.0043977117 0.016120624 -0.006214124 0.028722236 -0.080269806
-0.031115973 0.026306547 -0.021710832 0.0123796435 0.008597547 0.00282005 -0.0025359544 0.009777848
0.001780724 -0.028313952 -0.028616067 -0.023530554 -0.015655499 -0.004771684 -0.003997693 -0.0020683114
0.002338721 -0.00023040315 -0.0037097244 -0.011175623 -0.008304637 -0.015041449 -0.028500646 -0.0094795795
0.00072852534 0.034594588 0.05005608 0.048718862 -0.0008497053 0.018102417 -0.016637817 -0.08241376
-0.069495745 -0.042730182 0.0036781938 0.0022433093 0.026389048 -0.020577962 -0.016708907 -0.067026325
-0.0042771576 -0.01708677 -0.03737189 -0.029840345 0.0021895631 -0.005016076 -0.0016841146 -0.0051146704
-0.0045527834 -0.006474993 -0.008515459 0.0057119383 -0.009835256 -0.0038965805 -0.0013793297 -0.003799274
0.0061774054 0.006604174 -0.02835155 0.010815249 0.0030413838 -0.01290543 -0.009188845 0.0035004483
-0.008610761 0.0063163405 0.017218554 0.0012800843 -0.0074026166 -0.0068860236 0.005416269 -0.0022540002
-0.026134921 -0.0010860888 0.002849515 0.0022147992 -0.005018895 0.0016100951 0.004567118 -0.005178839
-0.0048469193 -0.0027560822 0.0069481735 -0.0054960093 0.007518663 -0.003509364 -0.00059249694 0.0022165237

linear.bias f4 [3]
00000000: 5d64 3a3d 055c 21bc dd13 3dbd
0.04550587 -0.009848599 -0.04616152
