models/void_demo.pth (torch, 820767 bytes, 10 tensors)

conv1.0.weight f4 [16, 1, 3, 3]
000000 af 92 15 3e f0 5e 83 be 75 94 17 bd 6a 6f 66 be
       0.14606737 -0.2565837 -0.037006814 -0.22503439
000010 f2 74 bd bd 05 4c 52 be c8 51 7e bd 23 16 1a bd
       -0.09250821 -0.20536812 -0.06208971 -0.037618767
000020 d2 99 52 be 46 13 0d be e0 d3 42 be 6a 02 79 be
       -0.2056649 -0.13776883 -0.19026136 -0.24317327
000030 4c d9 94 be e6 f2 7e 3c 0e 63 b5 3d 81 02 1e 3e
       -0.29072034 0.015560841 0.08856784 0.15430643
000040 16 f6 3a 3e e7 b1 e9 3d 9f 19 9d be d9 df 96 3e
       0.18257937 0.11410885 -0.3068361 0.29467657
000050 3b c9 9e bd 64 87 76 3e 6d 02 4d be f0 b4 35 bb
       -0.077532254 0.24075085 -0.20020457 -0.0027726255
000060 c2 6c 9d be 44 e8 01 bd 40 6d 4e bd a3 a6 9c be
       -0.30747038 -0.031715646 -0.050397158 -0.30595884
000070 cf 12 9d be ce ce 8b be 84 ee 97 3e 51 57 5b 3e
       -0.30678412 -0.27306217 0.2967416 0.21420027
000080 49 5b 47 be 55 f2 5b be f0 f7 01 be c1 81 21 bd
       -0.19468416 -0.21479161 -0.12692237 -0.039430384
000090 bb 3c e7 bd da 0f 99 bd f5 27 58 be 4a 9f 32 be
       -0.1129088 -0.074737266 -0.21108992 -0.17443576
0000a0 66 9b 8f be 3c 50 2e 3d 32 0b a1 3e 1b c5 67 3e
       -0.28048247 0.042556986 0.31453854 0.22633784
0000b0 16 d1 39 3d 13 0e 32 be b7 07 7a be 0e d7 49 be
       0.045365416 -0.17388181 -0.24417005 -0.19710943
0000c0 36 57 4f 3e 54 60 80 3e e3 84 04 be 0f e8 5b 3e
       0.20248112 0.25073493 -0.12941317 0.21475242
0000d0 d3 38 d4 3d 9e ed 9a 3e 88 83 f4 3d ae 1c a8 bd
       0.10362401 0.30259413 0.1193915 -0.08208595
0000e0 19 09 65 be 7a b5 05 3e 7a 68 57 bd 51 2f 78 be
       -0.22366752 0.13057509 -0.05258987 -0.242368
0000f0 96 24 a5 3e 6d b6 59 3e cb 4f 0b be 10 93 a7 3e
       0.32254475 0.21260996 -0.13604657 0.32729387
000100 81 fe e9 3d 8b e1 64 3e 05 82 0d 3d 09 aa 76 be
       0.11425496 0.22351663 0.034547824 -0.24088301
000110 3f fe 51 be f9 0e 35 3d 4c fb 91 3e 93 9c bf bd
       -0.20507143 0.044203732 0.28512037 -0.09356036
000120 99 50 52 bd 89 5c 28 be 18 0d fd 3d d0 9c 35 be
       -0.051346395 -0.1644155 0.12356013 -0.177356
000130 1e 52 52 3d a1 df 7d be d9 41 d6 3c 7d 76 89 be
       0.051347844 -0.24792339 0.026154445 -0.26848212
000140 8f 9b 73 bd 33 ad 24 be f8 6e 6f be e1 2e 03 3d
       -0.059474524 -0.16081695 -0.23382175 0.03202713
000150 59 9d 5e bb 29 84 8f 3d 87 e0 20 3e 9b 4c 16 be
       -0.0033968298 0.070076294 0.1571065 -0.1467766
000160 95 24 62 3e 96 5d 83 3e 51 ad 29 3e 3f 3d 55 3e
       0.22084267 0.25657338 0.16570021 0.20824145
000170 01 2d 95 bc 88 d9 8a 3e 6d 23 b7 bd 93 a7 25 bd
       -0.018209936 0.27119088 -0.08942304 -0.040443014
000180 8a dc 95 3e fc 64 a7 be e0 03 3c be d9 6c 22 be
       0.2926982 -0.32694232 -0.18360853 -0.15861835
000190 88 7a 9e 3e ac 84 a0 bd cd 97 32 be 72 0e 4e be
       0.3095286 -0.07837805 -0.1744072 -0.20122698
0001a0 15 12 2f 3e 79 7a 2d be 99 72 bb 3c 32 c9 44 be
       0.17096741 -0.16941251 0.022881793 -0.19217375
0001b0 98 2f 42 3d 9d 64 3a 3e 09 d2 b1 3e 58 1e 8c 3d
       0.04740867 0.18202443 0.34730557 0.06841725
0001c0 70 17 38 3e e5 ac 73 be 08 26 44 be 68 ea 9c be
       0.1797769 -0.23796423 -0.19155133 -0.30647588
0001d0 2c a8 ac be a0 0e 82 be 50 b3 39 3e e0 20 c8 bd
       -0.33722055 -0.25401783 0.18134809 -0.097718954
0001e0 21 87 00 be 6d 25 2f 3d f0 98 fa 3c ce 7b 9b 3c
       -0.12551548 0.0427603 0.030590504 0.018979933
0001f0 4e 21 19 bd af fb fd bc 0e 60 76 3e c5 3f 83 be
       -0.037385277 -0.031003801 0.2406008 -0.2563459
000200 b7 0b d9 3d 77 97 6f 3e 0e 8e d3 3c 7b ab 42 be
       0.105979376 0.23397623 0.025824573 -0.19010727
000210 ed ec 8f bd ed eb 3c 3e 24 bf 12 be 38 09 85 3e
       -0.07027612 0.18449374 -0.14330727 0.25983596
000220 af f2 6b 3c 2c 07 34 be 7b 7a 24 be 19 c1 63 be
       0.014401122 -0.17580861 -0.16062348 -0.2224163
000230 ba 21 60 3c d4 a0 9c be 76 0d e7 3d 28 0c 09 be
       0.013679916 -0.30591452 0.11281864 -0.13383543

conv1.0.bias f4 [16]
000000 d9 55 3f bc 75 9d 99 3d 47 4c 6f be 70 f8 45 3d
       -0.0116781825 0.07500736 -0.23368941 0.04833263
000010 78 23 39 3e 24 4f b4 bd b1 84 2a 3e 18 d7 b4 3c
       0.18079937 -0.088041574 0.1665218 0.022075221
000020 ea 35 7e be 55 82 4f be 7e 71 2c be 8d 61 65 be
       -0.24825254 -0.20264561 -0.16840169 -0.22400494
000030 d2 99 7a 3e 30 5c 74 bc 34 c3 ca 3d 0f 65 d3 3c
       0.2447274 -0.014914557 0.09900513 0.025805024

conv2.0.weight f4 [32, 16, 3, 3]
000000 76 c5 72 3d 37 af 11 3d 4a 0f a3 bd 4e 97 2b 3c
       0.059270345 0.03556749 -0.079619005 0.010473086
000010 21 1d 5d bd fd 9b a2 3c 2d 6e 16 bc 42 c1 87 bd
       -0.053982858 0.019849772 -0.009181541 -0.06628658
000020 b4 d9 80 bd f6 cc 35 3d 50 39 b7 bc f8 1b a4 bd
       -0.062915236 0.04438492 -0.022366196 -0.08013147
000030 88 6f d1 bc 16 95 47 bd 55 62 a6 3a a7 87 12 bd
       -0.025565878 -0.048726164 0.00126941 -0.0357739
000040 ba 6c 16 3b 2f 42 c7 3d 97 c0 b7 3c c3 e9 28 bd
       0.002295299 0.097294204 0.022430701 -0.041238558
000050 4c ee 28 3c f9 19 84 bd 36 71 60 3d cf 46 71 3d
       0.010310721 -0.064502664 0.054795466 0.05890542
000060 69 11 03 3d 45 1f 51 bd 51 f7 73 3c 2b d6 31 3b
       0.031999025 -0.05105521 0.014890508 0.002713571
000070 c7 a5 de bc e7 a1 1b bd c7 2a b6 3d 4d 57 c0 3d
       -0.027178658 -0.0379962 0.08894878 0.09391651
000080 61 52 81 3d f3 5d bf bd 87 20 28 ba b9 e5 18 bd
       0.06314541 -0.09344091 -0.00064135384 -0.037328456
000090 21 b8 24 bd 99 6f d3 bd f9 7e 65 bd c1 2a e3 3d
       -0.04021466 -0.1032402 -0.056029294 0.11092139
0000a0 73 a5 f2 3c 15 5f f0 3b 93 18 70 bd 9e 01 e0 bb
       0.029619908 0.0073355534 -0.058617186 -0.0068361303
0000b0 e4 26 af 3d 64 e0 a5 bd 9c 8a 12 bd f1 08 71 bd
       0.0855234 -0.0809944 -0.03577672 -0.058846418
0000c0 6d 5a 3f 3c e6 18 b5 3d e8 68 60 3d db 1e 8c 3d
       0.011679274 0.088426396 0.054787546 0.06841823
0000d0 ba 40 a6 3d ba f6 80 bc e8 e7 00 bd ef 90 5a bb
       0.08117814 -0.015742648 -0.031471163 -0.0033350547
0000e0 94 08 d6 bd 4e a8 51 3d 38 1b b5 bc 63 81 09 3b
       -0.10450855 0.0511859 -0.022107705 0.0020981662
0000f0 c0 5e 6b bc 26 68 44 bd 32 0f 01 3d d3 ca bd bd
       -0.014365852 -0.047950886 0.031508632 -0.09267201
000100 86 6b 09 be be c9 7a bd 17 8b 75 3d 3e 6e 3c 3d
       -0.13419923 -0.061227553 0.0599471 0.046003573
000110 b2 5a 55 bd e1 24 d1 bb 59 ac 7a 3c fb 44 23 bd
       -0.052088447 -0.00638257 0.01529988 -0.039860707
000120 f2 96 c9 3d ce 6b f2 3c ef 50 2e 3d 95 1c 2c bb
       0.09843244 0.02959242 0.042557653 -0.0026262153
000130 44 2a 21 3d 16 78 33 3d d6 6b 80 3d d4 6e d0 3c
       0.03934695 0.043815695 0.06270568 0.025443472
000140 f3 a9 6c bd e0 7d f2 bc b3 ba 0c 3d 03 d9 55 bd
       -0.057779264 -0.029601038 0.034357738 -0.05220891
000150 a6 c3 86 3d 66 92 ac 3d 89 70 99 3d ed e7 77 bd
       0.06580286 0.08426361 0.074921675 -0.060523916
000160 24 af ff 3a 8c c9 9f bc cf ab c4 bd 76 07 e6 3b
       0.0019507152 -0.019505285 -0.096030824 0.0070199324
000170 30 a4 ae bd 08 8e 9e bd 2a 0d 08 3d ec 0d 12 bd
       -0.0852741 -0.07741934 0.03321568 -0.03565781
000180 b0 42 88 3d 09 55 b3 bc bd c3 83 bd 15 c7 d5 3c
       0.06653345 -0.021891134 -0.064338185 0.026095906
000190 6d 7d 7f 3d 50 28 f0 3b 82 5c 46 bc 0e eb c6 3b
       0.062375475 0.0073290244 -0.0121070165 0.006070501
0001a0 f7 13 99 3d fe 8d a6 3d 0a 30 c0 bc ae a5 9b 3c
       0.07474511 0.081325516 -0.023460407 0.0189999
0001b0 52 39 08 bd 93 3d 18 bd d5 ae 9d bd 8f 7d d0 bd
       -0.03325779 -0.037168097 -0.07699362 -0.101801984
0001c0 a2 67 2b bc c1 17 41 bd f9 27 6d bd 3c 60 24 bc
       -0.01046172 -0.047141794 -0.05789945 -0.01003271
0001d0 02 41 61 bb 53 f1 10 bd 0e 92 9e 39 45 3b 4a 3d
       -0.0034371023 -0.035386395 0.00030244928 0.04937293
0001e0 4e 00 11 bc 1f 3c 13 3d 5e 8f 80 3d b9 08 79 3d
       -0.00885017 0.035946008 0.06277345 0.060799334
0001f0 9f c6 7c 3c df 43 44 bd 5c 23 bf bd c8 04 8b bd
       0.015428214 -0.04791629 -0.09332916 -0.06788021
000200 d9 01 d5 3c 3a fe 9a bd 54 26 57 bc 7b 2c 51 3d
       0.026001858 -0.07568021 -0.013131697 0.05106781
000210 75 fd 83 bd 40 98 f2 3c 18 49 b9 3d 04 5b fe 3c
       -0.064448275 0.029613614 0.09047145 0.031049259
000220 16 85 60 3d 42 8f 70 3d 92 21 bd bc a1 f7 ca 3c
       0.05481442 0.05873037 -0.023087297 0.024776282
000230 98 13 09 3d 20 97 1d bd 21 82 3b bd ca a8 48 bd
       0.03346595 -0.038474202 -0.045778397 -0.048989095
000240 c3 b7 14 bd 40 d7 5d bd 6e c7 10 bd ce 58 d7 3d
       -0.03630806 -0.054160357 -0.03534644 0.10514985
000250 d0 14 a8 bb b0 7f 7c 3c c6 26 73 3d c4 bc b5 bd
       -0.005129434 0.015411302 0.05936315 -0.08873895
000260 be 50 9c bc 53 8b 8e 3c df ec 7a 3d 2d f2 1b 3d
       -0.01908147 0.01740042 0.061261054 0.038072754
000270 6c 4a 95 bd 5d 30 84 bd a0 70 c0 ba 49 3a 05 bd
       -0.072895855 -0.06454537 -0.0014682002 -0.03252629
000280 5b 3e 11 bd 7d fd c9 bc 2b 9f b0 bc 82 f1 ed bc
       -0.035459857 -0.024657005 -0.021560272 -0.029045824
000290 4e 23 61 3d 0a 76 ed 3c 39 88 bf bd 63 6f ad bc
       0.05496531 0.02898695 -0.09352154 -0.021171277
0002a0 01 11 5e bd 04 6e c5 bd af b9 45 3d 3b de 1c bd
       -0.054215435 -0.096401244 0.048272785 -0.038297873
0002b0 e8 b3 0f 3d b8 d2 56 3d a7 a2 53 bb 15 8e b0 bc
       0.03508368 0.05244705 -0.0032292993 -0.021552125
0002c0 39 3f 0e 3c 0d aa 23 bd 15 45 4a bd 5f 08 8a bc
       0.008682066 -0.039957095 -0.049382288 -0.016849695
0002d0 f9 3f 2c 3d 8e 3f 87 3d 8d af 97 bd 57 88 b7 bc
       0.042053197 0.06603919 -0.074065305 -0.02240388
0002e0 d2 64 d9 3c f0 66 80 3d 22 a2 98 bb 12 f6 a9 bd
       0.026537333 0.06269634 -0.0046579996 -0.08298887
0002f0 f0 3c 30 3c f4 c0 a5 bd e4 10 d4 bd a6 81 5b 3d
       0.010756716 -0.080934435 -0.10354784 0.05359044
000300 f2 0b 21 bd c3 ad 24 bd 78 6f 35 3c 68 df dd bd
       -0.039318033 -0.040204775 0.0110739395 -0.10833627
000310 6f 87 82 bc 49 d5 b9 bd 5b 96 43 3d a1 0a 89 bd
       -0.01593372 -0.09073884 0.047750812 -0.066914804
000320 c5 72 c4 3c d0 22 0b bd 4a b8 1e bd ad 82 a7 bd
       0.023980508 -0.033968747 -0.03874997 -0.08179221
000330 84 07 cc bc 5d 8e 7c bc 06 cf a6 bc 1c 45 cc bd
       -0.024905927 -0.015414801 -0.020362388 -0.09974119
000340 56 b5 98 bd 46 a4 f1 bc ee 3e 9f bd 20 b6 50 3d
       -0.07456462 -0.029497277 -0.07775675 0.050954938
000350 3c d7 c0 bd 21 58 6b bd c8 83 52 bc ee 85 2e 3d
       -0.09416053 -0.057457093 -0.012848802 0.042608194
000360 d2 88 47 bd 50 2a a9 3c bb 6b a7 3d 60 0c 05 3d
       -0.048714466 0.020650059 0.08174845 0.032482505
000370 5a 60 cc bd 5c c8 3a bd 0c c0 94 bd 54 71 a3 3b
       -0.09979315 -0.045601234 -0.072631925 0.004987875
000380 20 85 44 bb 90 cf 5a bc 4e c8 94 bb d5 7a ba 3b
       -0.0029986575 -0.013355151 -0.0045404797 0.0056909123
000390 fd 95 a5 3c d1 8e 0f 3d 6a 23 99 3d 19 83 43 3b
       0.020213122 0.03504831 0.07477458 0.002983278
0003a0 9e 59 99 3b e9 70 b9 3d b5 e7 dd bd 0d 1e 55 bd
       0.0046798727 0.09054739 -0.1083521 -0.05203061
0003b0 8a 2c a0 bc 66 31 59 bd fd d0 7a bd d7 c4 63 bc
       -0.019552488 -0.053025626 -0.061234463 -0.013901911
0003c0 68 d9 bc bd 64 77 f0 3c cf 69 0a bd e4 3f 7e 3d
       -0.092211545 0.029353805 -0.033792313 0.06207265
0003d0 02 cd d7 bd 60 a3 5e bd af 9a 8e 3c 53 26 4d 3c
       -0.10537149 -0.054355025 0.017407743 0.012521344
0003e0 a5 29 c5 bd e4 64 8c 3d f6 fd f4 bc 6e b9 18 bd
       -0.09627084 0.06855181 -0.029906254 -0.037286215
0003f0 64 d6 28 bc 46 a9 16 bc a5 b6 13 3d 81 ac f0 3c
       -0.010305021 -0.009195631 0.036062855 0.029379131

conv2.0.bias f4 [32]
000000 17 d4 19 bd 57 89 0f bd a7 23 9e 3d f2 a1 8e bb
       -0.03755578 -0.035043087 0.07721644 -0.0043528015
000010 f7 28 79 3c 61 6b 93 3c 3a 99 62 bd 57 2f 43 bd
       0.015207521 0.017995538 -0.05532191 -0.04765257
000020 05 78 1d bd ae 59 7c 3d 3a 42 84 bd 68 7f a2 3d
       -0.038444538 0.061608963 -0.06457944 0.07934457
000030 75 20 4d 3d dc 85 89 3d 7a 02 dd bc 7d 11 c1 b9
       0.05007978 0.06714985 -0.02697872 -0.00036824858
000040 5a 28 6e bd 4d 92 8f bd 19 d4 55 3d 32 78 05 bd
       -0.05814395 -0.070103265 0.052204225 -0.03258533
000050 39 74 86 bc 8c dc bf bd 2a 5a 98 bc 2c 81 6d 3c
       -0.016412841 -0.09368238 -0.018597681 0.014496129
000060 b3 24 08 3c 14 de 29 3d 80 1b 45 3d 19 c4 01 3e
       0.008309531 0.041471556 0.04812193 0.12672462
000070 f5 10 32 bd 01 c1 0b bd f1 aa 90 bb 9b cd 7b 3d
       -0.043473203 -0.03411961 -0.004414909 0.061475378

conv3.0.weight f4 [64, 32, 3, 3]
000000 f0 a8 6a b9 4a 7e cc bc cd f7 08 3d 25 f4 85 bb
       -0.00022378913 -0.024962563 0.033439446 -0.004087942
000010 65 0a 3c bd a4 4d a5 bc fe 32 96 3c 34 b6 5f 3d
       -0.04590835 -0.020178623 0.018334862 0.05461712
000020 6d 5a 47 3d f4 f3 3d 3c 7b 24 7b bc e6 d0 4a bc
       0.04867022 0.0115938075 -0.015328522 -0.012378907
000030 a3 38 90 bd 35 28 4d 3c 42 0f a8 bc c6 ca ae bc
       -0.070420526 0.012521793 -0.020515088 -0.021336924
000040 8a 71 6e 3d c7 a6 76 bd ec 91 44 3d d5 83 f8 bc
       0.058213748 -0.060217645 0.047990724 -0.0303363
000050 96 cc 4e 3c dc 02 29 3d 17 99 91 3c 25 31 9c bb
       0.012622019 0.041262493 0.017773194 -0.0047666007
000060 18 bb 89 3c e3 35 86 3b 3d ba 05 3d 3b 6e c8 bc
       0.016812846 0.0040957793 0.032648314 -0.024466624
000070 12 6d 20 3d 92 b7 6a 3c 26 e9 8a 3d 7c 52 04 bd
       0.039166518 0.014325993 0.06782751 -0.032305226
000080 d9 f1 4f 3c 46 b3 50 3d 00 04 bc 3c 59 af f4 bb
       0.012691938 0.05095222 0.022951126 -0.007467192
000090 db d2 09 3d 93 8d e1 bb b6 a2 2c bd 64 05 89 bc
       0.033648353 -0.006883332 -0.04214736 -0.016726203
0000a0 ff c5 53 3d 16 2c d5 3b 02 cc d7 bc 23 a2 c3 3c
       0.051702496 0.0065054996 -0.026342396 0.023881024
0000b0 a4 8f 18 3c 92 c4 5d 3d 4a b3 e5 3c c2 1c ae bd
       0.00931159 0.054142542 0.028039593 -0.08501579
0000c0 8f 3f 51 3d 7a 08 88 bc fc d7 1f bd 06 29 3d 3c
       0.051086005 -0.016605604 -0.039024338 0.011545425
0000d0 47 06 a9 3c 74 f9 bb bc 9e f2 fa bb 00 09 5a 3d
       0.020632876 -0.022946097 -0.0076583168 0.05323124
0000e0 28 74 66 3d 26 10 0d bd 4f 71 0b bd 1a f8 ce bc
       0.05626312 -0.03443923 -0.034043606 -0.025264788
0000f0 7a 6e 61 bd 0f 0b 49 3d 19 05 22 3c fd 40 30 bd
       -0.055037 0.049082812 0.009888911 -0.043030728
000100 2c 8d 9e 3c 04 3e 24 bd 6a f5 82 bd d5 79 97 bc
       0.019354425 -0.040098205 -0.06394465 -0.018490711
000110 0b d3 05 bd 28 2c 42 3c 8f 8b 90 bd 56 a7 48 bd
       -0.03267197 0.011851348 -0.07057869 -0.04898771
000120 77 3d e0 3c fc ad 89 3d 61 69 97 3c 18 0a 29 3d
       0.027373059 0.06722638 0.018482866 0.04126939
000130 0c 43 68 3c 44 85 21 bd 9a 4c ab 3d 10 9f e1 3c
       0.0141761415 -0.039433733 0.0836422 0.027541667
000140 9f a0 7c 3c 86 ac 92 3d 80 13 02 3d 1c dc 0f bb
       0.015419154 0.071618125 0.031756878 -0.0021951264
000150 8e 8c 7b 3d d2 7d 80 3d 53 75 58 bd db d7 a7 bc
       0.06141334 0.06273998 -0.052846264 -0.02048867
000160 db 3d 8c 3d 93 af 7b 3d b4 d5 64 3d e1 73 92 bc
       0.068477355 0.061446737 0.055867866 -0.017877521
000170 71 97 19 bd 65 29 84 3d 64 86 f0 bb 82 f3 37 bd
       -0.03749794 0.06453208 -0.0073402394 -0.04490996
000180 52 d6 f7 b5 43 92 4f 3d b7 9e 63 bd 64 8f 03 3d
       -1.846531e-06 0.050676595 -0.055571284 0.03211917
000190 c6 f4 ff bc 84 12 97 bd 4f dd d3 3c fa 77 dc 3c
       -0.031244647 -0.073765785 0.025862364 0.026912678
0001a0 ec 31 17 bd 1b b5 29 bd d6 28 42 bd 9c 18 3d bb
       -0.036912844 -0.04143248 -0.047402225 -0.002885378
0001b0 dc bf 6d 3c 9d 93 9a bd 79 41 32 3c 05 97 93 3c
       0.014511075 -0.07547686 0.010879868 0.018016348
0001c0 6f 4e 5f 3c 39 2f 3f 3d b6 1b cf 3c 5e e0 14 3d
       0.01362954 0.046675894 0.025281768 0.036346786
0001d0 6a dd 84 3d 1e 92 89 3d 7f 81 cb 3c 11 cb 03 3c
       0.06487544 0.06717323 0.024842022 0.00804402
0001e0 93 b2 81 3d 68 59 c3 bc 1a ad 85 bd ad 6c 04 3d
       0.063328885 -0.023846343 -0.06527157 0.032330204
0001f0 42 c9 15 3c a8 26 bc 3c cc 9d c9 3c 4d 8e 6d 3c
       0.009142222 0.022967651 0.024611376 0.014499259
000200 4b 78 18 bc b2 ec 7e 3d e2 61 da bc 93 b9 31 3d
       -0.009306024 0.06223745 -0.026658002 0.043389868
000210 39 6a c9 bc 2b b6 be 3d 36 02 c3 3b 72 f5 9b 3d
       -0.024586784 0.093120895 0.0059511913 0.07615174
000220 92 08 40 3d 13 14 1b 3d 30 9a da 3c d4 da 84 3d
       0.046883173 0.03786094 0.02668485 0.06487051
000230 7d 71 4a bd 9f 49 92 3d 70 79 43 3d f9 07 09 bd
       -0.049424637 0.07142948 0.047723234 -0.03345487
000240 8d 34 46 bd d6 63 21 bd e1 67 84 bb ba 75 a2 3c
       -0.04838996 -0.03940185 -0.0040407036 0.019831527
000250 11 a8 aa bc 86 54 df bc 9d 94 04 3d 0d b4 15 3d
       -0.020832093 -0.027261984 0.03236829 0.036548663
000260 f0 46 97 3c 76 cc 39 3d 3d c9 66 bd ee 80 8c bd
       0.018466443 0.045361005 -0.05634426 -0.06860529
000270 a8 fc 63 3d 52 41 9c bc 56 8a 9b 3c a3 2b 36 bd
       0.055660874 -0.019074116 0.018986862 -0.04447521
000280 80 b9 b4 bc 85 7c 52 bd 0b b0 95 bd e5 46 09 bd
       -0.02206111 -0.051388282 -0.07308968 -0.033514876
000290 a6 d1 aa 3c 48 32 fe 3c e2 db ea bb 33 08 a3 bc
       0.020851921 0.031029835 -0.0071673254 -0.01990137
0002a0 4f 3b 58 3d e1 50 40 3d d3 c1 c7 3c 1f 0a 64 3c
       0.052790936 0.046952132 0.024384415 0.013918429
0002b0 b6 d5 f2 3c 50 f0 d6 3a 85 25 41 3d d3 8c 1d 3d
       0.029642921 0.0016398523 0.047154922 0.03846438
0002c0 a9 6f 8c bc 2f 22 01 bd 9b 60 11 3d 23 c3 e9 3c
       -0.017143087 -0.03152674 0.03549252 0.028535431
0002d0 23 20 6d bd b0 cb 42 3d fc e2 56 3c 39 bf 37 3d
       -0.057891976 0.047557533 0.013115641 0.0448601
0002e0 f6 c3 d4 3c d9 ea 00 bd 00 22 66 3b 6d ff 7e bd
       0.025972348 -0.03147397 0.003511548 -0.06225531
0002f0 b9 a2 3e bd fb b4 79 3d 49 d8 6a 3d 69 ef 94 3d
       -0.046541903 0.060963612 0.05733517 0.07272226
000300 e5 00 33 3d bf e8 f8 3c 93 80 88 3d f9 2d 84 3d
       0.043702025 0.03038442 0.066651486 0.06454081
000310 63 1b 89 3d 59 d2 4e bc 28 d1 9a bb 9c d0 06 bd
       0.06694677 -0.012623393 -0.0047246404 -0.03291379
000320 8d df fb bc d6 ea c5 3b 06 d1 59 bd e9 e2 02 3d
       -0.030746246 0.0060399575 -0.053177856 0.03195468
000330 b4 d1 1f 3c f9 76 df bc 34 ae 00 bd 23 3f 31 bd
       0.009754587 -0.02727841 -0.031416133 -0.043273102
000340 83 23 5f 3d 6c fe 5e 3d 64 86 25 bb 8f fd 49 bd
       0.054477226 0.054441854 -0.0025257105 -0.049314078
000350 0e f6 ae 3c 1f a7 72 3c b2 2f 14 bb dc c2 9c bc
       0.021357562 0.014810353 -0.0022611436 -0.019135885
000360 30 9e 16 3d 8a d0 bf bc 5e e4 a0 bb 56 50 04 bb
       0.036771953 -0.023414869 -0.004910036 -0.0020189486
000370 e5 ea 1f bd 97 0a d1 bc 6c 6b de bc 63 4e 8e 3c
       -0.039042372 -0.025517745 -0.027150832 0.017371362
000380 1f 4b 22 3d f3 15 a6 3d 4e d6 8f 3d 8e 5c 4d bb
       0.039622422 0.08109655 0.07023297 -0.0031335684
000390 d2 cf 65 3d ad 39 08 3d eb 0c 02 39 82 68 a8 3c
       0.056106396 0.03325813 0.00012402578 0.020557646
0003a0 9a 2e 8f 3d f3 9d 09 bd d5 54 43 3c ef 2b c2 3c
       0.069913104 -0.033597898 0.011922081 0.02370259
0003b0 2a 2b 1b bd a1 93 6c 3d de 40 70 bc b9 65 73 3c
       -0.03788296 0.057757977 -0.014663903 0.014855796
0003c0 5b 8a 84 3b 29 ce 20 3c 66 b9 01 3c 37 3b 5c 3d
       0.0040448136 0.009814777 0.007917738 0.05376741
0003d0 c5 ca d4 3c a1 cc e9 bc 4c 1a b8 ba aa 17 62 3d
       0.025975594 -0.028539957 -0.0014045923 0.05519835
0003e0 bf bd 9d bc 31 10 3f bd 51 ee 42 bd ef 07 8f 3c
       -0.019255517 -0.0466463 -0.047590557 0.017459838
0003f0 e3 0b 54 3d fa 67 83 bc b4 10 57 3c d9 21 6d bc
       0.05176915 -0.01604079 0.013126541 -0.014473402

conv3.0.bias f4 [64]
000000 b8 54 fa ba 4d 00 be bb 1e 7d 42 bd 34 79 47 bc
       -0.0019098734 -0.0057983757 -0.047482602 -0.012174893
000010 81 18 0c bd 91 78 ae 3d 9a 1c 7f bd 7d 3f e6 3b
       -0.034203056 0.0851909 -0.062283136 0.0070266114
000020 a7 cb 35 3d d0 15 44 bd cb 6b 89 3d a3 2f 16 3d
       0.04438367 -0.047872365 0.06710013 0.036666524
000030 8b b2 99 3c 34 a7 ab 3d 22 df 33 bb 19 1e 94 bd
       0.018761894 0.08381501 -0.002744623 -0.07232303
000040 65 9f 25 bb 6d 1e 88 3b fa 31 95 3d b9 12 96 bc
       -0.0025272008 0.0041540177 0.07284923 -0.018319475
000050 49 62 60 3d 0b 57 09 bd 15 50 b7 3b fe bd de 3c
       0.054781232 -0.033530276 0.0055942633 0.027190205
000060 66 f7 b2 3c 19 e4 91 3d b0 c6 4e 3c 26 37 ba bc
       0.021846484 0.07123584 0.012620613 -0.022731375
000070 23 02 ba 3d 62 5e 37 bd 5b fe 51 3b c9 0a 4c 3b
       0.09082439 -0.044767745 0.0032042477 0.0031134358
000080 09 82 68 bd 94 9d 88 3d a4 60 19 3d 85 2d 39 3d
       -0.056764636 0.06670681 0.03744568 0.045209426
000090 9a 1f 89 3d d9 72 ab bc ad 45 62 bd 31 d8 6f bd
       0.06695481 -0.020928787 -0.05524223 -0.058555786
0000a0 bc 1a c5 3d 59 71 c4 bb 9c 7d 86 3b 40 9b 42 3d
       0.0962424 -0.0059949574 0.0041043293 0.04751134
0000b0 88 f3 79 bd d2 23 cf 3d 3c 2c 6d bd 30 8c 72 3d
       -0.061023265 0.10114254 -0.057903513 0.059215724
0000c0 ea 46 7a 3c ac 3f 9a 3a 53 f9 39 3d 68 48 16 bc
       0.015275696 0.0011768243 0.04540379 -0.009172536
0000d0 6a 1f b5 bc da 26 25 3d 66 e8 94 3d 90 16 d9 3c
       -0.022109706 0.040320255 0.07270889 0.026500016
0000e0 a2 db 03 bc e6 c3 aa bc 5e 6b 8a 3d 3b 79 29 3d
       -0.00804797 -0.020845365 0.0675876 0.04137538
0000f0 65 b9 2c 3d 61 fe 8d 3b e0 42 c1 bb 6c f9 f0 bc
       0.042168994 0.004333303 -0.0058978647 -0.029415809

conv4.0.weight f4 [128, 64, 3, 3]
000000 9c 60 20 3b 61 25 ce 3c f3 c8 c9 bc 5d 21 56 bc
       0.0024471646 0.025164308 -0.024631953 -0.013069478
000010 3f c1 88 bd 19 55 a1 3d dd f9 e3 3b 00 6a a1 bb
       -0.06677484 0.07877559 0.0069572763 -0.0049259663
000020 a7 41 89 3d 89 41 42 3c 4a 71 93 bd 36 74 0f bd
       0.06701975 0.011856445 -0.071993425 -0.035022937
000030 19 bc e9 bb 1f da 52 bd d1 98 20 3c 39 97 14 bb
       -0.0071330187 -0.051477548 0.009802059 -0.0022673144
000040 58 24 31 3d 74 7e 28 3c 79 e7 13 bb 8a 1a 2b bd
       0.04324755 0.010284055 -0.0022568388 -0.041773356
000050 fd 2c 82 bd 31 c8 12 3d ec 38 43 3b cf 40 49 3d
       -0.06356237 0.03583545 0.0029788567 0.049134072
000060 39 3f ed bc ce 1e 15 bb 5e 5c 87 3d 64 ec 29 3d
       -0.028960811 -0.0022753957 0.066094145 0.041485205
000070 cb 29 0d 3d 0f 24 9b 3d a9 69 8a 3b 0e 6f da 3c
       0.034463685 0.07575237 0.0042240215 0.026664283
000080 70 ad 33 bd 01 9d 24 3d c5 52 36 3d 4d 8e f6 3b
       -0.043866575 0.040188793 0.04451253 0.007524288
000090 77 28 02 3d d7 98 01 3c 02 9d d8 bc f7 dd 75 3c
       0.03177687 0.007909975 -0.026442055 0.015006534
0000a0 53 43 4d 3d 0e 51 dd bc 5e cf 2b 3d 7f f4 08 3c
       0.050113034 -0.027016189 0.041945808 0.008359074
0000b0 9d e7 6b 3d ae 89 d7 bc a3 82 ad bc 2b 8e ad bd
       0.05759393 -0.026310768 -0.021180457 -0.08474382
0000c0 b8 06 04 3d 93 ea 66 bd 10 0c 17 3c 01 99 4b 3d
       0.03223297 -0.05637605 0.0092191845 0.049706463
0000d0 a4 ae 2c bc 3e d0 11 3d b9 89 b2 bc c2 71 8f bd
       -0.010539684 0.035598986 -0.021794187 -0.070041195
0000e0 b8 da 2f bc ad 87 82 3a c2 c9 f0 3b e5 87 59 3d
       -0.010733299 0.0009958647 0.00734827 0.053108115
0000f0 43 b0 ab bc 73 72 c0 bc 39 91 9b 3c ea 15 51 3d
       -0.020958072 -0.023492074 0.018990146 0.05104629
000100 2d 62 c2 ba 9d 39 37 3d 6f f4 a8 bc 59 2e 24 bd
       -0.0014830284 0.04473268 -0.020624368 -0.040083263
000110 9d 5b 91 3c 1a 85 13 bd 02 86 26 3d ea bf fd 3c
       0.01774388 -0.036015607 0.040655144 0.0309753
000120 1e 63 3c 3d 39 8b 36 3d d0 de 83 3d df 8a da bc
       0.045992963 0.044566367 0.064389825 -0.026677547
000130 aa 95 e4 bc f2 97 1d bd 54 86 6d bc 78 29 ae bc
       -0.027903397 -0.038474984 -0.014497358 -0.021260008
000140 23 71 15 bd 68 cf e7 3c 9b 29 9a bd 84 2e 56 bb
       -0.03648485 0.028297141 -0.07527467 -0.0032681534
000150 92 f8 3b bc a5 bd 78 3c 77 bd 1f 3b d9 3f f0 bc
       -0.011472838 0.0151819335 0.0024374404 -0.02932732
000160 24 15 02 3d e0 73 35 3d e3 a6 27 3d 27 be 92 bb
       0.031758443 0.04429996 0.04093064 -0.0044782343
000170 77 90 39 3d 36 68 b4 3c fe 93 2f bc 62 39 b4 3c
       0.045303788 0.022022348 -0.010716436 0.022000019
000180 ca bc 50 bb 69 8e 8d 3d 76 f6 ac 3c 40 28 95 3c
       -0.0031850808 0.06911928 0.021113615 0.01820767
000190 8b 52 94 bd 1b ab e9 bb 24 c7 18 3d cd a0 e7 3a
       -0.07242306 -0.007130993 0.03729929 0.0017671824
0001a0 18 96 f5 3c 90 87 e9 3c 92 97 45 3d 8a fd bb 3c
       0.029978797 0.028507024 0.04824025 0.022948045
0001b0 c0 00 0f 3c 5d cd 04 bd e7 13 36 3c 6e 67 8d bc
       0.008728206 -0.032422412 0.0111131435 -0.017261233
0001c0 e6 99 15 bd 1f af bf 3c c9 81 0e bc 3c 72 85 3d
       -0.036523722 0.023398934 -0.008697935 0.06515929
0001d0 9b 61 21 3d 0b 1d 81 bc 78 14 aa bd c5 80 d0 bc
       0.039399724 -0.01576092 -0.08304685 -0.025452027
0001e0 35 33 8e 3c de a4 40 bd cf 83 9a 3c 93 0e 08 3c
       0.017358402 -0.04703223 0.01886168 0.008304256
0001f0 22 ee 95 3d 1e 74 9b 3d 13 e6 47 bc 3d 19 ce bb
       0.07320811 0.07590507 -0.01220085 -0.0062896297
000200 e8 ec ed bc ea 75 95 3c d0 06 b7 3b 3d e6 85 3a
       -0.02904363 0.018244702 0.005585529 0.0010215711
000210 85 27 e1 bb b0 b1 09 bc 35 a8 b3 3c 13 ba f1 3c
       -0.006871166 -0.00840418 0.021930793 0.029507672
000220 8b 20 15 bc b1 bf 9d bc 3c 36 81 3b b2 24 d3 3c
       -0.009101997 -0.019256445 0.003943233 0.025774334
000230 8f 56 05 3d f3 90 86 3d 1e 2a 29 3d fb 33 b7 3c
       0.03255325 0.065706156 0.04129993 0.022363653
000240 2d 85 de 3c 69 db 5a 3d 5d 77 ac 3c 05 d5 b1 3b
       0.027163113 0.053431902 0.02105301 0.0054270052
000250 b2 fb a5 bc 0d 16 72 bc fe ac 8f bc 9f 68 5d 3c
       -0.02026162 -0.014775765 -0.017538544 0.013513713
000260 8e 71 d4 3c 18 39 1a bd 2b 9a aa 3c 53 e2 8f bc
       0.025933053 -0.037652105 0.020825466 -0.017563974
000270 6f 7b 08 3d 9e f1 73 3c 17 4e 12 bc 6b d2 ac 3c
       0.03332084 0.014889149 -0.008929751 0.021096429
000280 ad d8 8c 3d f4 fe 8f 3d 3e 91 1a 3d 9d 50 b7 bd
       0.06877265 0.0703105 0.03773617 -0.08950923
000290 78 ae 95 bd 4e 35 f7 3c c2 2a ac ba 96 60 4b 3d
       -0.07308668 0.030176785 -0.0013135301 0.04965266
0002a0 72 87 4c 3d fa 98 ed bb 46 a7 24 3c 4b d1 c9 3c
       0.04993386 -0.0072509022 0.010049647 0.024635931
0002b0 9c 4c 4f bd fa e7 b2 3c a1 5e 03 3d f9 18 8e bb
       -0.05061017 0.02183913 0.032072667 -0.004336473
0002c0 e9 20 ce 3c 0b f9 92 3b b9 bc 7a 3c 7e b5 51 3d
       0.025162177 0.0044852546 0.015303784 0.051198475
0002d0 57 53 ea 3c 1a fb 6d bd 87 a0 3e bd ff 08 52 3c
       0.028604193 -0.058100797 -0.04653981 0.012819528
0002e0 59 bc 8d 3b 15 ee 17 3c 7b dd 77 3d 53 4d af 3c
       0.0043254313 0.009273072 0.060513955 0.021399176
0002f0 65 36 0a 3d 66 16 cb bb 00 42 82 bd 9c 01 57 bd
       0.03374328 -0.0061977385 -0.06360245 -0.05249177
000300 e7 c9 12 bd fd 5c 54 bd 42 42 89 3d fc c4 d8 3c
       -0.03583708 -0.051846493 0.06702091 0.026461117
000310 e0 5a c7 bb 78 59 8a bc 89 4d 49 bd 65 f6 0e bc
       -0.006083831 -0.016888365 -0.04914621 -0.008725737
000320 48 7e 7d 3d ea fa 27 3c c2 03 c5 3c 9f 07 5e 3d
       0.06188801 0.010252694 0.024049643 0.054206487
000330 97 8d 49 bd 5b 95 1a bb f0 ee 1f bc 50 e8 1f bd
       -0.049207296 -0.0023587558 -0.009761557 -0.03903991
000340 f6 bf bd bd 4b c7 e9 bc c6 36 d9 3b 52 22 bb bc
       -0.09265129 -0.028537413 0.006628844 -0.022843514
000350 fc 0b 65 3d 28 71 18 bc 60 f0 85 3d f9 dc 1b 3c
       0.055919632 -0.009304322 0.065399885 0.009513133
000360 b0 fa 1e bc b2 6c f8 bb 19 3e ec 3c 20 03 1c bd
       -0.009703323 -0.007581317 0.028838204 -0.038088918
000370 40 61 bb 3c 5c db d3 3a 06 8f 75 b9 96 7b d3 bc
       0.02287352 0.0016163397 -0.00023418301 -0.025815766
000380 43 b1 0e 3d 14 50 3e 3d 22 22 a6 3c cd ea c0 3c
       0.03483702 0.046463087 0.020279948 0.023549462
000390 94 10 34 bc 76 7b 9f bc b2 0c 3e bd 0d b2 50 bc
       -0.010990281 -0.01946805 -0.046398826 -0.012737763
0003a0 41 6f ca 3c c8 8b 4f 3c 8f 0a 52 3d 9a 99 02 bd
       0.024711253 0.012667604 0.0512796 -0.031884767
0003b0 00 4c 1d bd b5 6c 09 3d 62 13 ea 3c fa c7 a6 bc
       -0.038402557 0.033550937 0.028573696 -0.020359028
0003c0 12 a2 88 3c 91 8b f3 3c 6b 21 8f bc 1b 9c 58 3c
       0.016678844 0.029729636 -0.01747199 0.013220812
0003d0 9a 20 a3 3b b7 7d 86 3d b9 81 4b 3d 5d 4e fe 3b
       0.0049782516 0.06566947 0.04968426 0.0077608065
0003e0 01 8f 4b 3c 55 e8 72 bc ba aa 41 bc c8 7d 1a 3d
       0.0124242315 -0.0148259 -0.01182049 0.03771761
0003f0 c8 2a b1 3c 6b 5d b3 3b 8d 90 ba 3b bb 52 b9 3c
       0.021626845 0.005473783 0.0056935013 0.022622457

conv4.0.bias f4 [128]
000000 55 b9 82 3d 44 95 76 bd 5b 00 da bb 46 9c 8c 3d
       0.063830055 -0.060200945 -0.0066528744 0.06865744
000010 38 f9 22 3d 81 99 bb 3c 55 43 6b 3c da 6f 0d 3c
       0.039788455 0.022900345 0.014359315 0.0086326245
000020 f5 18 a3 3d 3b de da 3c f3 48 89 3d d7 b9 37 3d
       0.079637446 0.026717296 0.06703367 0.044854965
000030 a0 fe 93 3d f8 f5 4a 3b f2 83 57 3a e2 00 c4 3b
       0.072263 0.0030969363 0.00082212605 0.0059815506
000040 5a d9 8c 3d 40 33 21 3d 46 10 76 3d 3e 0b a5 bd
       0.06877394 0.039355516 0.060074113 -0.08058785
000050 42 a2 b0 3d 31 2b ac 3b 82 4c 96 3d 57 5e 75 3d
       0.08624698 0.0052541723 0.073388115 0.059904423
000060 7c 75 d8 bc df 90 66 3c 00 45 60 bb a3 4c b3 3d
       -0.026423208 0.014072626 -0.0034220815 0.08754852
000070 b9 d6 e2 bc 8b 7d 4f 3c 83 a7 52 3d 3c 59 2c 3d
       -0.027690278 0.012664209 0.051429283 0.042077288
000080 4d c7 4a bd fe 29 a7 3c 85 c5 04 3d 29 5c 28 3d
       -0.049506474 0.020405766 0.03241493 0.041103516
000090 c2 29 8e 3d a4 48 89 3d d3 4c 78 bd 52 21 ae bb
       0.069415584 0.06703308 -0.06062014 -0.0053140307
0000a0 2a 21 7c ba e5 fa 2b bd 31 d5 8f 3d 9a 32 8d 3d
       -0.0009617979 -0.04198732 0.07023085 0.06894417
0000b0 e7 88 97 3d 19 f8 9a bc ab 5c 31 3d 0a d9 97 3d
       0.07399159 -0.01891713 0.043301266 0.07414444
0000c0 95 53 82 3d 9d 0d 9d 3d eb 4e e8 3c 33 52 6c 3d
       0.06363598 0.07668612 0.028357944 0.05769558
0000d0 9d 44 3a bc bc a1 9b bc 72 e8 3c bd 89 eb 63 bc
       -0.011368898 -0.01899802 -0.046120115 -0.013911136
0000e0 08 f5 15 bc 99 2c 49 bd da fc f4 bc 33 76 5b 3d
       -0.009152658 -0.049114797 -0.029905725 0.05357952
0000f0 fa 45 84 bd 03 a8 95 3d 19 79 5a 3d c9 ec 84 bd
       -0.064586595 0.07307436 0.053338144 -0.06490476
000100 9b 36 81 3d 5a fe eb 3c ac 1a 1d 3d 96 9c 2c bd
       0.06309243 0.028807808 0.038355514 -0.04214152
000110 99 bb 47 bd 7b e9 9f 3d 77 d4 83 3d b0 98 c4 bc
       -0.04876289 0.07808205 0.06437009 -0.023998588
000120 70 30 5c bd a2 87 c3 bc 08 db 79 bd 3d 2a ae 3d
       -0.05375713 -0.023868386 -0.0609999 0.0850415
000130 b1 07 ae 3c a8 0d 11 ba f0 eb 4e bd 11 3a 00 3d
       0.021243902 -0.0005533346 -0.050517976 0.031305376
000140 86 14 6c 3d dd a9 88 3b 6c d0 15 3c 0f b4 64 bd
       0.05763676 0.00417064 0.00914393 -0.05583578
000150 46 0a 39 3d 15 e2 b7 3d ae 6e 93 3d 70 cc 6a 3d
       0.045175813 0.089786686 0.07198845 0.057323873
000160 bf a6 b6 3d ac 9f 26 3d 57 e9 93 bc 32 ad ac 3d
       0.08918523 0.04067962 -0.018055601 0.08431472
000170 ab de 0a 3d 16 50 8f 3d ea fd 0b 3d 23 d2 3a 3d
       0.03390376 0.06997697 0.0341777 0.04561056
000180 63 c7 bb bc 27 43 cf 3d 1e 5c 8b 3d 71 e5 a1 3d
       -0.022922223 0.1012023 0.06804679 0.079050906
000190 a7 a5 1e bd 40 53 46 3d 55 4d 9c 3d f4 d3 aa bd
       -0.038732197 0.048419237 0.076319374 -0.08341208
0001a0 df a4 e4 bc 9a c1 74 3d 2a cf c6 3c 4b 37 87 3c
       -0.027910648 0.059754945 0.024268705 0.016505858
0001b0 61 88 3e bc 94 6f cb bc 99 ef 90 3b c1 0c fa 3c
       -0.011629195 -0.024833478 0.0044230935 0.03052366
0001c0 9e 7e 67 bd 8c 50 3d bd 23 4a 80 3d 58 15 d5 bc
       -0.056517236 -0.046219394 0.062641405 -0.026011154
0001d0 0e 4e 93 3d 5b 67 16 3c e4 90 91 3d b2 01 4b 3d
       0.07192622 0.009179915 0.07107714 0.049562164
0001e0 ae ee 2a 3d 2e 0f 6a 3d 08 2b 9f 3d 44 48 1d 3c
       0.04173153 0.057143383 0.077718794 0.009599749
0001f0 97 7e f5 3c a8 77 81 bc 3a fe b9 3c e3 b5 6f 3d
       0.02996759 -0.015804127 0.022704232 0.05852307

linear.weight f4 [3, 35712]
000000 37 dc 2e 3d 23 11 4b 3d fc 8b 23 3d 0f d0 2a 3d
       0.042690482 0.04957689 0.03992842 0.041702326
000010 e0 e1 4a 3d ba 83 36 3d 83 f3 14 3d e5 91 80 3d
       0.049531817 0.044559218 0.036365043 0.06277827
000020 b7 77 47 3d 08 23 2a 3d 45 d3 52 3d 4c 70 b2 3c
       0.048698153 0.041537315 0.051471014 0.021782063
000030 43 c0 7d 3d 88 ce e6 3c 87 9f 38 3d 59 6b 27 3b
       0.061950933 0.028174654 0.045074012 0.0025546162
000040 44 1c d4 3c 58 8c a8 3c f6 c8 3a 3d 80 3d f6 3c
       0.025892384 0.020574734 0.045601808 0.030058622
000050 1a 31 38 3d 29 77 17 3d 09 9b 0a 3d b5 b9 7b 3c
       0.044968702 0.036978874 0.03383926 0.0153641
000060 b9 96 20 3d 59 d5 12 3d a1 46 05 3d 07 8f 02 3d
       0.03920624 0.035847995 0.03253806 0.031874683
000070 d5 bb 0d 3d 48 49 0d 3d 04 97 01 3d 54 83 ec bb
       0.03460296 0.034493715 0.03163816 -0.007217804
000080 c2 9c d1 3c b5 5c 23 3d d9 17 34 3d 13 50 da 3c
       0.025587443 0.039883334 0.043968055 0.02664951
000090 62 df e2 3b 8f 39 0f 3d 23 f7 0a 3d df 9f 1a 3d
       0.006923602 0.034967 0.033927094 0.03775012
0000a0 2d 3d d0 3c 00 1b 04 3d 6b 14 71 3d 19 8b fa 3c
       0.025419796 0.03225231 0.058857363 0.030583905
0000b0 d4 21 a2 3c a0 00 09 3b 68 2f 01 3c 76 db 51 3c
       0.019791521 0.0020904914 0.007884838 0.012808671
0000c0 ab 83 8b 3b 03 55 9f bb f0 6b e1 3c c8 fc 09 3d
       0.0042576394 -0.004862429 0.027517289 0.033688337
0000d0 9c 1f 16 3d db 90 15 3d fe c7 ad 3c 7e 3b 3f 3d
       0.03665124 0.036515098 0.021213528 0.046687596
0000e0 b5 12 2c 3d 54 07 27 3d 9d 9c 0d 3d 7c 0b 35 3d
       0.042010028 0.040778473 0.034573186 0.044200405
0000f0 c0 4c 21 3d 1b 41 15 3d 26 fc 3e bd ff 84 78 bc
       0.039379835 0.036439043 -0.046627186 -0.0151684275
000100 6f 43 a5 bc be 64 09 bc e7 b7 f8 3b 81 d2 94 bc
       -0.020173756 -0.008385835 0.0075902822 -0.018166782
000110 51 2d 12 bc 2b d3 d9 bc 13 33 36 3b c7 03 32 bb
       -0.008921937 -0.02658995 0.0027801439 -0.0027162896
000120 83 17 39 bc f5 bb 68 bc 4e 08 dc bc e0 ce 77 3b
       -0.01129711 -0.014204969 -0.026859429 0.0037812516
000130 e2 b7 b2 bc fd b3 e6 bc 35 cf cb bc 31 f6 3c bc
       -0.021816198 -0.028161997 -0.024879077 -0.011533306
000140 3d 99 5b bc 45 6f a6 bb f0 ec 7d bc ff 40 9e bb
       -0.013403234 -0.0050791823 -0.015498385 -0.0048295255
000150 95 65 8d bc 83 12 6d 3c 40 1d 5d bc 57 1f ba bb
       -0.017260352 0.014469746 -0.013495743 -0.0056800055
000160 d5 86 63 3c 6f b2 41 3d 16 9a 1e 3d 68 c3 26 3d
       0.013887127 0.04728931 0.038721167 0.040713698
000170 59 8b 2a 3d 66 0c 44 3d 8d e3 7a 3d 6c ec 51 3d
       0.0416368 0.047863387 0.061252166 0.05125086
000180 4c 8e 7d bc b0 08 1f 3d e2 2c 49 bb ea ca 1a 3c
       -0.015475821 0.038826644 -0.0030696918 0.009447793
000190 77 05 b0 3b 6d cc b9 bc 87 9d 72 3a 65 f2 02 ba
       0.005371745 -0.022680486 0.0009255041 -0.0004995226
0001a0 06 b1 c9 3c 86 8a 11 bc 55 00 8c 3b 54 e5 b2 bb
       0.024620544 -0.008883124 0.0042725005 -0.005459467
0001b0 20 e1 13 3d 7a f8 10 3d 15 b9 0b 3d 53 98 a4 3c
       0.036103368 0.035393216 0.034112055 0.020092165
0001c0 9b 40 bf 3b 12 39 d7 bc 08 4d 60 3d bc ed 91 3d
       0.005836559 -0.02627233 0.054760963 0.07125422
0001d0 b8 98 54 3d 85 33 db 3c f5 31 59 3d 45 88 39 3d
       0.051903456 0.026757965 0.05302616 0.045295972
0001e0 9c 2a 38 3d c0 f4 30 3d 90 cc 13 3d 3c 29 19 3d
       0.04496251 0.04320216 0.036083758 0.03739284
0001f0 35 02 66 3c 21 ef 49 3d 4b b4 9f 3c 2b 57 13 bc
       0.014038612 0.049300317 0.01949515 -0.00899295
000200 d2 37 21 3c e6 66 52 bd 96 0a a8 bc 9f 7c 19 bc
       0.009839969 -0.051367663 -0.02051286 -0.009368091
000210 9b a7 c7 3b a4 df 3e 3b e5 90 90 3c 22 5e 2d 3c
       0.006092978 0.0029125 0.017647216 0.010581525
000220 fa fc 22 bd 74 f2 fb bc 0c 04 b7 3c 66 e4 b9 3c
       -0.03979204 -0.03075526 0.022340797 0.022691917
000230 92 16 a7 3c 6f 19 b1 3c 2e f5 82 bc 71 29 b3 3b
       0.020396505 0.021618573 -0.015986051 0.0054675867
000240 4a d4 67 3a e6 7e 45 3d bd 84 20 bc 4d 43 30 3c
       0.0008843584 0.048216723 -0.009797272 0.010758233
000250 eb 40 1b 3c a4 14 a5 3c 87 f5 28 3d 97 77 47 3d
       0.009475927 0.020151444 0.041249778 0.048698034
000260 06 15 35 3d ef fc 1d 3d ba 83 27 3d c4 3c 5c 3d
       0.044209503 0.038571294 0.04089711 0.053768888
000270 ea 61 fc 3c 1d 77 1e 3c 04 a5 7d bc 03 4e 68 3c
       0.030808408 0.0096719535 -0.015481237 0.014178756
000280 48 a7 28 bd f7 2b 8e bc b0 41 e8 3c 85 72 93 3c
       -0.041175157 -0.017354948 0.028351635 0.017998943
000290 5d e8 05 3d 4d ca 98 3c 77 5f ba 3c 09 c3 d4 3c
       0.032692302 0.018651152 0.0227506 0.025971906
0002a0 c0 af 55 3c 38 90 13 3d f7 a5 e4 3c a0 2b 02 3d
       0.01304239 0.03602621 0.02791117 0.031779885
0002b0 91 96 e1 3c b0 76 d1 3c 7f 3f ae bc 44 89 e4 3c
       0.027537616 0.02556929 -0.021270512 0.027897485
0002c0 c5 51 fd 3c 91 5f 12 3d 2e 37 20 3d f9 15 87 3c
       0.03092278 0.03573567 0.039115123 0.01648997
0002d0 d7 42 0c 3d 05 e3 ee 3c 09 fb 13 3d e6 b7 1c 3d
       0.03424343 0.029160986 0.036128078 0.038261317
0002e0 5a 1b 26 3d 84 33 37 3d 3b 90 6b 3d c9 50 45 3d
       0.04055343 0.044726864 0.057510596 0.048172746
0002f0 38 68 29 3d 6d 52 12 3d a0 96 e4 3c 1e 3f 1a 3d
       0.041359156 0.03572314 0.027903855 0.03765785
000300 c3 9b 2f 3d ff 7c cb 3c c8 ba a7 3c fa 61 a6 3d
       0.042873155 0.024839876 0.020474806 0.08124156
000310 02 22 8c 3d b9 04 16 3d 33 e9 1f 3d 4c ac 00 3d
       0.06842424 0.036625598 0.039040755 0.031414315
000320 99 83 2b 3d 19 11 3c 3d e7 8d 32 3d 0e 25 ed 3c
       0.04187355 0.045914743 0.04359236 0.028948333
000330 c9 8f e8 3c d2 6d b0 3c ae 61 1f 3d d6 bc fd 3c
       0.028388875 0.021536741 0.038911514 0.030973833
000340 3b 11 11 3d a6 fb 2d 3d 26 22 30 3d 21 54 22 3d
       0.035416823 0.04247632 0.043001316 0.039631013
000350 d5 66 14 3d 9d 20 36 3d 58 e9 18 3d fb 14 35 3d
       0.03623088 0.044464696 0.03733191 0.04420946
000360 bc 54 1e 3d 47 45 63 3d 3d 76 4c 3d 71 4f 44 3d
       0.038655028 0.05548599 0.04991745 0.047927324
000370 3e f2 4c 3d 4c 61 3b 3d ce ab 4c 3d a1 e1 4d 3d
       0.050035708 0.045747086 0.049968533 0.050264005
000380 9b 41 2f 3d 4d 99 45 3d af e0 43 3d 76 b5 47 3d
       0.042787176 0.048241902 0.047821697 0.04875704
000390 dd 59 2c 3d a6 88 43 3d 39 e8 32 3d c6 86 1c 3d
       0.042077888 0.04773774 0.043678496 0.038214467
0003a0 da c8 a5 3c c9 d4 43 3d cb 33 36 3d ad bb 37 3d
       0.020237375 0.04781035 0.044482987 0.044856716
0003b0 f8 4f 40 3d d3 0c 28 3d 8b 9d 05 3d df 9d 2a 3d
       0.046951264 0.041027855 0.032620948 0.041654464
0003c0 e1 fb 33 3d 4c 7f 30 3d ac 85 3c 3d 5b 3e 50 3d
       0.043941382 0.04309015 0.046025917 0.050840717
0003d0 f6 05 36 3d 72 3f 3c 3d f3 64 36 3d d9 25 39 3d
       0.04443928 0.045958944 0.044529866 0.04520211
0003e0 32 6c 57 3d 72 9f 28 3d 5f 3e 37 3d 5f 69 2f 3d
       0.052593417 0.041167684 0.044737216 0.0428251
0003f0 38 fe 49 3d 32 82 49 3d ef db 47 3d 00 47 1e 3d
       0.049314708 0.04919643 0.04879373 0.03864193

linear.bias f4 [3]
000000 64 55 c5 3c f5 0b 64 bc 55 a4 a3 bc
       0.024088569 -0.013918866 -0.01997582
