models/void_20230522_223553.pth (torch, 655075 bytes, 10 tensors)

conv1.0.weight f4 [16, 1, 3, 3]
00000000: 1a25 f8bd 574d a93e 6142 7bbe 1949 fd3c
00000010: 71e0 b43d e8bd 2cbc bd1d 36be 5c22 713e
00000020: e25b bcbd ceac 83be 0822 08bc 4d9d 97be
00000030: e609 463e aaf5 2b3c 98e2 193e 3e15 513e
00000040: 12b6 623d d71c 783e 0f39 c83c 274e 7b3d
00000050: fa63 5c3e a5aa 7d3e 493e 85be 54eb 96be
00000060: 04f0 8fbc 2811 bd3d d8a7 9b3e 5236 7d3c
00000070: 6a5f 933e c8e9 c43d ee80 aa3e d1a8 9abe
00000080: 28d2 9ebe c767 963e 0eda 16bc 2a97 a33e
00000090: 3ae8 2abe 892a 50be de51 46be 7769 47be
000000a0: 91f5 33be 65ea b8bd ee9b 8e3d f567 733c
000000b0: ce1a c93c bbf0 293d 85a2 783e 3c45 843d
000000c0: 0ef6 373d ef80 2ebd dd0b 413d 5c63 5abe
000000d0: 1014 8d3e 68af 85be e45d 76be d5be 0f3e
000000e0: 603e 1c3e f6c2 0d3d a265 9abe 4a6b f13c
000000f0: 0fb6 883e 259b f4bc 1145 893e 388b 463e
00000100: 6146 953e 4527 86be c68d c53d 07d0 463d
00000110: 8121 e8bd 39a5 953e b70d 143e 348c 6bbe
00000120: 3a2c 72bd 12f9 ab3a 3774 24be 1c32 a63e
00000130: 7e4a 193e 8613 f9bd 3b63 323e fa60 793e
00000140: 25ff 59be c6bb 323e db41 4ebe 4c7f c53d
00000150: 53ae a6bc 2e2e cc3d 44fe ed3d 154f e03d
00000160: 5327 1c3d 7be3 9dbd 58a2 aa3e 5a47 a4be
00000170: 2c4a a4bd cea4 84be 086f f5bd 1762 6ebe
00000180: a179 363d 5dab 86bd 6074 48bd b144 b7bd
00000190: d27a a9bc b3cc 7d3d 6440 eebd 401d 5d3e
000001a0: 7b99 aebd 5656 8c3e 554b 5dbd e23b 393e
000001b0: adbd 1b3e 90e1 26be ede9 353e d744 0ebe
000001c0: 08eb a93d 8616 8dbe 0179 25be b9f1 02be
000001d0: 4499 3e3e 0e22 6f3e 4dbe 72bd bfd9 ad3d
000001e0: eaae a3be d314 603d 3574 11be 7ec8 91be
000001f0: a4d0 363d 92b6 a23d 5263 f93d 1fb2 d53d
00000200: 373b 8f3e 557b 363d 8e1a 63bd d4e0 9a3e
00000210: d815 47be 0d0a 25be fd32 b9bd ee4f 8c3e
00000220: f050 933e 5fc6 193d 98e7 7fbe ac45 1f3e
00000230: 49f6 223e 5d6b 24bd 5359 ab3e 8d82 8bbc
-0.121164516 0.33066818 -0.2453704 0.030918645 0.08831871 -0.010543324 -0.17784782 0.23548263
-0.09197213 -0.25717777 -0.008308895 -0.29612198 0.19339713 0.010495583 0.15027845 0.2041826
0.055349417 0.24229752 0.02444127 0.06135383 0.21522513 0.24772127 -0.26024082 -0.29476416
-0.017570503 0.09231788 0.30401492 0.0154548455 0.28783733 0.09614903 0.3330149 -0.30206922
-0.31019711 0.2937605 -0.009207262 0.31951267 -0.1669015 -0.20328726 -0.19367167 -0.19473825
-0.17574145 -0.09029082 0.06963335 0.014856328 0.024548914 0.041489344 0.24280746 0.06458518
0.04491239 -0.04260343 0.047130454 -0.21326965 0.2755437 -0.26110387 -0.24059254 0.1403764
0.15258169 0.034609757 -0.30155665 0.029470105 0.267014 -0.029859135 0.26810506 0.19389045
0.29155257 -0.26201835 0.09646182 0.048538234 -0.11334515 0.29227617 0.14458357 -0.23002702
-0.05912421 0.0013120493 -0.16059957 0.32460105 0.14969823 -0.12161927 0.17420666 0.243534
-0.21288736 0.17454442 -0.2014231 0.096434206 -0.020346796 0.099697456 0.11620763 0.10952584
0.03812344 -0.07709404 0.33326983 -0.32085687 -0.0802196 -0.25906986 -0.11984068 -0.23279606
0.044549588 -0.06575654 -0.04893911 -0.08948649 -0.020688448 0.061962795 -0.11633375 0.21593189
-0.08525368 0.2740962 -0.05402692 0.1808925 0.15209074 -0.16296983 0.17765017 -0.13893448
0.08296782 -0.27556247 -0.1615944 -0.12787522 0.18613154 0.23352835 -0.059263516 0.084887974
-0.31969386 0.05470736 -0.14204486 -0.28473276 0.04463257 0.07944979 0.12177147 0.104343645
0.27974865 0.044551212 -0.055445246 0.30249655 -0.19441926 -0.16117115 -0.09042928 0.27404732
0.28772688 0.037542697 -0.2499069 0.15553921 0.15914263 -0.040141452 0.33466586 -0.017030025

conv1.0.bias f4 [16]
00000000: 211c 533e 6a65 903e 572a 4ebe c763 c33c
00000010: ea22 77bd 1520 a3be c14b 723e 7ab8 21bb
00000020: abf1 23be 1407 f33b 22ce 30be 6203 013e
00000030: b3e3 8cbd 6dda 943e 5f38 a7be f36b b3be
0.20616199 0.28202373 -0.20133339 0.023851288 -0.06033603 -0.31860414 0.2366171 -0.0024676607
-0.16010158 0.0074166153 -0.17266133 0.12598947 -0.06879368 0.29072896 -0.32660195 -0.35043296

conv2.0.weight f4 [32, 16, 3, 3]
00000000: 383c 8fbc d5e2 9c3c 886e 9dbd fe88 253d
00000010: 07e6 6ebd c322 c43c c5e2 573d 6f8e a43c
00000020: 57b2 673b d381 143d deca 743d a995 96bd
00000030: ed33 15bd 2c33 ff3c e923 a4bd 43a4 393d
00000040: ef21 1dba 6a89 8cbd 67fa f73c 22fa 3b3d
00000050: 23e8 503c 7a02 833d 1aed 3dbd 23a8 833c
00000060: 6398 963c e4ab 1a3d af00 99bc 782b 5bbc
00000070: 51f1 013d 4e84 25bc 2282 40bd 2fac 71bd
00000080: ee70 86bd 3760 433c 4e4e b7bc a1a3 4b3d
00000090: d2c0 a3bd f57b bebd 5d94 b6bd 59cd dc3c
000000a0: aa34 ff3c 4195 b6ba 9ccc d43c 5c96 aa3d
000000b0: d485 63bd a3eb 813d 09ac 833c 4e48 c53c
000000c0: 9cbb 4d3d b3d3 263d 40b5 20bc 0665 6bbc
000000d0: cf06 9dbd 2539 293c ba3f 7fbd 4f61 c53c
000000e0: 43c5 89bd a43c f7bc 801f a4bd ad4b 893c
000000f0: 461a fc3c 9e63 773d faa5 fbbb 4c3e a0bd
00000100: 6288 463d 8a58 643c 9860 b33b 5af6 163c
00000110: ff9a 47bd f452 7d3d 3d6b 893d e174 18bb
00000120: 3207 963d d21d 893c 2196 67bd ba04 3d3d
00000130: 783b 4a3d eb13 63bd e90a 903d a7ca 86bd
00000140: 16f0 8cbd b2a7 95bd a2d3 4fbc aaee 60bd
00000150: efb3 0abd 5474 ae3c d180 293d 0dee ac3b
00000160: 9eec c6bc 9792 413d 4e55 a63d d6e1 08bd
00000170: 328c 81bd dfad e3bc 1455 cd3c 0585 513c
00000180: 30ce 53bc f15f 513d eee9 3d3c 8c74 973d
00000190: a33b c0bc 1414 153d 2784 b53c 7ddf 78bd
000001a0: 93c4 893d d43e 8cbd 49a3 733d 3572 023d
000001b0: e824 4bbd a209 77bd 9766 8b3c 72bc 583c
000001c0: 868b fd3c 177a 4d3c 7443 88bd e9d8 42bd
000001d0: 2479 a6bd 9e72 013d b1a5 66bd c1bf 6a3d
000001e0: f00f 83bd 7cc3 943d 154b 50bd f7c9 84bd
000001f0: 3971 ad3b 8774 903d 1cea 4cbd afa7 5f3d
00000200: 42f9 7f3b e3d6 68bd 6963 fc3c 171b 823d
00000210: 890b 8d3d b37a b43c 823a 30bd 3e7d a03d
00000220: a154 78bc b76b 73bd a077 8dbd 06c7 3abc
00000230: bdb4 413d 216b 923d 5319 97bd 8f1b 683d
00000240: d550 863d 78d4 3b3d 08c8 37bd 6688 67bd
00000250: 314f 643d 98f0 813c c145 14bd b4af 0b3d
00000260: 644b 9b3d 3878 003c 3b20 4e3d 0383 29bd
00000270: 7214 1c3d 47ae a03d 082a 10bd c5fa 47bd
00000280: 8109 0cbd 0f1a 843d 1260 8a3d c94a afbc
00000290: 8ef9 a63d d91d 203c 0ec9 0bbb a627 71bd
000002a0: a58f fbbc d0ba 35bd d98f b13c 2dd0 c53c
000002b0: 373d db3c 9585 92bc f447 2dbb 9861 1a3d
000002c0: a0b3 3b3c 9d21 a43d 47e3 88bc 1e95 3b3d
000002d0: 74c7 8fbd ceba 4abd 89c9 1ebd 2c76 3f3d
000002e0: 556e 6bbc 2caa 56bd bdcd 563c b02c 1c3d
000002f0: 4412 c43c 7ab3 8c3d 2bd9 f63b 71e5 96bc
00000300: 8374 463d 185d 2ebd 9da0 0ebd 6869 a5bd
00000310: 9354 1fbd 839f 9b3c f47d f83b 8f51 a0bc
00000320: 4753 64bd e70b cb3c 2b44 3c3c b6b5 3cbd
00000330: 8d28 a33c 98e4 89bd cd1a 923d 8f9f b13c
00000340: b82a eb3c 20e7 80bc 1a6b f13a 9cd1 3abd
00000350: 063e 763c 7709 993d 11ee 443d e65f bb3c
00000360: 3a7b 153d 99f4 0cbc 0b5c a83c 01fb 83bb
00000370: fdf2 a53c c094 923d 6c12 73bd 7292 783d
00000380: 9787 093c 6d02 313d af88 c9bc 498e a13c
00000390: 1eba 80bc 6330 e43c fb3f 313d ecbd fa3b
000003a0: 969b cd3c b1a9 a1bd 714f 65bd ce1b 863d
000003b0: a35c 2dbd 67b2 0b3c fb16 a33d f7ce 16bd
000003c0: bc91 6fbc 8aa0 49bd b4b2 d73c 8ddc 4dbd
000003d0: 9849 a73d c489 bf3b 99f5 1fbd 7aba 993d
000003e0: 6bfc 4b3c af39 8b3d a4c4 9bbd 1bd8 963d
000003f0: 93ae 5ebd 90e1 93bc 017e 453d 74f6 763c
-0.01748477 0.01915113 -0.07687098 0.04041385 -0.05832484 0.023942357 0.0527065 0.020087449
0.0035354102 0.036256623 0.05976378 -0.07352764 -0.036426473 0.03115233 -0.08014662 0.045322668
-0.0005994131 -0.06862147 0.030270768 0.045892842 0.012750658 0.06396957 -0.046368696 0.016071385
0.01838321 0.037761584 -0.018677084 -0.013377063 0.031724278 -0.010102345 -0.046999104 -0.059002098
-0.065645084 0.011924795 -0.022376206 0.049716596 -0.07995762 -0.09300987 -0.08915017 0.026953386
0.031153042 -0.0013929979 0.025976472 0.0832946 -0.05554755 0.06343772 0.016073244 0.02408233
0.050227746 0.040729236 -0.009808838 -0.014367348 -0.07667314 0.010328566 -0.062316634 0.024094252
-0.06727078 -0.030180283 -0.08013821 0.016759718 0.030774247 0.060397737 -0.007679698 -0.07824382
0.04846991 0.013937125 0.0054741614 0.009214008 -0.0487318 0.06184669 0.06709907 -0.0023263025
0.07325591 0.016737852 -0.05653966 0.046147086 0.04937312 -0.055438917 0.07033331 -0.065816216
-0.0688173 -0.07307376 -0.012684735 -0.054915108 -0.033863004 0.021295704 0.041382615 0.0052774013
-0.02428275 0.04725894 0.08121739 -0.0334185 -0.06325568 -0.02779287 0.025064982 0.012788062
-0.012927577 0.051116887 0.011591418 0.073952764 -0.023465937 0.0363961 0.022157742 -0.06076001
0.06726947 -0.06847921 0.059481893 0.031847198 -0.049595743 -0.06031192 0.017016692 0.013228523
0.030950319 0.0125413155 -0.06653491 -0.047570143 -0.081285745 0.031603448 -0.05631036 0.057311777
-0.06399524 0.07263848 -0.050852854 -0.06483834 0.005293038 0.07053476 -0.05002795 0.054603275
0.0039058481 -0.056845557 0.030809121 0.06352823 0.06886966 0.022031164 -0.043024547 0.07836388
-0.015156896 -0.059428897 -0.06907582 -0.01139999 0.047291506 0.071493395 -0.07377877 0.056666907
0.06558386 0.045856923 -0.0448685 -0.056526564 0.055739585 0.015861794 -0.036199335 0.03410311
0.07582739 0.007841162 0.050323706 -0.041384708 0.038105436 0.07845741 -0.035196334 -0.048823137
-0.03418875 0.06450283 0.06756605 -0.021397965 0.081530675 0.009772741 -0.0021329555 -0.058875702
-0.030708143 -0.04436761 0.021675037 0.024147118 0.026762588 -0.017885963 -0.0026440592 0.03769073
0.0114564 0.08014224 -0.016709937 0.045796506 -0.070204645 -0.049494557 -0.038766418 0.046743557
-0.014369567 -0.052408382 0.013110575 0.038128555 0.023934491 0.0687017 0.0075332127 -0.018419953
0.048450958 -0.04256925 -0.03482114 -0.08076745 -0.038899016 0.01899696 0.007583374 -0.01957014
-0.055743482 0.024785949 0.011490862 -0.04607173 0.019916797 -0.06733054 0.07134018 0.021682529
0.028706893 -0.015735209 0.001841876 -0.045610055 0.015029436 0.074725084 0.0480786 0.022872876
0.03649447 -0.0086032385 0.020551702 -0.0040277247 0.020257467 0.07157278 -0.05934374 0.060686536
0.008394144 0.043215204 -0.024601309 0.019721167 -0.015713748 0.027855104 0.043273907 0.007652035
0.025098603 -0.07893694 -0.055983964 0.06548272 -0.042324673 0.008526421 0.079633676 -0.03681847
-0.014622148 -0.049225368 0.02633033 -0.05025916 0.08168334 0.0058452804 -0.03905258 0.07506271
0.012450318 0.06798112 -0.076058656 0.073654376 -0.054365706 -0.018051893 0.04821587 0.015073407

conv2.0.bias f4 [32]
00000000: 17f1 42bd a7cc aebd a76a c6bb 510a 55bd
00000010: 2ce0 aabd fc93 8abd 2301 643d 93e2 463b
00000020: 60c4 7cbb 650c 113d 164d 9fbd ed81 efbc
00000030: 8bf9 7bbd 7493 843d 6643 9ebc de1a c4bd
00000040: 4831 73bd 21d1 4b3d 8725 5ebd 02db adbd
00000050: c7ca 8bbc 2163 6ebd a11e 96bd c73c 4e3d
00000060: 1404 b03d 000d 443c 8edc f8ba f5fc 043d
00000070: 07bf 99bd cb70 84bd 1b48 693d 96a7 89bd
-0.047593202 -0.08535128 -0.0060551944 -0.05201179 -0.08343539 -0.06766507 0.055665147 0.003034745
-0.0038569197 0.03541221 -0.07778375 -0.029236758 -0.06151728 0.06473437 -0.019319247 -0.09575437
-0.05937317 0.049759988 -0.054235008 -0.08489038 -0.017064465 -0.058200005 -0.07330061 0.05035093
0.08594528 0.01196599 -0.0018986629 0.0324678 -0.07507139 -0.06466826 0.05695353 -0.067214176

conv3.0.weight f4 [64, 32, 3, 3]
00000000: 35d6 71bd 460e 383d ace0 3e3c 9a8f 133d
00000010: 8536 48bd 851e 2fbd d9a4 c0bc 5647 1abd
00000020: a752 d1bc b7e4 10ba 2882 473d 9c91 933c
00000030: ae17 d2bc 7163 f2bc bf88 473d 5850 f3bc
00000040: 39c5 173c 78d8 49bd f983 03bc 0174 11bc
00000050: 9202 c03c 46ff 3bbc 9f75 e4bc 5170 653d
00000060: fdd7 763c 633f 11bd ec0b 0e3d 6bec 9abc
00000070: 2675 b03c 6ea8 a13c 24fe 283d 2cb9 e7bc
00000080: e36d 983c 3cdf a3bb b7fe efbc 842a febc
00000090: f66b 33bd 59a4 26bc 070f 833d 50fe 1abd
000000a0: cd95 253d 99d9 4fbd abcf 02bd aabd 2f3c
000000b0: 50a1 ecbb 0a42 4fbd 520a 0cbd e46c 9b3c
000000c0: 572a 52bd 4438 533d fa75 46bb 0405 a23c
000000d0: ff27 1cbc da7b 4e3c 133a 57bc dd0d 773c
000000e0: b94d 2cbc a738 4bbd 72eb 22bd 2059 f73c
000000f0: 27b5 14bd 349d 903b 5866 b13b 8889 3fbd
00000100: dc10 763b 183e a8bc 5293 063d 182f 66bd
00000110: 81ba a1bc 92a8 723c ce06 d43c e0fd e23c
00000120: f970 f3bc a4a0 243c 5aba 333d 1ae5 3ebd
00000130: 8660 01bc d172 e3bc 1f4f 3c3d 3b58 023d
00000140: 7c71 01bc 6840 643d 3364 16bd 7621 0c3d
00000150: e1c1 78bc 6a83 033d 3948 0abd 5d31 d1b5
00000160: 825d 0f3d 1b55 aebc ec62 9ebc 7af2 42bd
00000170: ba21 23bd c9e0 3cbc 1957 ad3c 1273 d63c
00000180: 7dc6 073c 50bc 613d d150 80bd dcc1 3d3d
00000190: 7c7d fc3c 8f83 0bbd 5485 e7bb 56ac 3cbc
000001a0: 2f97 b8bc 7036 1c3d 6dbf fb3c 3b38 503d
000001b0: d93f 2bbd 00f1 36bd 2ae3 50bc 98fd d3bc
000001c0: e659 2e3d 216f 923c d9c8 53bd 9416 8d3c
000001d0: 8de2 04bd 994e 503d 0a28 963c ee60 32bd
000001e0: d736 093c a16f 9e3c 4e8d 543d 5b28 1ebd
000001f0: d062 113d d243 933b 901d 05bd 8bff 183d
00000200: 499a 223d b198 39bd 4467 bbbc 6171 d7bc
00000210: 3ac3 0bbd 8c6e 893c 67b0 c5bc 1475 adbc
00000220: 230b 343d 9571 493c 0211 3bbd dda6 60bd
00000230: 1178 0abd 8579 0a3c 546e a63c e696 a9bc
00000240: e5d2 d33b 3974 e03c d58b 11bd 7511 41bd
00000250: bb03 093c c430 193c 7204 52bd 8ca3 01bd
00000260: d5ab 123d 704a 11bc 08e0 27bd 841d d83a
00000270: 05e4 15bd f7cc ea3c fce0 423d 2fa1 453d
00000280: 2c53 cb3c b047 473d e02c 093d f0df 37bd
00000290: e034 4cbd 5191 ac3c 985e 98bb be20 23bc
000002a0: 1fec 0bbc 3132 93bc 1dea 253c 2c3f 163d
000002b0: 3486 59bd af89 45bd 0894 5f3d 07cb 07bb
000002c0: 3621 ca3c a1db 44bd 8422 c2ba 0585 edbc
000002d0: ffac 3ebd b329 21bc c341 4dbc 6e85 453c
000002e0: 90b7 0cbd f28f 6cbd db54 083d 0731 153d
000002f0: f4c3 63bd 454a cabc 4a5e 7dbd c79e 553c
00000300: ef60 343d 973c 83bb 6667 293d b7c3 61bc
00000310: e5a5 b13a 676b 7dbd cd6f 653c 0f4c 30bc
00000320: a4da 2dba ea36 2c3d 7c8f 03bc be10 ab3c
00000330: fa93 663d edee fabc fa8f 1f3d 2d67 53bd
00000340: 9d87 053c ea6c 8c3c c581 23bd 6369 213b
00000350: a64b 39bd c1e7 173d bb0d 50bd 8b6e bd3a
00000360: a92c 51bd 6f5a bd3c 793c 6fbd 14f3 71bc
00000370: 8c87 0d3d 93f2 de3c 1eeb 6bbc f353 17bd
00000380: de0a 76bc d735 0e3d c406 d93c 2935 efbc
00000390: 653e afbc 73da dcbc de3f acba 6b64 0cbc
000003a0: e056 1cbd 4670 463d 46ce 673d b2f5 673d
000003b0: c865 133d 7c87 5ebd 84de 1ebd b463 c5bc
000003c0: a258 bf3c 9e0b 953c 64c6 4f39 5b80 45bd
000003d0: 449b 5abd 5c1b c63a fb00 083d 3600 f33c
000003e0: 9e14 363d aeba 193d 4131 373d 50ed 713b
000003f0: b294 5ebc 240c bdba f35d a1bc 39ee 72bd
-0.059042174 0.044935487 0.011650246 0.03602562 -0.04888012 -0.042753715 -0.023516105 -0.037665688
-0.025552107 -0.0005527245 0.04870811 0.018013768 -0.025646057 -0.029588433 0.048714396 -0.029701397
0.00926333 -0.049278706 -0.00802707 -0.008877755 0.023438726 -0.011474436 -0.027888117 0.056015316
0.015066144 -0.03546084 0.03467934 -0.018911561 0.021540236 0.019733634 0.041257992 -0.028286539
0.018607086 -0.005000977 -0.029296262 -0.031026132 -0.04380413 -0.0101710195 0.063993506 -0.037840188
0.040426064 -0.050744627 -0.03193633 0.010726372 -0.0072213784 -0.05060009 -0.03418953 0.018972822
-0.05130991 0.05156733 -0.0030282722 0.019777782 -0.00953102 0.012602771 -0.013136405 0.015078989
-0.010516577 -0.049614575 -0.03977532 0.030193865 -0.036305573 0.0044132713 0.0054138117 -0.04676202
0.003754667 -0.020537421 0.03285534 -0.056197256 -0.019742252 0.014810698 0.025882151 0.027708948
-0.029716955 0.010048065 0.04387889 -0.046605207 -0.007896548 -0.02776471 0.045973893 0.031822424
-0.007900592 0.055725485 -0.03671665 0.0342116 -0.015182943 0.032107748 -0.033760283 -1.558608e-06
0.035001285 -0.021280816 -0.019334279 -0.047594525 -0.039827086 -0.011528202 0.021159695 0.026177917
0.008287069 0.05511123 -0.062654145 0.046327457 0.030821554 -0.03406101 -0.0070654545 -0.011515697
-0.022533027 0.038137853 0.030730927 0.050834876 -0.041808937 -0.04466343 -0.012749473 -0.025877759
0.042566203 0.017875256 -0.051705215 0.01722268 -0.03244262 0.050856207 0.018329639 -0.04354947
0.008374891 0.019340338 0.05189257 -0.038612705 0.035494626 0.004494169 -0.032498896 0.03735308
0.03969792 -0.045311633 -0.02287639 -0.02629918 -0.03412173 0.016776346 -0.024131967 -0.021173991
0.043955933 0.0122951465 -0.045670517 -0.054846633 -0.03380591 0.008451824 0.02031628 -0.020701837
0.0064643496 0.02739917 -0.035533745 -0.04713579 0.008362706 0.009350006 -0.05127377 -0.03165011
0.035808403 -0.008867845 -0.040985137 0.0016488289 -0.03659441 0.028662188 0.047577843 0.04824942
0.024819933 0.04865235 0.03349006 -0.044891298 -0.049855113 0.021065386 -0.0046499483 -0.009956537
-0.008540182 -0.017968269 0.010126618 0.03668134 -0.0531065 -0.04822701 0.054584533 -0.002072038
0.02467404 -0.048061017 -0.0014811312 -0.028994093 -0.0465517 -0.009836602 -0.012527886 0.012055738
-0.034354746 -0.057754464 0.03328405 0.03642371 -0.055606797 -0.024693618 -0.0618575 0.013038344
0.044037756 -0.0040050256 0.041358374 -0.013779572 0.0013553469 -0.061870005 0.014003706 -0.010760321
-0.0006632006 0.042044558 -0.008029815 0.020882007 0.056293465 -0.030631507 0.038955666 -0.051612068
0.0081500085 0.017141778 -0.03991868 0.0024629466 -0.04523816 0.037086252 -0.050794344 0.00144525
-0.051067982 0.023114411 -0.05840728 -0.014767427 0.034553096 0.027215278 -0.014399318 -0.036945295
-0.015017239 0.034719314 0.026492484 -0.029200153 -0.021392057 -0.026959633 -0.0013141592 -0.008568863
-0.038168788 0.048446916 0.056593202 0.056630798 0.035985738 -0.054328427 -0.038786426 -0.024095394
0.023357693 0.018194016 0.00019814965 -0.048218112 -0.05337073 0.0015114355 0.03320406 0.029663187
0.044453256 0.037531547 0.044724707 0.003691513 -0.013585256 -0.0014423174 -0.019698119 -0.059309218

conv3.0.bias f4 [64]
00000000: 225a d4bb fac8 093d 582f f2bc 66bd 3dbd
00000010: 43ce 36bc 932c ac3b 9b2d 5cbc 595b f53c
00000020: bda8 e43c 87d2 973c 8266 f4bc c258 3fbd
00000030: b4d6 5dbb dcfb 01bd 90d0 323d 1314 efbc
00000040: c6fd d6bb 2537 58bd 3d9a 61bd 21fe 203d
00000050: f20e aa3c 9e89 45bd 5f57 f03c ae0b 673c
00000060: 041f 173c c512 f43a 1589 a43c 29f7 74bd
00000070: c5e2 4c3d 732f cfbc 2eab cfbc c790 18bd
00000080: 1a65 57bd 1d90 183d daa0 313a 4b0f cfbc
00000090: 88d9 0ebd ce20 e63c 5425 60bd c691 b4bb
000000a0: 3b06 94bc 96a9 863d 25b7 edbc 9f9f c4bc
000000b0: 440f 46bd d71c eb3c 96a0 dc3c 3fad 023d
000000c0: 3ff0 183d c2da e33c 172e a63c 758c 753c
000000d0: d60e 54bd 4803 52bb 5171 92bc 9061 f4bc
000000e0: 7937 58bc f7b7 603d 1057 243d b960 dfbc
000000f0: 4a97 dd3c 9ccc 243d 03a4 e53c 90d5 80bc
-0.006480471 0.03363893 -0.02956359 -0.046323203 -0.011157575 0.005254337 -0.013438608 0.029950785
0.027912492 0.018533004 -0.029834036 -0.046715505 -0.0033849897 -0.031734332 0.043655932 -0.029184377
-0.006561014 -0.052786965 -0.055078734 0.039304856 0.02075908 -0.048226945 0.029338537 0.014101906
0.009223703 0.0018621316 0.020084897 -0.059806023 0.05002095 -0.02529118 -0.02535018 -0.037247445
-0.052586652 0.037246812 0.0006775983 -0.025275847 -0.034875423 0.028091814 -0.0547231 -0.0055105416
-0.018069377 0.06575315 -0.029017994 -0.024001895 -0.048354402 0.028700275 0.026932042 0.0319035
0.03733849 0.027814273 0.02028565 0.014987101 -0.05177196 -0.0032045413 -0.0178763 -0.029831678
-0.013196819 0.054862943 0.04012209 -0.0272678 0.02704968 0.040234193 0.028032308 -0.015726835

conv4.0.weight f4 [128, 64, 3, 3]
00000000: f8d3 183d 9399 a7bb 1ec0 8dbc 2c1c e7bb
00000010: 5f86 48bd 921d 50bb e9a1 e1bc 220c 01bd
00000020: fae1 aa3c f7c7 0d3d 840c 633c 7b8d 8dbc
00000030: 7c4d 6e3c 8389 2dbc ebbf 52bc 259c 75bc
00000040: 05cf e73c 342f 0ebd e7f1 bbbc a7c4 873c
00000050: 36b1 063d cccc e63b d5cc 2a3a 4f22 cfbc
00000060: d08f 993c 1230 a53c 1952 b1bc b594 bbbc
00000070: 80aa e2bc 3fcd 17bd 9f03 11bd 67db 923c
00000080: 7263 e23c f40b b0bc a197 a3bc 3f9d a53c
00000090: afdf f5bc 61ec 3dbc b7d7 15bd 3ca5 52bc
000000a0: 74cb feba 02f9 f639 a7e2 0bbd 60ec 7fbb
000000b0: 781c 1e3d 5721 28bc e27b dcbc 57e4 17bc
000000c0: fac7 08bc 85c6 c23c 23bc 99bc a979 973c
000000d0: bfdb f7bc 2b2c 5d3a f8e7 863a f10f 03bd
000000e0: 956c 01bd ee31 07bb 79d0 e9bc d2af 88bb
000000f0: 9275 0fbc 6554 0f3d 6737 d5bc 12e5 283c
00000100: d856 b63c d27a bbbb 802f 0ebb 858d 963c
00000110: b486 37bd 8d0d 3a3a 8d63 df3c cab1 14bd
00000120: 74fd 10bd e5b1 b13c 64c2 d83c 0ccc 43bd
00000130: 9dd0 01bd 8aec 413c 5cf9 c03c 7b59 383c
00000140: 3b58 0e3c 290f cc3b 3a45 4a39 457c 583b
00000150: 7bc6 2f3c 924b aabb 6a8f a83c 8b45 0a3d
00000160: 5c46 0abd cb26 dbba 7586 f53c 6f27 073d
00000170: 24df 4b3c e221 063d 9df4 113d 5998 9a3c
00000180: 06f0 35bb bbc5 78bc c75e edbc 9751 353d
00000190: 93c4 db3b d023 af3c 11c8 e33b 852a 52ba
000001a0: 9195 9fbc f0eb 05ba 5067 a13b 2a46 0dbc
000001b0: 058f 9dbc 829f 7c3b 9dbf abbc 830c 1f3c
000001c0: b6d1 6cbc d1d0 cabc 1715 f43c d3b6 db3c
000001d0: 8419 0d3d 604d babb 6fb0 9bbc 9105 c4bb
000001e0: 91b8 c3bc 4a6a dd3b f5ee fd3c 8194 bfbc
000001f0: 9723 febc 1d54 ea3c c032 09bd 1f26 a93c
00000200: 12e3 76bc c605 1dbd 2605 893c 2ff8 20bd
00000210: cc90 9dbc 5c3c 8abb fce9 99bc 9e52 db3c
00000220: 0260 0cbb 4dcb da3b 0e4f c2bb 1143 a23a
00000230: b5f7 29bd 33d4 7bbc d9f9 34bd d477 f23b
00000240: f23b e8bc be39 bdbc 8abd 7abc 361c 453c
00000250: f3f9 38bd b3de 45bd 91f6 80bc 621f 183b
00000260: d288 ac3c 0277 bb3c 40f2 ee3c 4fe3 b2bc
00000270: 7e89 1bbd e820 debc 6bbd 13bd c9e4 bc3c
00000280: 8a89 d33c 68ba e7bc 9056 b13c 2b1d afbc
00000290: 6cea ed3c d570 bfba 87eb f13c ed09 933c
000002a0: 0524 c23b 56d0 493c 5c38 b63c 9367 cfbc
000002b0: 0a5d fe3b eb33 d1bb 1425 af3c 7554 603c
000002c0: 48cd 853c c0ef b13c 09f8 a8ba 830c 0a3d
000002d0: 0081 0e3c 277a 4a3a 5b7d 26bd ddfd e83c
000002e0: 6f92 d2bb 302d 90bc 7a8d a23b a0ae b93c
000002f0: 2802 1dbd ba5c 223b 5013 c53c 5bab a53b
00000300: 910d 00bd e09e d33c 2195 dfbc f5ea ad3b
00000310: eca2 15bd 958f 773c b9e3 3dba 83b0 6e3b
00000320: 05f7 c33b 3479 72bb e879 f9bc efbd 12bd
00000330: faca 84bc 1997 4bbb 0c71 e93c 8462 033d
00000340: 7632 423b 6df2 463c 3e31 8bbc 336a cbbb
00000350: 8e33 933c 0cd4 413d d59a 073d ce8f 23bc
00000360: 7235 29bd 7ef0 773b 1497 b53c 8039 46bd
00000370: ff58 e2bc 6823 8a3c a9c0 a0bb 04f3 1e3b
00000380: be72 3f3c ae6f 1f3d e84f 15bd 05e4 b2bc
00000390: 7b76 6a3c d76d b7bc f03c be3a e878 0abd
000003a0: f737 013c 3393 a9b9 fc41 13bc b484 efbc
000003b0: 0ed5 d5bc 8cd9 943c 68ce 793c 55e1 e83c
000003c0: f00f c23c 3ea7 2dbd 233a 143d a3f1 51bc
000003d0: 4f3e 3dbc 7674 2b3c 2df8 00bc 6486 21bc
000003e0: dcc0 f93c b476 0a3c 2868 f3bc 704d 533c
000003f0: 23f9 03bd 0afb 32bd 13cb 633c 0f43 283c
0.037311524 -0.005114743 -0.017303523 -0.007052919 -0.04895627 -0.0031755907 -0.027543025 -0.03150571
0.020859707 0.03461453 0.013857964 -0.017279377 0.014544841 -0.010591867 -0.01286314 -0.014990841
0.028296957 -0.034712985 -0.022942496 0.016573263 0.032883845 0.0070434567 0.00065155077 -0.025284914
0.018745333 0.020164523 -0.021645593 -0.022898057 -0.027669191 -0.037060972 -0.035403844 0.017926885
0.02763531 -0.021490075 -0.019969763 0.020216582 -0.030013887 -0.011592002 -0.036582675 -0.012856778
-0.0019439296 0.00047106302 -0.0341517 -0.0039050803 0.03860137 -0.010261855 -0.02691454 -0.009270749
-0.008348459 0.023776302 -0.018766468 0.01849063 -0.03025615 0.00084370625 0.0010292521 -0.031997625
-0.031597693 -0.0020629126 -0.02854179 -0.00417135 -0.008756058 0.034992594 -0.026027394 0.010308521
0.022258207 -0.0057214284 -0.0021695793 0.018378029 -0.044806197 0.0007097356 0.02726915 -0.036302365
-0.03539796 0.021691272 0.02645988 -0.047802016 -0.03169309 0.01183618 0.023556404 0.011251803
0.008688028 0.006227393 0.0001929001 0.0033033055 0.010728474 -0.005196997 0.020576198 0.033757728
-0.033758506 -0.0016719935 0.02997134 0.03299659 0.012443338 0.032747157 0.035633672 0.018871473
-0.0027761473 -0.015183861 -0.028975857 0.044267263 0.006706783 0.021379381 0.00695134 -0.00080172
-0.019480499 -0.0005108705 0.004925646 -0.008622685 -0.019233236 0.0038547223 -0.020965392 0.009707573
-0.014454296 -0.024757775 0.029795213 0.026820576 0.03444816 -0.0056854934 -0.019005029 -0.005982109
-0.023891719 0.0067570554 0.030997733 -0.023386242 -0.03102283 0.028604561 -0.033495665 0.02064806
-0.015068786 -0.038335584 0.016726088 -0.039299186 -0.019234084 -0.004218621 -0.01878833 0.026772793
-0.002141953 0.0066770674 -0.005929834 0.0012379606 -0.041495997 -0.015370416 -0.044183586 0.0073995385
-0.028348897 -0.023098823 -0.015303979 0.012030652 -0.045160245 -0.048308086 -0.015742572 0.0023212065
0.021061335 0.022883896 0.029168248 -0.021836905 -0.03797292 -0.0271153 -0.036069315 0.023058312
0.02582242 -0.028287128 0.021647722 -0.021376213 0.029042445 -0.001460577 0.029531254 0.017949069
0.005924704 0.012317738 0.022243671 -0.025317943 0.007762556 -0.006384363 0.021379985 0.013692011
0.016333237 0.021720767 -0.0012891303 0.03370334 0.008697748 0.00077238906 -0.040646892 0.028441364
-0.0064261477 -0.017599672 0.004960713 0.022666276 -0.038332134 0.0024774508 0.02405706 0.0050558276
-0.031262938 0.025832593 -0.02729279 0.00530755 -0.036532328 0.015109916 -0.0007243711 0.0036421127
0.0059803748 -0.0036998512 -0.030453637 -0.035825666 -0.016210068 -0.0031065403 0.028496288 0.032076374
0.0029632128 0.01214276 -0.016991254 -0.0062077283 0.01796892 0.047321364 0.033106644 -0.009983016
-0.041310735 0.0037832553 0.022166766 -0.04839468 -0.027630327 0.016862586 -0.0049057794 0.0024253735
0.0116850715 0.038924865 -0.036453158 -0.021837244 0.0143104745 -0.022391243 0.001451401 -0.03380671
0.007886878 -0.00032343864 -0.0089879 -0.029238082 -0.026102569 0.01817014 0.015246965 0.02842776
0.02368924 -0.042395823 0.036188256 -0.012813958 -0.0115505 0.010464778 -0.00787167 -0.009858701
0.03048747 0.008451153 -0.029712752 0.0128968805 -0.032220017 -0.04369644 0.013903397 0.010269894

conv4.0.bias f4 [128]
00000000: 54fd f53a 4e30 84bc 9e26 b03c c1e4 0abc
00000010: f556 b53c dc64 49bc 6a62 d1bc 4774 313c
00000020: 4db8 fcbc 17b8 683b 08c6 cabc c9a6 0b3c
00000030: 2600 38bc bc0f 523c 5b5b 00bd 4e42 61ba
00000040: b12c f43b f69d d23b 065f 3abd 2cf3 e1bc
00000050: 563c 873c 8a81 64bd 1739 663b 4221 85bc
00000060: 13b1 1bbd 99f2 06bc 9b91 363b 40bc 3ebc
00000070: 8581 9f3c 5981 04bd 7499 803c 136a 65bb
00000080: 023a 9b3b a49f d9bc a56c da3a 5e85 37bd
00000090: 63b3 d1bc 6e43 58bc 7d13 24bd 5a2b 95ba
000000a0: 26cd 073d 9a97 cb38 068f 7cbc 0baa 42bc
000000b0: 5335 44bd a6d5 01bd f4a8 4c3c 8d66 52bc
000000c0: 3d4e 843c cda3 063d ea72 7dbc 8df5 843c
000000d0: a5e3 06bd ee03 e3bc 3f87 9bbc c3c8 fdbc
000000e0: 2a6c 5abc 0cc6 01bc c9af c83b aa08 893a
000000f0: d5e8 4c3c 5600 1cba 7710 47bd 28f7 3dbd
00000100: 2060 10bb e79b 57bc 0b2d 35bd 368a 503c
00000110: fe71 c13c 74f8 e0bc b698 823c d54a 53bd
00000120: 0ce1 16bd a716 e2bb 2d38 43ba 1306 933c
00000130: a1fe 5cbb 1f4e 7c3c 4cd5 c83c 9ca5 17bd
00000140: a792 913c 3838 56bc 5175 55bc 7c02 86bc
00000150: cbb7 503c 3b2e 14bd 1e32 f6bc ea63 a8bc
00000160: 44b0 8c3c de7f 0bbd ad96 ba39 b74f 9f3b
00000170: 6640 86bc c622 fdbb b2c1 3ebb b4af bf3b
00000180: 01a4 ebbc ed6a e1bc 45b3 bdbc 6ef5 f03c
00000190: b841 953c 7b5a c2bc 2e69 01bc 5f40 5d3c
000001a0: 7fba 1dbd 993b b9bb 4f6a 0abd ca48 aa3c
000001b0: f081 e73b f347 0dbd 30c3 13b7 679c 6fbc
000001c0: 73be 16bd 49d6 063a c1c6 37bb f20f dfbc
000001d0: 020c 32bd 6dfc 13bd b3d3 51bc 1a6b 3e3b
000001e0: de4c 283d 87c0 6e3c 1f4c 4d39 9547 87bb
000001f0: d583 9a3c 6b2c 5cbb 7e3f a43c 8cc6 bebc
0.0018767514 -0.016136315 0.02150279 -0.008477391 0.02213619 -0.012292113 -0.025559623 0.010830945
-0.0308496 0.0035510117 -0.024752632 0.008523651 -0.011230504 0.012821134 -0.031337123 -0.0008592949
0.0074516167 0.006427522 -0.045500778 -0.027581774 0.016508263 -0.0557876 0.0035129243 -0.01625121
-0.038010668 -0.008236551 0.0027857784 -0.011641562 0.01947094 -0.032349918 0.015698172 -0.0035005852
0.0047371397 -0.02656538 0.0016664459 -0.044804923 -0.025598234 -0.01319967 -0.040057648 -0.0011380718
0.03315463 9.708032e-05 -0.015414959 -0.011881362 -0.047902416 -0.03169789 0.012491453 -0.012841833
0.016150588 0.032871056 -0.015469292 0.016230369 -0.032931942 -0.027711835 -0.018985389 -0.03097952
-0.013331452 -0.007920753 0.006124471 0.0010454853 0.012506683 -0.0005950978 -0.048599686 -0.046378285
-0.0022029951 -0.013159729 -0.04423241 0.012728265 0.023613926 -0.027462222 0.015941959 -0.051585037
-0.036835715 -0.006899673 -0.00074470305 0.017947232 -0.0033721107 0.015399485 0.02451577 -0.03702317
0.017770125 -0.013074927 -0.013028459 -0.016358607 0.012739132 -0.0361769 -0.030053195 -0.020555455
0.017173894 -0.03405749 0.00035588947 0.0048617977 -0.01638813 -0.0077250926 -0.002910715 0.005849803
-0.028764727 -0.027516806 -0.023156771 0.029413905 0.018219814 -0.023724785 -0.007898612 0.013504117
-0.038507935 -0.0056528565 -0.03379279 0.020786662 0.0070650503 -0.034492444 -8.807328e-06 -0.014624692
-0.03680272 0.00051436253 -0.002804205 -0.027229283 -0.043468483 -0.036129404 -0.012806821 0.0029055537
0.04108893 0.014572269 0.00019578681 -0.0041284063 0.01886169 -0.003359581 0.020049807 -0.023288034

linear.weight f4 [3, 21888]
00000000: f704 09bb bbc8 b23b a24c 563b 1f7b 17bc
00000010: 32b2 243a 0c5a 81b9 dbbe 033b 2527 e93b
00000020: 851f 053c 54a7 b53b 5410 df3a 88a7 b43a
00000030: 672f eb3b c628 183c 654a 233a 113b 053c
00000040: fe4b cb3b 5a34 0b3c 720e 6e3b 4973 a6bb
00000050: 93a1 37bc ae5b 4bbc 5034 f3b9 5efd 89bb
00000060: d8e3 dcba 987c 1a3b 7a9c a43b 565e 163b
00000070: 2c27 d93b 59aa d9ba 1191 933b b678 873b
00000080: 115d 0e3c 6df2 08ba 9a36 ccb8 a9f3 da3b
00000090: 6256 d0b9 aff1 d039 b228 60bc 6df4 c0bb
000000a0: dc39 7fba 01d4 05bc 989b 893b 6aa2 ed3b
000000b0: 6aa7 203c 6eb5 753b 2dc2 8839 dc8b b23a
000000c0: 5888 5c3b 9af5 323c 7b80 ceb9 125b 3b3c
000000d0: 8bb7 a4b9 ad1b 9b3b d5be 7bbb 2656 eb3b
000000e0: a3b3 483b 5483 b7bb addf 3b3b 4067 e43a
000000f0: 232f fabb 991b dc3a bf60 9cbb 6e39 aa39
00000100: 5b31 8dba 5981 053c 3b20 563b 6aa2 1c3c
00000110: 0da1 fd3b 21d4 433c 2609 393b 8502 1a3c
00000120: 59c4 9738 b33a ec39 3830 14bb cddb 353c
00000130: 4381 83bb 67cd 563b b094 db3b b3a0 48bc
00000140: 3fff e438 7aaf d637 f0aa d0bb 8c61 4f38
00000150: adfc 0a3c a96d fb3b b645 33ba dd85 cf3b
00000160: e8eb cc39 ed9c 2f3c a833 223c a85a 453a
00000170: 1764 75bc 06ec 3fbb 071b 333a 03cf cdbb
00000180: f273 95bb 3421 76bb 1c16 b5bb 14b7 3fbb
00000190: 1f34 36bb 15df 863b 51ca 693b ab36 0f3b
000001a0: d2ac 5c3b f210 b33b 6554 593b 4964 88ba
000001b0: 0ed9 1abb 4fc0 b13b 73a5 5abc e4bb 40bc
000001c0: 1f29 0cbc 89c8 93b9 9355 2fb8 b2ab abb9
000001d0: f040 9fbb e6a4 81bb df52 04bc 40db 94bb
000001e0: a4d3 88bb 89ee db3b 47fe 4dbb 88e4 45bb
000001f0: 532a dc3b 4842 003c 5e52 beba d1e9 7a3b
00000200: d677 6f3b 5160 8c38 cbc2 05bc 038b 4abc
00000210: 2491 1dba bcb2 ffbb 95a3 e6bb d60e 4abb
00000220: fb9c fdbb 310d f839 629b babb 358a 63bb
00000230: 7f3c 09bc 3cc3 5bba 70f5 f7bb e03b f3bb
00000240: 65a2 f2bb 2253 b63b eb97 73bb c148 f6ba
00000250: 6791 44ba ac01 af3b 40a8 f7bb d4d1 adba
00000260: 5dbf 82bb 5f7b 11bc c7e8 7c3b f7c3 e8bb
00000270: 8959 fabb 53fe 40ba ec34 c1bb eb45 efbb
00000280: 7d6c e9bb ec15 0c3a b731 7aba f7d1 1abc
00000290: a87d f8bb d4d6 c2bb 901e 35bb 6a8e 9cba
000002a0: c99b 92bb bc10 5dba fd08 9dbb 55ae 89ba
000002b0: e03a a73a b16d 95bb a727 39bc 389e aeba
000002c0: a1e8 52bc b353 3dba a5b3 b7ba e9cb b93b
000002d0: 1662 f23b de36 193b 613b 243c 73e4 2a3b
000002e0: 1b01 17b9 2efd 253c ba1f c73b 4867 003c
000002f0: 3960 513b 03ce d03a c4ea 03bb 1ae7 86bb
00000300: 3f24 9cbb 4dfa 5abb 45f8 9dbb a34e c2ba
00000310: 4add 9c3a c433 e13b b1b5 933b 6dcf ec3b
00000320: 2f4d 133b 5620 8239 41d1 2c3c 9171 1cb9
00000330: fc51 393c cfd2 14ba 2742 1b3c bf49 b33b
00000340: b3ac 4b3b f930 d3bb dfc4 1fbc e449 65b7
00000350: fce5 c5bb 615a d73b 0439 cbbb a90f e53a
00000360: 2a6d 9c3b 88dc 4f3b fc31 c23b b1a2 813b
00000370: 52a9 2e3c a026 623b b6f2 9c3b 82b3 1d3c
00000380: d38a 3b3a ce42 343c 8aa3 263b 5b04 9a3a
00000390: b2d2 3fbc 38e6 293c e9f5 c23b 3013 04bc
000003a0: d8e9 4fbc 9c0b bebb fee5 093b db42 073b
000003b0: 6a4e 003c ed3e 363c da00 883a 1d3f 883b
000003c0: 7c20 043c 5901 2a3c efd2 413b 6391 053b
000003d0: ddb6 1d3c 0cda e83a 65f7 eb3b dba5 04bc
000003e0: 8a44 ac3a 0713 cdbb cd05 abbb 41ec e0bb
000003f0: 1c0f 18bc 67d1 d93b 9b26 3d3c 81b1 d13a
-0.00209075 0.005456058 0.0032699485 -0.009245663 0.00062826567 -0.00024671888 0.0020102772 0.007115262
0.008125191 0.0055436287 0.0017018416 0.0013782838 0.0071772817 0.009287065 0.0006229042 0.008131758
0.0062041273 0.008496368 0.0036324528 -0.005079661 -0.011207956 -0.012411995 -0.00046387548 -0.004211112
-0.0016852571 0.0023572799 0.0050235363 0.0022944412 0.006626984 -0.0016606554 0.0045033772 0.004134263
0.008689181 -0.00052241125 -9.737648e-05 0.0066818786 -0.00039737212 0.0003985292 -0.0136815775 -0.005888513
-0.00097361 -0.008168221 0.0041994564 0.0072520273 0.00980554 0.0037492174 0.00026084614 0.0013622004
0.0033650603 0.010922814 -0.00039387107 0.011435287 -0.00031417268 0.004733524 -0.0038413305 0.0071819006
0.003062465 -0.0056003723 0.0028667257 0.001742579 -0.0076350137 0.0016792893 -0.004772275 0.00032467715
-0.0010772155 0.008148515 0.003267302 0.009560207 0.007740146 0.011952431 0.0028234213 0.009400015
7.236814e-05 0.00045057162 -0.0022611748 0.011099768 -0.004013212 0.0032776238 0.0067010745 -0.012245345
0.000109194305 2.55925e-05 -0.0063680336 4.9443493e-05 0.008483094 0.0076729846 -0.0006838696 0.0063330964
0.00039085676 0.010718566 0.009900011 0.00075284624 -0.014977477 -0.0029284968 0.00068323355 -0.0062807812
-0.004560941 -0.0037556412 -0.0055263173 -0.002925341 -0.0027802063 0.004115949 0.0035673568 0.0021852653
0.0033672345 0.0054646665 0.0033161875 -0.0010405864 -0.002362791 0.0054245363 -0.01334511 -0.011763547
-0.008554726 -0.00028187435 -4.180295e-05 -0.00032743585 -0.004860036 -0.003956425 -0.008076399 -0.004542738
-0.00417562 0.006711785 -0.0031432079 -0.003019603 0.0067189126 0.007828303 -0.0014520397 0.0038286338
0.0036539934 6.6936605e-05 -0.008164118 -0.012362245 -0.00060107023 -0.007803289 -0.0070385435 -0.0030831597
-0.007739661 0.00047312074 -0.0056947926 -0.003471983 -0.00837624 -0.0008383279 -0.0075671 -0.007422909
-0.007404613 0.0055641094 -0.0037169408 -0.0018789993 -0.0007498473 0.0053407755 -0.0075578988 -0.0013261386
-0.0039900974 -0.008879512 0.0038590895 -0.007103439 -0.007640068 -0.0007362116 -0.0058962014 -0.007302036
-0.0071235285 0.0005343843 -0.0009544151 -0.009449474 -0.007583339 -0.0059460197 -0.0027636625 -0.0011944298
-0.0044741374 -0.00084329746 -0.0047923313 -0.0010504226 0.0012758635 -0.0045601954 -0.011300958 -0.0013322299
-0.012872846 -0.000722225 -0.001401533 0.00567006 0.0073969467 0.002337865 0.010023923 0.0026076108
-0.00014400894 0.0101311635 0.00607678 0.007837124 0.0031948222 0.0015930537 -0.0020128945 -0.004116905
-0.004765063 -0.003341335 -0.004820856 -0.0014824461 0.0011967805 0.006872626 0.0045077433 0.0072268755
0.0022476425 0.00024819624 0.010547937 -0.00014919626 0.0113110505 -0.0005677165 0.009476221 0.0054714377
0.0031078279 -0.006445047 -0.009751528 -1.3666668e-05 -0.006039379 0.0065720533 -0.006201865 0.001747598
0.0047737556 0.003171714 0.0059263688 0.003956162 0.010660486 0.0034507886 0.0047896756 0.0096253175
0.00071541703 0.011002256 0.0025427067 0.0011750566 -0.0117079485 0.01036983 0.005949725 -0.008061215
-0.01269003 -0.005799724 0.0021041627 0.0020639214 0.007831195 0.011123401 0.001037623 0.0041579143
0.0080643855 0.010376298 0.002957519 0.0020380847 0.009626118 0.0017765178 0.0072011226 -0.008096184
0.0013142985 -0.0062583718 -0.0052191974 -0.006864101 -0.009280946 0.006647277 0.011544849 0.0015998335

linear.bias f4 [3]
00000000: 7735 07bc 05c0 693c b8bb b83b
-0.008252493 0.014266972 0.005637612
